src/fashion_mnist_clf.pt (torch_old, 810088 bytes, 14 tensors)

conv1.0.weight f4 [32, 1, 5, 5]
000000 a4 0d cb 3d 45 0a 21 3e db 1b 4e 3e 6c 61 27 3e
       0.09914711 0.15726574 0.20127814 0.16345757
000010 e3 f8 fc bd 17 0f e4 3d 0b 9d 34 be 0f d2 6b 3e
       -0.12352159 0.11135691 -0.17638032 0.2302935
000020 7b 14 1c be 3a 59 02 bd a2 b4 9e bd 29 26 0e 3e
       -0.15242188 -0.031823374 -0.07749297 0.13881744
000030 f2 0b 46 bc 0c 1d 59 be 33 f3 14 3d f5 09 f9 bd
       -0.012087809 -0.21202487 0.036364745 -0.12160102
000040 5c 43 95 3b ab 59 02 3e 68 60 0c be 64 8a 29 3e
       0.004555149 0.12729518 -0.13708651 0.16556698
000050 32 e7 ae bd 52 bd fb 3d d9 29 0b be 4a 5a cc ba
       -0.08540191 0.12291969 -0.13590182 -0.0015590873
000060 95 c4 36 3e 48 68 ef bd 8d fd 5d be 04 49 a2 3d
       0.17848428 -0.11689812 -0.21678753 0.07924083
000070 67 e4 cf 3c 5f 0e 89 3d f0 32 d7 3d fc fb a1 bd
       0.025377465 0.06692194 0.105077624 -0.0790939
000080 a3 ab 9b bc d8 98 71 be ad 29 fb bd 2c c6 72 3d
       -0.019002741 -0.23593462 -0.122638084 0.059271023
000090 90 8d 6e 3d ac 45 f9 bd 81 0c 93 bd 5f 9f 0e bd
       0.058240473 -0.12171492 -0.07180119 -0.034819957
0000a0 ed 44 87 3d e4 d5 76 be 5e c7 40 be 24 cb 68 bc
       0.066049434 -0.2410503 -0.18826053 -0.014208589
0000b0 e6 9a bc bd 3a 0c d5 bd 68 f0 03 be 19 b2 1c be
       -0.09209232 -0.10402723 -0.12884676 -0.15302314
0000c0 d0 7e 6b be 0d c4 94 bc 60 34 34 3e 44 06 f5 bd
       -0.22997594 -0.01815989 0.17598104 -0.11964086
0000d0 a0 33 0d bd a2 fa 85 bc 2d 16 8a 3d 47 0e 76 be
       -0.03447306 -0.016354863 0.06742511 -0.24028884
0000e0 4f 3b 6e be fd 9d f6 bd e6 de 27 3c 2d 89 75 be
       -0.23264812 -0.120418526 0.010246014 -0.2397811
0000f0 56 57 78 be 3c 42 1f 3d 0f 5e 51 be 65 10 e7 bd
       -0.24252066 0.038881525 -0.20446037 -0.11282424
000100 72 bb 27 be dc ae 6c be 14 2f 1e be f6 ed 35 3e
       -0.16380098 -0.23113579 -0.15447646 0.17766556
000110 f2 83 30 3e 17 01 30 3e f5 4e 04 3d 4b 3b d4 bc
       0.17237833 0.17187916 0.03230186 -0.02590718
000120 59 20 1d 3e 58 23 92 3b 21 6e 0b 3d c1 01 34 3d
       0.15344371 0.0044597797 0.034040574 0.043946985
000130 bf 7e 16 be 80 8f 78 be ab 3c e9 bd a7 be 06 be
       -0.14696787 -0.24273491 -0.113885246 -0.13158666
000140 75 d0 0b be 6d 4f 03 3e 7e 6f 6e be 33 02 e0 3d
       -0.13653739 0.12823267 -0.23284718 0.109379195
000150 43 1d fe bd a0 84 93 3d 1b 0a 0e be a5 22 9d 3d
       -0.12407925 0.072030306 -0.13871042 0.076726235
000160 09 49 29 3e fe e9 0c 3e d2 be f9 3d c7 2e 75 be
       0.16531767 0.13761136 0.12194599 -0.23943625
000170 e1 7b 3c bd d2 09 96 bd 11 94 37 3e ce 80 68 be
       -0.046016578 -0.07326092 0.17927577 -0.22705385
000180 ed ad 87 be 19 18 31 3e 84 5c c8 bd cd 2c 0c be
       -0.26499882 0.17294349 -0.09783271 -0.13688965
000190 6f a6 30 3d 8e 9b 06 be 2b c1 aa 3d 64 76 19 bd
       0.043127473 -0.13145277 0.08337625 -0.03746642
0001a0 fd 45 71 3d 5c 24 f1 3d 94 6a 7d be 3b 42 e6 3d
       0.058904637 0.11774513 -0.24747688 0.11243101
0001b0 54 47 84 be a9 a9 85 be dd 3d 2f bc 4f e6 1e 3c
       -0.2583567 -0.26106003 -0.010695902 0.009698465
0001c0 fb 58 a0 bc 47 80 48 be 8c d0 0b 3d 64 a2 20 3e
       -0.01957368 -0.19580184 0.034134433 0.15686947
0001d0 21 2c 33 3e ef 77 32 be 11 94 cb bc 2f a6 15 be
       0.17497303 -0.17428564 -0.024850877 -0.14614175
0001e0 61 28 3b 3e 41 81 11 be ee 06 57 bd ee 16 f1 bd
       0.18277122 -0.14209463 -0.052496843 -0.117719516
0001f0 40 c3 42 3c a3 07 29 3e 85 d0 0a 3e 22 2a 02 be
       0.011887372 0.1650682 0.13556106 -0.12711385
000200 85 ee 42 3e 3b c9 30 be 12 fb e5 3d 2d 43 79 3e
       0.190363 -0.17264263 0.112295285 0.24342032
000210 6f fd 3f 3e e4 6d ed 3d d6 e2 ed bd 9f 6e 43 3e
       0.18749021 0.115932256 -0.11615531 0.19085167
000220 d9 22 4e 3e b9 b1 27 3d 0c fb a9 bc 20 56 2d 3e
       0.20130481 0.040940974 -0.020749591 0.16927385
000230 38 6e a0 3d 39 ca cc 3d 1b e5 56 3e 5e b3 e4 bc
       0.078335226 0.099995084 0.20985834 -0.02791756
000240 6e 69 40 3e 47 43 ae bc 8c 2f 6e 3c 7b 2b 32 3e
       0.18790218 -0.021272315 0.014537703 0.17399399
000250 e9 2a fc ba 3d 26 66 3e 4b c2 e3 bd 4e b8 c1 3d
       -0.0019238862 0.22475524 -0.11121043 0.094589815
000260 72 f6 56 be 44 70 50 bd 05 f5 3b 3e b9 c2 cd 39
       -0.20992449 -0.050888315 0.18355186 0.00039245727
000270 f6 46 47 3e 47 2f 0a bd a7 cf ce 3d df 96 37 3e
       0.19460663 -0.033736493 0.100982 0.17928647
000280 2e 2f 78 3e 76 f0 1e be c9 33 cd 3a 13 2d 85 3e
       0.24236748 -0.15521416 0.0015655692 0.2601095
000290 9e 39 bb bd 53 ad f8 3c 8c 14 a0 bc b9 69 3b 3e
       -0.09141849 0.030356085 -0.019541048 0.18302049
0002a0 02 01 6f 3e 04 c4 2c 3e 07 9a 5c be 6e 6f 25 be
       0.23340228 0.16871649 -0.21543132 -0.16155788
0002b0 48 8a e5 bd cc f7 80 3e b3 1d 4c be 6d ef 20 bd
       -0.11208016 0.25189054 -0.19933204 -0.039290834
0002c0 96 c8 6e 3e 5e 50 f1 3d 46 3d e0 3d 29 57 7a bd
       0.23318705 0.11782907 0.10949187 -0.06111828
0002d0 91 64 d2 3d 25 ff 29 3e 26 68 14 3e ba f3 64 bd
       0.10273088 0.16601236 0.14492854 -0.0558965
0002e0 76 8f 66 be f3 46 16 be 91 88 c7 3d a0 e6 11 be
       -0.22515664 -0.14675502 0.09742845 -0.14248133
0002f0 a0 b7 02 3e f9 ee 1b be d6 ca 1d 3e 3d a9 4d 3e
       0.1276536 -0.1522788 0.15409407 0.2008409
000300 a1 0c 27 3e ed 40 06 be f5 a3 29 3d 9d 2a 12 be
       0.16313411 -0.13110705 0.041416127 -0.14274068
000310 44 9e 25 3e 89 ad 31 be 79 92 e6 3d 80 2b 15 3e
       0.16173655 -0.17351355 0.11258406 0.14567375
000320 8e 37 82 be 3a d5 08 3e 7f ad a0 3d 5d 69 b7 3d
       -0.2543301 0.1336259 0.07845592 0.08955643
000330 2d 79 72 bd 42 eb 1a be 5f 58 54 3e 00 8e fd 3d
       -0.059197593 -0.15128806 0.20736836 0.123806
000340 d9 44 6f be c5 44 21 be c0 75 87 3c 3e 02 45 3e
       -0.23366107 -0.1574889 0.01653564 0.19239137
000350 1b cd 1e bd e7 eb 41 bc c2 d1 06 3e d6 31 9f bc
       -0.038769823 -0.011836029 0.13165954 -0.019432943
000360 d7 a3 5a 3e dd 28 8a 3e c2 f9 c0 bd 17 70 a3 bd
       0.21351562 0.269843 -0.094226375 -0.07980364
000370 eb c6 6a bd 94 d7 40 3e 31 10 38 3e e1 91 8c bc
       -0.05731861 0.18832237 0.17974927 -0.017159404
000380 01 00 09 3e a9 27 16 3e e9 43 55 be a0 71 ca 3d
       0.13378908 0.14663567 -0.20826687 0.098849535
000390 49 82 4e be d5 8f 95 bd da b8 6a bd 48 42 19 3d
       -0.20166887 -0.073028244 -0.057305194 0.037416726
0003a0 fb 44 c6 bd 1e fb 79 be 21 cf 73 be 28 0c 03 3e
       -0.09681126 -0.244122 -0.23809482 0.12797606
0003b0 f6 27 c4 3d 0e b0 29 3e 94 b2 0f 3e 1c 81 3d bd
       0.095779344 0.16571066 0.14032966 -0.046265706
0003c0 0e 1b 49 3e be 50 57 be 54 f5 1a be de e5 ad 3d
       0.19639227 -0.21026894 -0.15132648 0.08491109
0003d0 3a b9 18 3e e0 29 c6 bc 21 e9 80 be a5 c0 26 be
       0.14914408 -0.02418989 -0.25177863 -0.16284426
0003e0 69 6d 80 be d4 70 46 be 4b 0e 0d 3e ff 25 28 3e
       -0.25083473 -0.19378978 0.13774984 0.16420744
0003f0 46 68 13 3e 6d e9 17 be f2 6a e4 3d 2a 5a 97 bd
       0.14395246 -0.14835139 0.11153211 -0.07390244

conv1.0.bias f4 [32]
000000 e6 7e 53 3e 27 ae 3f 3d 0f 37 2c 3e 6e 15 3c 3e
       0.20653877 0.046796944 0.16817878 0.1836755
000010 82 6d 6c bd 47 31 b5 3c 36 d5 e0 bd fa 88 1b 3e
       -0.057721622 0.022118224 -0.10978167 0.15188971
000020 4f 96 5c bc 96 17 49 3d 0c 87 cc 3d ce cc aa 3d
       -0.013463571 0.04909476 0.09986696 0.08339845
000030 d8 c9 f6 bd da 57 d8 3d 33 43 cf 3d cf 02 f6 3d
       -0.120502174 0.10563631 0.10120239 0.120122544
000040 19 c6 aa bd 28 db 6c 3d 70 8a cd 3b 1a 46 5f 3e
       -0.083385654 0.05782619 0.0062726066 0.21804085
000050 88 b6 14 be 17 29 18 3d 65 23 74 bb f7 af 94 3d
       -0.14522755 0.03714856 -0.0037252542 0.07260125
000060 ad a6 e7 3c 29 39 bd bd 6a 87 bd bd 13 98 16 3c
       0.02827772 -0.09239418 -0.09254344 0.009191531
000070 10 2d 73 bd ea 5a f3 bd 7c ac 85 bd 26 f6 30 3d
       -0.059369147 -0.11882575 -0.065270394 0.043203495

conv2.0.weight f4 [64, 32, 5, 5]
000000 d2 49 40 3d e9 ff b2 3c 45 a4 08 bd b6 4d bf bb
       0.0469454 0.021850543 -0.033359785 -0.0058381213
000010 e6 00 89 bd 55 bb 31 3d fd f3 08 bb 5f bb 12 3d
       -0.066896245 0.043391544 -0.0020897381 0.035823222
000020 0c b7 3d 3d b9 6f 55 bb 49 2b 0d bd 34 8d a9 3c
       0.046317145 -0.0032567813 -0.034465108 0.020697214
000030 33 95 3c 3d d0 e5 74 bc 01 2c 72 3c 8f 68 de 3b
       0.046040725 -0.01494737 0.014780999 0.0067873667
000040 e2 e5 b4 3b 1f f5 0b 3c 5f 7a d9 bc df 8f fd 3c
       0.005520568 0.008542328 -0.026547609 0.030952392
000050 27 82 7b 3c 2e 6a 54 3b 32 e8 96 3d 66 07 d2 bc
       0.015350855 0.003241192 0.073685065 -0.025638293
000060 e2 f2 93 bc 70 24 40 3a 63 90 e3 bb 4e 2b 2d bc
       -0.018060151 0.00073296484 -0.0069447025 -0.010569407
000070 a6 be 9a 3a 66 0a ab 3c c7 3c 8a 3d e7 fc 54 bb
       0.0011806085 0.020878982 0.067498736 -0.0032499374
000080 bf 23 59 bd e6 ef 65 bd db 43 9a bb f4 b9 8e 3d
       -0.053012606 -0.056136988 -0.004707796 0.069690615
000090 2d b8 b4 bc 58 72 49 bd 06 07 2d bd d2 c7 4d 3d
       -0.022060478 -0.049181312 -0.042243026 0.05023939
0000a0 c2 68 70 3d b5 b3 2f bd 3b d4 aa bc b8 ff 05 3c
       0.058693655 -0.04289599 -0.020853152 0.008178644
0000b0 f7 b5 16 3d ee bd 90 bc 80 31 cc 3c a1 0e 1e 3d
       0.03679463 -0.01766869 0.024925947 0.03858817
0000c0 e7 37 4f 3d 3b e0 10 3d 42 ab f1 bc ed f7 61 3d
       0.050590422 0.035370093 -0.029500607 0.05516808
0000d0 97 72 c2 bb de 69 ac 3a 67 a7 15 3d b3 2f 98 bc
       -0.0059340703 0.001315411 0.0365366 -0.018577432
0000e0 09 5c 86 3d 7a 07 81 3c cc 40 38 3c 34 ea bf bc
       0.06560523 0.015750635 0.0112459175 -0.023427106
0000f0 18 11 a4 bb e6 66 c4 3c 40 93 08 3d 8e 48 fd bc
       -0.0050069205 0.023974847 0.033343554 -0.030918386
000100 6b c6 25 3c 29 92 99 3d 8a 09 e7 3c 50 64 93 bd
       0.010118107 0.07498581 0.02820279 -0.071968675
000110 3b a4 37 bd df 47 9a bc 87 d6 b7 3c 07 b2 2c bc
       -0.044834357 -0.018833099 0.022441162 -0.010540492
000120 2d 66 15 bd f5 37 70 3d 18 f3 31 3d bc fa 56 bc
       -0.036474396 0.058647115 0.043444723 -0.013121303
000130 0b 1f a9 3d 8a 31 bd bc 4d 3e 55 3d 15 14 a6 3c
       0.08257874 -0.023094911 0.052061368 0.020273248
000140 b0 aa 2b 3c 85 c0 02 3d 70 95 b1 bc 70 f7 85 bb
       0.010477707 0.031921882 -0.021677703 -0.0040883347
000150 6d 90 c1 bc e1 c7 28 3d 9c 37 39 3d 6b f8 0e bc
       -0.023628438 0.041206244 0.04521905 -0.00872622
000160 a5 0a 3c bd e1 e2 1e 3d ef e8 8b 3d 0b bd 0a 3c
       -0.04590859 0.038790587 0.06831538 0.008467923
000170 8a 88 51 bd 57 66 a9 bc 96 d8 1c bc 86 8a 2a 3d
       -0.051155604 -0.020678682 -0.0095731225 0.041636012
000180 f7 39 3a bd fe 54 19 bc 3a cc 8b 3d bc 65 5d 3c
       -0.045465436 -0.009358643 0.068260625 0.013513025
000190 bd 09 c5 3c ea bb 3c bd b3 13 03 bd fe 96 47 3d
       0.024052495 -0.046077646 -0.03200121 0.04872798
0001a0 9c 4a 27 3c 6a ac b0 bc 01 74 9a bd 49 ab af bc
       0.010210659 -0.021566588 -0.07541657 -0.02144398
0001b0 72 89 cd 3b 01 8e 68 3d 9a 9b 51 3d ea fa 98 bc
       0.0062724883 0.05677605 0.051173784 -0.018674333
0001c0 08 8e 90 bd df e4 94 3d e0 bf a9 3d 76 a8 25 bd
       -0.0705834 0.07270216 0.082885504 -0.04044386
0001d0 36 31 c2 bd b4 94 1c 3d f9 00 4a 3d fd 01 93 3d
       -0.094820425 0.03822775 0.049317334 0.071781136
0001e0 a1 ef 07 3c 1c 0d 1d bd 5d d1 31 3d 81 d6 04 bd
       0.008296878 -0.03834258 0.043412555 -0.03243113
0001f0 94 26 10 bd 59 29 d5 3c 9f 4a 55 bc cf 1c be 3c
       -0.03519304 0.026020693 -0.013018279 0.023207096
000200 89 f9 11 bd b3 d8 71 bc 3b 31 6b 3d e1 c4 75 bd
       -0.035638366 -0.014761138 0.057419997 -0.06000221
000210 c3 51 24 3d ad 20 79 3b 12 6d b6 3c 3f 5e 44 3c
       0.040117037 0.003801386 0.022268806 0.011985361
000220 19 e1 ab bc 5e e1 9f 3c 04 84 00 bc bd b4 ab 3c
       -0.020981358 0.019516643 -0.007843975 0.020960206
000230 0e 42 e9 bc ad f1 29 bd 85 59 c5 3b af d2 d9 bc
       -0.02847388 -0.041490246 0.0060226345 -0.02658972
000240 2b 49 69 3d 1d 61 f4 bc 87 48 eb 3c f9 ed d2 3c
       0.056954544 -0.029831463 0.028721107 0.02574824
000250 6e 45 c4 3c a1 6c 1e 3d ef a7 ab bd e7 7c 37 bd
       0.023958888 0.038677815 -0.0838164 -0.04479685
000260 d0 19 06 bd a0 bc 06 bd 3c d2 91 bd a4 ca 75 bd
       -0.03273946 -0.03289473 -0.07120177 -0.060007706
000270 31 83 b6 bc f8 8d 40 bd cf b1 ee bc 4d 54 c8 bd
       -0.022279354 -0.047010392 -0.02913752 -0.09781704
000280 28 d1 86 3d 92 b9 80 bd 7d 30 71 bc 4f 9b 04 bd
       0.06582862 -0.06285395 -0.014721033 -0.032374676
000290 03 bb 82 bd 60 10 40 3d f4 18 2f bd 57 b3 ca bc
       -0.06383326 0.046890616 -0.042748407 -0.024743719
0002a0 a8 55 b9 3c 03 2f 47 bb ab 7b a3 3c fd 64 a1 bc
       0.022623852 -0.0030393011 0.01995643 -0.019701475
0002b0 13 15 a7 bd b5 33 33 3c 87 0c 3c bb 83 67 87 3d
       -0.081583165 0.010937621 -0.002869399 0.0661154
0002c0 61 8d 5a bd 9c a6 ba 3c 48 40 4e bd 25 ad b8 bc
       -0.053357486 0.022784524 -0.050354272 -0.0225435
0002d0 af ff 46 3d 51 7d ca bd 31 71 87 bb 70 0c eb 3c
       0.048583683 -0.098871835 -0.0041333665 0.028692454
0002e0 4e ef 4d bd 6e 93 fa ba 85 cd 67 3c 25 d2 a2 bb
       -0.050277047 -0.0019117424 0.014148121 -0.004968899
0002f0 17 11 39 3d 08 78 3d 3d 58 cb 52 bd 63 d2 29 bc
       0.045182314 0.04625705 -0.051463455 -0.0103651015
000300 55 b9 76 bc 4c 5f a1 3c a8 49 38 3c 1d 83 79 bd
       -0.015058835 0.019698761 0.01124803 -0.060916055
000310 f1 9b 67 3c 87 27 30 bc a4 84 98 3c 31 e5 83 3d
       0.0141363 -0.010751612 0.018617935 0.06440199
000320 18 46 57 3d a9 74 40 bc e8 97 01 3c b2 f3 33 3d
       0.05255708 -0.011746564 0.007909752 0.043933578
000330 ea 3f ad bc 38 06 23 bd 8d e0 97 bd 25 7f 8a 3c
       -0.02114864 -0.039800853 -0.074158765 0.01690633
000340 3d 64 46 3d b5 17 8d bc 76 30 02 bd ec 16 1c 3d
       0.04843544 -0.017223218 -0.031784497 0.038107798
000350 40 0b 81 3b c6 0c 8d 3a 85 ba 01 bd 78 12 6f bd
       0.0039381087 0.0010761253 -0.03167202 -0.058367223
000360 a8 60 a6 3d 14 7e 6e bd 8b fe 39 bc 89 f2 2b bd
       0.081239045 -0.058225706 -0.011352192 -0.041979346
000370 be 85 29 bd bc 04 9f 3d 8a 6f 9e bd 62 77 46 bd
       -0.041387312 0.07764575 -0.07736118 -0.048453696
000380 e8 d0 13 3c 5e 8d a5 bc 91 8b 99 bc 56 8c 18 3d
       0.009021975 -0.02020901 -0.018743308 0.03724321
000390 aa 61 26 3d 68 af 3e 3d e0 3b ae 3c 18 d6 82 bd
       0.040620483 0.046554 0.021268785 -0.063884914
0003a0 cd bd 43 bd 23 bd 48 3c de 95 35 3c 0c 49 54 3c
       -0.04778843 0.012252125 0.011083094 0.012956869
0003b0 d6 42 ac bc 45 3d 4f bd 63 25 2d 3d a5 d1 8d 3d
       -0.021027964 -0.05059554 0.042271983 0.06924752
0003c0 fe 6c 76 3d e1 1f a8 bd 32 ee 39 3c 2b 95 d3 3d
       0.060162537 -0.082092054 0.011348294 0.10331186
0003d0 b2 76 2c 3d c3 23 2a bd ba 32 e2 bb 81 13 26 3d
       0.042105384 -0.04153801 -0.0069030197 0.040545944
0003e0 94 c2 86 3d 6c 81 13 bc 49 a0 07 3d 88 62 c3 bd
       0.065800816 -0.009003025 0.033111844 -0.09540278
0003f0 7b 97 2c 3d 52 34 d4 3c 98 67 1c bc cf 77 47 3d
       0.04213665 0.025903855 -0.009546183 0.048698243

conv2.0.bias f4 [64]
000000 2f b0 aa 3c 81 01 63 bb 98 8a 06 bb 38 09 35 bc
       0.020835964 -0.0034638348 -0.0020529386 -0.011049561
000010 64 a2 9f 3c 1c 5f 99 bb f1 ac 1e bc bc cc cc 3b
       0.019486614 -0.0046805274 -0.009684787 0.006249992
000020 3a 12 46 3c 7b 18 d2 3c f8 f7 87 3c 46 ca 3e 3b
       0.0120893065 0.025646439 0.016597733 0.0029112264
000030 f8 3a 07 3d 8a f1 ff 3b 5a eb ee bc d5 46 ac 3c
       0.03301522 0.007810776 -0.029164959 0.02102987
000040 7c 6d be 3c 34 af 07 bd a0 c4 c8 3c 62 54 01 bd
       0.023245566 -0.03312607 0.02450782 -0.031574614
000050 d5 ae 77 3c b4 43 f2 bc 81 e6 5e 3c 07 14 39 3c
       0.015117367 -0.029573299 0.013604761 0.011296279
000060 96 0a b1 3c 7c aa 22 3d 91 4f a7 bc 33 da 04 3d
       0.021611493 0.039713368 -0.020423682 0.032434653
000070 39 b2 fb 3c c1 ff a2 3c 2b ee 74 3b 84 4d 23 3b
       0.030724632 0.019897344 0.0037373404 0.002491803
000080 36 d4 89 bc 95 c2 cb 3a 4d 36 f8 3c 82 73 af bc
       -0.016824823 0.0015545661 0.03029933 -0.021417383
000090 c1 5a 18 bd ad 21 3e 3d cd 5f 7e 3c 1e ab 21 3a
       -0.037195925 0.046418834 0.01552577 0.0006167161
0000a0 a5 2f 00 bd 42 fc 35 bd 08 d7 ad 3a 64 5d 51 3d
       -0.031295437 -0.044430025 0.0013262937 0.051114455
0000b0 2a c6 93 bc 4a 93 c1 3c bd 62 50 bc c1 fe 4b 3d
       -0.018038828 0.023629803 -0.012718854 0.0498035
0000c0 5f c8 78 3c 1a 32 72 3c 91 8a f6 bc a5 ae 62 bd
       0.015184491 0.014782453 -0.03009537 -0.055342335
0000d0 7a 98 07 bd d9 85 d7 3c e0 52 74 bb d8 83 20 bd
       -0.033104397 0.02630894 -0.0037280843 -0.039188236
0000e0 b9 03 1b 3c b4 ad 38 bd a2 71 e6 3c 3b 9a 1a 3d
       0.009461337 -0.04508753 0.028130356 0.037744742
0000f0 af d3 31 3d 56 a3 11 bd 1c ab 5d 3d 3f 49 ad 3c
       0.043414768 -0.03555616 0.05411826 0.02115309

conv3.0.weight f4 [64, 64, 5, 5]
000000 e5 4b cd ba 6b 70 1c bd 96 0e 94 3c 27 9b 1c bc
       -0.0015662877 -0.038193148 0.018073361 -0.009558476
000010 cd 17 0e bd 85 70 ff 3c fc bb ad 3c 27 c7 22 bc
       -0.034690667 0.031181583 0.021207802 -0.009935177
000020 f0 72 b6 3b d7 c5 38 3d 23 bb 8c bc 89 bf 29 bd
       0.005567901 0.04511055 -0.017179077 -0.041442428
000030 24 9a 91 3c 62 5a 90 3c 17 f0 d9 3b 0f 31 9b bc
       0.017773695 0.017621223 0.0066509354 -0.018944291
000040 8f de 5e 3d c0 32 06 bc 41 07 e6 3c cb ce 1e 3c
       0.054411467 -0.008190811 0.02807963 0.009692858
000050 54 51 b3 38 c8 ce 1b 3d 17 ba c5 bc b2 ae 05 3d
       8.550534e-05 0.038039 -0.024136586 0.032637306
000060 7a b7 af 3c 4d 0b 33 3c fd 86 ca bb 83 37 50 bc
       0.021449793 0.010927987 -0.0061806426 -0.0127085475
000070 1c 61 4b 3b 4c a6 6b 3c a8 47 47 bc 80 0f d0 3c
       0.0031033223 0.01438291 -0.01216308 0.025398016
000080 83 bd fc bc 90 30 a7 bc 7e 71 e8 3c c5 c3 e8 3c
       -0.030852085 -0.020408899 0.02837443 0.028413663
000090 0d 1e 5c 3d df cc 86 3b ad 92 48 bd a6 e4 21 ba
       0.053739596 0.004113778 -0.048968006 -0.0006175734
0000a0 80 b5 8d 3b d9 0f 80 3b 03 cd 8d bc ee 21 66 bd
       0.004324615 0.003908139 -0.017309671 -0.0561847
0000b0 39 89 27 3c cf 89 16 bc 22 e3 bc 3c b1 da 5a bd
       0.0102255875 -0.00918813 0.023057524 -0.053431217
0000c0 3c cc 18 bc 12 8b d3 bc 85 37 12 bb b9 03 49 bc
       -0.009326037 -0.02582315 -0.0022310924 -0.012268954
0000d0 29 e6 83 bc 6c 04 26 3c 95 c2 20 bc d6 8a 03 bc
       -0.01610096 0.01013289 -0.009812017 -0.008028707
0000e0 ad cc 37 bd 26 fd 1a bb 08 b7 8b 3c 54 b7 26 bd
       -0.04487293 -0.0023649423 0.01705505 -0.04070218
0000f0 1c c2 06 bd 3d 9d d9 ba 65 c6 08 bc d3 dd b7 bc
       -0.03289996 -0.0016602647 -0.008348082 -0.022444641
000100 7d 54 9e 3b dd 9c cd 3c dc ce 3f bd b5 d1 c7 3c
       0.004831849 0.025099212 -0.046828136 0.024391988
000110 69 79 da bb 17 2e 95 3c 91 90 4f bd f0 25 1b bd
       -0.0066673052 0.018210454 -0.05067498 -0.037877977
000120 4a 81 a7 bb 3a fd ba bc 69 1d e5 bc 9a ca 2c bc
       -0.005111848 -0.022825826 -0.027968125 -0.010546351
000130 78 a9 a2 3a 4e 60 4a bd 5f 23 b7 3c eb 72 13 3d
       0.0012410125 -0.04940825 0.022355733 0.035998266
000140 c4 f9 ea bc 91 78 e2 bb f2 ae 35 3d 1f a3 90 3c
       -0.02868355 -0.0069113453 0.044356294 0.017655907
000150 e5 33 25 3c 19 3a cf bc 06 ec 75 bc d1 51 b4 3c
       0.010083173 -0.025296258 -0.015009886 0.02201167
000160 be 2a ff bc 7e 1e d8 bc 5d 33 01 bc 5c 6c 50 bc
       -0.03114831 -0.026381727 -0.007885781 -0.012721147
000170 d4 56 72 3b f8 a1 2d 3b c8 1e d4 bb fd 9c a6 bb
       0.0036978023 0.0026494246 -0.006473396 -0.0050846324
000180 d8 bb 7b bc 22 38 ac bc dc c8 b5 bc fa 62 1f bd
       -0.01536461 -0.02102286 -0.022190504 -0.03891275
000190 fe 9a 44 3d a0 af 68 3d 8e ba 03 bd 37 36 c5 3c
       0.047999375 0.056808114 -0.032160334 0.024073703
0001a0 a6 79 21 3d 7a 6f 7e bb b9 91 7a 3c ad 8c 3a bd
       0.039422654 -0.003882377 0.015293532 -0.045544315
0001b0 cc d4 ef bc f1 ec c6 3c 13 c2 a5 bc 5f 6d a5 bb
       -0.029276274 0.024282904 -0.020234143 -0.0050484384
0001c0 60 97 1e 3b 6f ed 81 3c d6 f7 e5 bb ac bf 7a 3d
       0.0024199113 0.015860287 -0.0070180697 0.06121795
0001d0 28 0e 29 3d b0 c3 52 bc 42 19 2d bb 01 b1 42 3d
       0.041273266 -0.012864038 -0.002641276 0.047532085
0001e0 18 a7 61 bc 54 74 bf bc e9 ef 3e bd fb 6a 4a 3c
       -0.013772748 -0.0233709 -0.046615515 0.012354608
0001f0 26 14 fa 3c 74 30 70 3c ba 47 a2 3b 91 7f cc 3b
       0.030527186 0.01465999 0.004952398 0.006240793
000200 23 a8 9e bb ed a6 70 bc 4d ec 8c 3c cc 4b ef bc
       -0.004841821 -0.014688236 0.01720252 -0.029210947
000210 5d 1c f2 bb d3 ed 04 3d 07 f2 58 3c 9f af 5d 3c
       -0.007388635 0.03245337 0.013241298 0.013530641
000220 fb 28 1e 3c cd 4b 6f 3b 4a 0b 26 bc 6e 59 bf 3c
       0.009653325 0.0036513687 -0.010134527 0.023358073
000230 36 be 55 3d e9 25 84 3c 26 ac 1b 3b 32 23 19 bc
       0.052183352 0.016131358 0.0023753732 -0.00934677
000240 b1 03 01 3d 1a fc 22 3c 8b 7c fd 3c 00 13 03 3c
       0.03149766 0.009947801 0.030943176 0.008000135
000250 27 a7 b3 bc bd 35 0f 3c a0 98 ac 3c 1f a2 53 3c
       -0.02193029 0.00874084 0.021068871 0.012917071
000260 3e 1d 65 bd 42 65 e3 bc 76 16 5c 39 72 13 4e 3d
       -0.05593609 -0.027758244 0.00020989202 0.050311513
000270 d2 de e2 3c cf 42 8d bc 54 02 01 3d 1a 3a 3d b9
       0.02769414 -0.01724377 0.03149636 -0.00018046089
000280 39 e6 5a bc 4d 64 7e 3d 00 f8 1e bd 6d 05 cb bb
       -0.013360553 0.062107373 -0.03881073 -0.006195715
000290 42 64 8e 3c f0 55 95 bc a3 89 32 3d 37 86 e3 bc
       0.017381791 -0.018229455 0.04358829 -0.02777396
0002a0 f9 56 d1 3b 78 e1 e1 bc 24 77 0e 3d b4 23 dd 3c
       0.006388542 -0.027573332 0.03478159 0.026994564
0002b0 cc f7 94 3c 8a c6 98 3c 21 52 f0 3a 18 e1 cf 3c
       0.018184565 0.018649358 0.0018335023 0.025375888
0002c0 f4 dd 9a 3a d8 35 86 bc b9 f5 6e 3c ec 2a 4b bc
       0.0011815415 -0.016383097 0.014584952 -0.01240037
0002d0 71 3e fe 3c 3d b9 26 bd 10 99 9d 3c c9 67 0a 3d
       0.031035634 -0.040704 0.019238025 0.033790383
0002e0 b5 42 b5 3c 4a 52 a6 bb 86 ed 2b 3b e5 a7 5a bc
       0.022126535 -0.0050757276 0.0026234104 -0.013345693
0002f0 ae 27 3f 3c 4f 4c 39 3d 96 30 9c 3b 1d 83 ae bb
       0.011667175 0.04523879 0.004766534 -0.0053256885
000300 f6 53 9d 3c f8 b4 41 b9 8d 22 9a 3b 93 b9 de 3c
       0.019205075 -0.0001847333 0.004703826 0.027188098
000310 78 d3 9c bc b9 ed c9 3c 8e 70 2f bc 4b 27 7c bc
       -0.019143805 0.024649488 -0.0107079875 -0.015390228
000320 3c 66 37 bb 65 d5 29 3d 21 aa bb ba 4b 80 a2 3c
       -0.002798452 0.041463275 -0.001431767 0.019836565
000330 a3 49 32 3c 31 ed 95 3c bf 57 91 bc e0 1d fa bb
       0.010881814 0.018301578 -0.017742036 -0.007632956
000340 08 d4 b3 bc 13 3c 50 bd 44 ee 15 3c f8 ef c6 3c
       -0.02195169 -0.05083854 0.009151045 0.024284348
000350 14 39 19 bb 69 07 dd bc 3f 63 ad 3c d0 07 89 bc
       -0.0023379968 -0.026981073 0.021165488 -0.016727358
000360 90 50 3f 3d 67 84 ae bc 51 47 52 3c ea 5e 43 bc
       0.04670769 -0.021303369 0.012834386 -0.011924485
000370 5f a5 00 bd 9b 65 8c 3b ca 0c 58 3d 86 2b 07 3d
       -0.03140771 0.0042845733 0.05274657 0.03300049
000380 b5 7e 3f 3b 4a ae 0d 3d ae ea 31 3d 5e d0 2a 3b
       0.002921981 0.034590043 0.0434367 0.0026064138
000390 b4 a7 c9 3c 50 24 cc bb 12 2d 14 3d 4c 6e 7b bc
       0.0246161 -0.0062299147 0.036175795 -0.015346121
0003a0 b2 4f d4 bb 95 7b ed 3b 85 86 14 ba 4c da fb 3b
       -0.006479227 0.007247398 -0.0005665797 0.007685935
0003b0 6c ac fc bc 22 fe 47 bd 12 9a 09 3b 59 8c dd bb
       -0.030843936 -0.048826344 0.0020996374 -0.0067611155
0003c0 4a 27 52 3d 4f 13 9b bc da f4 f7 bc a3 41 0f bc
       0.051307 -0.018930105 -0.030268122 -0.008743676
0003d0 3a 6b aa bb 24 62 02 3c d4 47 f3 bc 47 17 58 3c
       -0.0052007707 0.007957969 -0.029697336 0.0131891435
0003e0 7b 94 86 bc c2 3c 7b 3c e5 fb a6 3c b4 74 de 3c
       -0.016428223 0.01533431 0.020383785 0.027155258
0003f0 5a 6d 3e 3c 9f 5f a7 bc 3e 1b bf 3c 8c de 1b bb
       0.011622751 -0.020431338 0.02332842 -0.0023783771

conv3.0.bias f4 [64]
000000 7e f4 0d 3d 9f 43 2a 3c fb ae 91 bc 5b 21 e8 3b
       0.034656994 0.010392099 -0.017783633 0.0070840544
000010 ea 4a eb bc 37 f8 32 bd 70 62 09 3d c1 a5 bd 3c
       -0.028722245 -0.043693747 0.033541143 0.023150327
000020 1a ad 0b 3d 60 94 38 3d 7d eb 25 3d ea ae b3 bc
       0.03410063 0.045063376 0.040507782 -0.021933991
000030 9c 31 e2 3b 83 c0 32 bc 92 58 af 3b ba 01 41 bd
       0.0069028866 -0.010910156 0.0053511346 -0.047120787
000040 17 e7 5a bc 1c bc 8d bb 21 9b 49 39 b8 2b a1 bc
       -0.01336076 -0.004325403 0.00019226644 -0.019674167
000050 4f b2 1f 3c 8a 1e 11 bd 51 3d b2 3c 7c e0 f0 bb
       0.009747102 -0.035429515 0.021757754 -0.0073509794
000060 f8 a9 60 3d 60 b8 16 3d e3 4e a0 3c 4f 4d 83 bc
       0.054849595 0.036796927 0.019568866 -0.016028075
000070 2b 38 f0 3c 31 ef 7a 3c 9d 47 94 3c 44 15 90 bc
       0.029323658 0.015315817 0.018100554 -0.017588265
000080 c9 d2 ee bc f5 5e 4a bd 9a 4f 77 bc 94 18 7e bb
       -0.029153245 -0.049406964 -0.015094662 -0.0038771974
000090 60 94 92 3c 3e e0 16 bd c9 55 85 bc 13 a4 94 3a
       0.017893016 -0.036834948 -0.016276257 0.0011340402
0000a0 09 f0 d8 3b a0 d5 b6 bc 53 fd 28 bd 51 77 08 3c
       0.0066204113 -0.022318661 -0.041257214 0.0083292285
0000b0 1b 37 41 bc ab e6 2e 3d 45 57 09 3c af a5 06 3d
       -0.011792923 0.04270045 0.008382623 0.032872852
0000c0 31 74 96 3c 33 4f 04 3d 55 f0 58 bb bd 3b a1 ba
       0.018365951 0.032302093 -0.0033102233 -0.0012301129
0000d0 eb c7 60 3b 48 31 6e 3c 6a 04 04 3d 21 6c 7f 3c
       0.0034298848 0.014538117 0.032230772 0.015589745
0000e0 d2 da 7a bc 6f 66 95 3c 84 ca a1 3b 53 15 fd bb
       -0.01531096 0.01823732 0.004937472 -0.0077234893
0000f0 1b 31 09 3c 19 ae 92 bc 24 00 dd bc 48 10 bf 3c
       0.008373524 -0.017905282 -0.026977606 0.023323193

conv4.0.weight f4 [64, 64, 3, 3]
000000 9a 42 58 3c 7e 1f 54 3c 22 2b b5 bc 1b ae 58 3b
       0.013199473 0.012946961 -0.022115294 0.003306276
000010 3d 25 1b bb e6 8b 6a bd 57 d9 e3 bc c8 61 04 bc
       -0.0023673319 -0.057262324 -0.027813597 -0.0080799535
000020 96 25 ba 3c cc e6 3e 3c 6b d4 87 bd 23 be 38 3d
       0.022723 0.011651706 -0.066323124 0.045103204
000030 9e 8b 80 bb e5 41 a9 3c d5 1d 15 bd 9b 03 95 bc
       -0.0039228937 0.020661304 -0.036405403 -0.018190196
000040 3c a2 8c 3c ac 0b c7 3b 54 dc 28 3d cd c4 91 3c
       0.017167203 0.0060743894 0.041225746 0.017794037
000050 9a b2 c8 3b 4e 2f 67 3c 4e c6 ec bc 35 d1 b1 3d
       0.0061248066 0.014110399 -0.028903153 0.08682481
000060 79 d1 4a 3c 92 11 6a 3c 7f 85 86 bd 6b ab 46 bd
       0.012379044 0.014286416 -0.06568431 -0.04850332
000070 21 27 54 3d 0d 56 34 3d 51 19 0d 3d 87 0b c0 3b
       0.05179513 0.044027377 0.03444797 0.005860749
000080 42 4a 50 3c 86 3f d2 bc 02 c4 39 bd 78 94 07 bd
       0.012713017 -0.025665056 -0.045352943 -0.033100575
000090 6a 58 d2 bc df c8 09 bd c3 fb 81 3c e2 0e d0 bc
       -0.025676925 -0.03363883 0.01586712 -0.025397722
0000a0 a4 7b 82 3c 8c 5b 81 bc 3c 2d 0c 3c 2f ad fd bc
       0.015928097 -0.015790723 0.008555707 -0.03096637
0000b0 5c b0 f7 ba 00 26 fc 3c 7a bb 99 bc 3b a7 e5 3b
       -0.0018897164 0.030779839 -0.018766154 0.007008461
0000c0 13 f0 a1 bd 2b 80 0d bc 8b 6a c0 3c 01 8e 9d 3c
       -0.07907119 -0.008636515 0.023488304 0.019232752
0000d0 46 93 9f 3b 83 78 a7 bb 42 1d 17 3d 8e ed 32 bd
       0.0048698513 -0.0051108017 0.036893137 -0.04368358
0000e0 92 29 59 3d f0 5e 2c bd d4 c4 d2 3c f3 53 82 3c
       0.05301816 -0.042082727 0.02572862 0.01590917
0000f0 63 4a 58 bd 7e 0b d9 bc 9b 95 45 3d 0f 5d cc ba
       -0.052805316 -0.026494738 0.048238378 -0.0015591698
000100 e3 cd 33 3d 7b b8 aa bc 42 c3 c2 bc 88 c2 19 3c
       0.04389752 -0.02083992 -0.023774747 0.009384759
000110 37 ce 69 3d ab 82 bb bc 28 e7 91 bd 7e 4f 9b bb
       0.057081427 -0.022889456 -0.07124168 -0.004739701
000120 0f 67 f3 bc 06 46 c5 bc d2 63 cc 3c 88 b5 84 bc
       -0.029712228 -0.024081241 0.024949942 -0.016199842
000130 89 db cb 3c 9d e0 ed 3b c0 0a 1f bc 1c 90 36 3c
       0.024884956 0.007259442 -0.009707153 0.011142757
000140 f7 4f 19 bd b0 46 13 3d c8 ea 64 3d 30 4c c9 3c
       -0.037429776 0.035956085 0.055887967 0.024572462
000150 d9 e7 96 3b 45 eb 82 ba 12 05 76 bb a5 16 49 3d
       0.004605275 -0.0009988329 -0.0037539643 0.04909386
000160 0e ba 22 bb ce c5 b2 3d 6b ed 24 bc 11 fa 4e bd
       -0.0024830136 0.087291345 -0.0100663705 -0.05053145
000170 04 24 8a 3b 51 73 40 3d fc ad 65 3d 5a 10 bd 3c
       0.004215719 0.046984974 0.056074128 0.023079086
000180 66 96 28 bc 9a 02 bf 3c c3 13 2d 3d 2c ee 8c 3b
       -0.010289764 0.02331667 0.042255174 0.0043008532
000190 20 8f 3d 3c 7c 18 df bc 7a c1 81 bc f2 e0 18 bd
       0.011569768 -0.027233355 -0.015839327 -0.0373239
0001a0 74 56 ef bb 77 0d 83 bb 59 bb 21 3b 89 1a 8b bd
       -0.007304007 -0.003999408 0.0024678318 -0.067921706
0001b0 6b 13 9e 3c 34 c0 3b bc 4c 73 e7 bb 2b 8d c2 3c
       0.019296369 -0.011459399 -0.007063305 0.023748955
0001c0 a7 f3 39 bd 5f 0d b4 bc ac a4 9e 3c 89 6d 87 bd
       -0.04539838 -0.021979032 0.019365631 -0.06612689
0001d0 e7 d7 32 bd 05 32 51 bd a2 a9 2f 3d ec 66 4e bd
       -0.04366293 -0.051073093 0.042886384 -0.050391123
0001e0 35 8d d2 3c f3 c3 a6 bc 92 93 99 3c aa f7 ee bc
       0.025702098 -0.020357108 0.018747125 -0.02917083
0001f0 2e ec 4c 3d 43 58 06 bd fb e7 f5 bb 31 69 fb ba
       0.050029926 -0.032799017 -0.007504461 -0.001918113
000200 ec 14 f3 3c 97 7e a8 3c 39 9c 93 3b d7 6c 2c 3c
       0.029673062 0.020568175 0.004504707 0.010523996
000210 f8 8d 56 bd a1 33 76 bb 88 0f 2f bc 7d bd 73 bc
       -0.052381486 -0.0037567394 -0.010684855 -0.0148767205
000220 f6 e7 7e bd 80 9d cd 3c 1b d7 a8 bd 66 b1 a7 bc
       -0.062232934 0.025099516 -0.08244153 -0.020470332
000230 85 29 ad 3c 9d 66 d0 3c 60 f8 db 3b aa fd 82 bd
       0.021137962 0.025439555 0.006712958 -0.06396039
000240 7b 42 10 bd cd de 0a bd 0d d5 25 3d 78 05 19 3d
       -0.03521965 -0.033903886 0.040486384 0.03735873
000250 58 d6 94 3d 3e cd 3b bd 9c b9 c4 bc 82 8d 05 bc
       0.07267445 -0.04585003 -0.024014287 -0.008151414
000260 c8 78 2c 3d 40 8c 95 bc 93 62 a5 3c bc a8 57 3d
       0.042107373 -0.018255353 0.020188605 0.052651152
000270 5d 75 9c bd 7c cb 64 3c be c2 6c b9 0a 9d 69 bd
       -0.07639573 0.01396453 -0.00022579261 -0.05703453
000280 c3 9e 28 bc 53 b2 a6 bc aa c9 be 3b 50 f4 35 3d
       -0.010291758 -0.020348703 0.00582238 0.044422448
000290 16 bf 47 bd 96 ff 86 3d 0a f8 6b bc a0 2a a2 3c
       -0.048766218 0.06591718 -0.014402399 0.019795716
0002a0 c7 15 5f 3c 47 1d 16 3d 9e 99 7d bc b2 bb 6f bd
       0.013616032 0.036649015 -0.01547852 -0.05852861
0002b0 23 5b 67 3c 4f 84 42 3d b3 f4 be 3c 18 34 dd bb
       0.01412085 0.04748946 0.023310041 -0.006750595
0002c0 23 73 4c bc fe 35 96 3c 1d b3 96 bc 2d b8 ff bc
       -0.012478623 0.018336292 -0.018395955 -0.031215752
0002d0 34 1e 1f 3d 01 6d 4d 3d 14 2c 63 bd c2 09 29 3d
       0.038847163 0.050152782 -0.055461958 0.04126907
0002e0 1e f8 5c bd 89 f4 7e bc 1d bb 24 3d d1 67 8e bb
       -0.05394756 -0.015561231 0.040217508 -0.004345872
0002f0 1c e6 69 bc 21 fd c2 3c a0 b8 be bb 7d e1 22 3d
       -0.014276054 0.023802342 -0.005820349 0.039765824
000300 2e 0b 8e bd 99 87 88 bd 89 70 29 3c be a7 87 ba
       -0.06935726 -0.06666488 0.010341772 -0.0010349674
000310 26 62 9c 3c f9 11 90 3c 31 4d 7f bb b0 3d f4 3c
       0.01908977 0.017586695 -0.0038955922 0.029814571
000320 cd e0 a4 3b f1 2c 01 3d de ae 2c 3d 32 83 6d bd
       0.005031681 0.031537 0.042158954 -0.057986446
000330 fa ba bb 3c 02 5c f7 ba 44 c5 23 bd 9a c5 05 3c
       0.022916306 -0.0018872025 -0.03998305 0.008164788
000340 e5 75 5c bd 5e e6 3a bd 80 58 24 bd fd 23 67 bd
       -0.05382337 -0.04562985 -0.040123463 -0.056430805
000350 8e 48 81 3d bb d3 3b bd 78 ba f6 bc 8f ea a5 3c
       0.06312667 -0.04585622 -0.030118212 0.020253448
000360 f3 5d 1f bc 20 e3 ca 3c 5e 45 94 3d a8 e8 72 bc
       -0.009726989 0.024766505 0.07239793 -0.014825977
000370 6f 1f ec 3c ce 3a 75 3c d3 97 28 bc 8c 98 83 bc
       0.028823582 0.014967633 -0.010290104 -0.016063951
000380 1a 54 44 3c 64 01 41 bc 8f f0 ef bc 4e 31 a7 bc
       0.011982942 -0.011780117 -0.029289512 -0.020409252
000390 fb de 6c bc de bc c1 3c ec 5e c6 3c 10 b6 2c bd
       -0.01445746 0.02364963 0.024215184 -0.042165816
0003a0 fc 8b b4 3c b4 bd 9d bc 99 6c 56 3b b7 dd c2 bc
       0.022039406 -0.019255497 0.0032718538 -0.023787363
0003b0 6b 55 78 3d e6 8b 99 3c 01 b8 fc 3c 2a 17 85 3c
       0.060628336 0.018743467 0.030849459 0.016246397
0003c0 23 57 a4 bc c2 9f c6 bc 1b cc 46 bd 3c 5a a3 3b
       -0.020061081 -0.0242461 -0.048534494 0.004985122
0003d0 8c 49 81 bd 31 96 16 bd fd 5b d7 bc 6f dc 27 3d
       -0.06312856 -0.036764327 -0.02628898 0.040981706
0003e0 1c eb 44 bd 7b da 4e bd bd bd a2 3c 5b 30 06 bd
       -0.04807578 -0.050501328 0.019865865 -0.03276096
0003f0 80 50 2c 3d 96 d3 11 3d 60 73 da 3c 9a ef 2b bc
       0.04206896 0.035602175 0.026666343 -0.010494137

conv4.0.bias f4 [64]
000000 3e a5 5f 3c 1f 0c ae 3c ae 91 14 3c 83 a6 1d bd
       0.013650237 0.021246014 0.009067936 -0.038488876
000010 b1 3b 75 3c 60 9c 0f 3d 95 14 a6 bc 11 6e 2d bc
       0.014967845 0.03506124 -0.020273486 -0.010585324
000020 0b bb 58 3c bf af 7a bc 98 63 62 bb a1 00 ec bb
       0.013228188 -0.01530069 -0.0034544226 -0.0072022234
000030 91 f5 6b ba 55 8f 81 ba 1d 1c 10 3c 21 c2 b5 3c
       -0.0009001131 -0.0009884635 0.008795765 0.022187294
000040 ad 33 a4 bc e0 50 fa 3c e3 12 f1 bc 96 a2 06 bc
       -0.020044172 0.030556142 -0.029427951 -0.008217474
000050 25 cb da bc ed 19 cb 3c e4 63 9b 3c 7e 6e ea bb
       -0.026708195 0.024792636 0.01896853 -0.007154285
000060 f2 c4 0d 3d 59 02 96 bb 6b df ec 3c b9 be 75 bc
       0.03461165 -0.0045779166 0.028915128 -0.014999085
000070 84 fb ff 3c b5 6f 85 bc c3 67 27 bd 1c 57 21 bd
       0.031247862 -0.016288618 -0.04087044 -0.039389715
000080 37 d4 9c 3c aa f6 11 bc 17 6e 3c bc d6 d6 0e 3d
       0.01914416 -0.008908907 -0.011500857 0.034872852
000090 f8 33 32 bb 12 42 08 bd ff 04 ba 3c 18 15 87 3b
       -0.002719162 -0.033266135 0.02270746 0.0041223876
0000a0 e2 49 b6 bc 1d ec 7f 3c ea 38 4d 3c 56 06 44 bc
       -0.022252027 0.015620259 0.012525776 -0.011964401
0000b0 b5 5e 21 3d 7e 19 0d bc 71 f3 62 3c 09 15 6f bc
       0.03939696 -0.008612035 0.013851986 -0.0145924175
0000c0 ff 5e fa bc a7 59 03 bd fe ef 56 39 1b b8 c9 ba
       -0.030562876 -0.03206792 0.00020498034 -0.0015389951
0000d0 ed fe d4 3b ec 1b 23 3d 31 03 92 bc 34 76 41 3c
       0.006500116 0.03982155 -0.017823787 0.011807967
0000e0 8c fd d3 3c 25 31 2b 3d 77 20 00 bd d6 b6 e5 bc
       0.025877737 0.041794915 -0.03128096 -0.028041285
0000f0 c6 27 dc 3c 00 e3 63 3c 3d 1f 80 bc f3 f2 9f 3b
       0.026874434 0.0139091015 -0.015639896 0.0048812567

conv4.1.weight f4 [64]
000000 d5 21 8f 3f d1 77 07 3f 42 d0 88 3e 4b 90 23 3f
       1.11822 0.529172 0.26721388 0.6389205
000010 cc 68 8f 3f de 71 02 3f 92 fa 6c 3f 0d a6 c7 3e
       1.1203856 0.50955 0.9256984 0.38993874
000020 a1 e9 2d 3f c4 cb 82 3f e4 52 68 3e 06 32 ec 3e
       0.67934614 1.0218434 0.2268787 0.46131915
000030 ee fd 39 3e 9b a0 2c 3f 02 3b 7f 3e 3b 69 87 3f
       0.18163273 0.67432564 0.24924853 1.0578989
000040 e2 f6 b9 3e 48 c0 86 3f de e2 91 3e e6 03 ad 3e
       0.3632117 1.052743 0.28493398 0.33792037
000050 a6 cc 4c 3f 7c cb 11 3f 52 9c 88 3f 00 ca 85 3f
       0.7999977 0.5695112 1.0672705 1.045227
000060 1b 8c 51 3f ae eb 80 3f 91 0a 82 3f ba 37 3f 3e
       0.8185441 1.0071924 1.0159475 0.18673602
000070 3f d9 03 3f 60 1a 15 3f 81 7d d1 3e c7 a2 4b 3e
       0.51503366 0.5824337 0.40916064 0.19886313
000080 14 a9 d9 3e db b9 7c 3e 0d b6 19 3e 33 b9 22 3f
       0.4251181 0.24680273 0.15010853 0.6356384
000090 23 51 5f 3f 93 49 5a 3f 61 45 d5 3e 97 01 c7 3e
       0.8723318 0.85268515 0.41654494 0.388684
0000a0 c4 7c 3d 3f 83 8e 44 3e 27 0a dc 3e 44 15 f4 3e
       0.740185 0.19194989 0.42976496 0.47672474
0000b0 6d 2c 56 3f 13 ef 3a 3f dc 4b 3b 3f 2d c7 3d 3e
       0.8366154 0.7302105 0.7316263 0.18533011
0000c0 03 9a 5d 3e 14 e9 01 3f d3 6e f8 3e 6f 9f 4d 3f
       0.21640782 0.50746274 0.48522052 0.803214
0000d0 ec 17 89 3e 4b 4c f4 3e c3 2b 27 3f 9e f0 7e 3f
       0.26776063 0.47714457 0.6530115 0.995859
0000e0 12 a9 85 3e e6 a6 1f 3f 8c d8 7c 3f 66 e4 7a 3f
       0.26105553 0.6236404 0.98767924 0.9800476
0000f0 e1 9c 39 3e cf 87 94 3e dc 2f 2e 3f b6 9b 97 3f
       0.18126251 0.29009864 0.6804178 1.1844394

conv4.1.bias f4 [64]
000000 cc 43 f2 3d 17 6c c6 3d 64 d8 ee 3d 96 ba d0 3d
       0.118293375 0.09688585 0.11662367 0.101918384
000010 2b 8a dd 3d 60 60 e6 3d 8b 02 a8 3d f8 00 ae 3d
       0.10817369 0.11248851 0.0820361 0.084962785
000020 0c ce fd 3d c4 40 ca 3d 5d a4 8c 3d a5 07 b5 3d
       0.12392816 0.09875634 0.06867287 0.08839349
000030 19 1a 67 3d bc 81 cb 3d 33 4f 60 3d fb 8c fd 3d
       0.056421373 0.09936854 0.05476303 0.123804055
000040 bd 8a 81 3d 52 4b f4 3d d1 ac 6e 3d 9b 5b 93 3d
       0.0632529 0.11928429 0.05827028 0.07195207
000050 40 72 cb 3d d7 52 a7 3d b2 68 cf 3d 1b 7a fb 3d
       0.09933901 0.08170097 0.10127391 0.12279149
000060 4a d9 cf 3d b2 f1 f1 3d 78 3f f4 3d bb 21 6c 3d
       0.101488665 0.11813678 0.11926168 0.057649355
000070 e4 68 c8 3d 1b eb e3 3d ba bd f1 3d 20 b9 86 3d
       0.09785631 0.11128827 0.118037656 0.065782785
000080 80 67 c6 3d ca c9 d5 3d 3c 98 60 3d 4f 7c 9a 3d
       0.0968771 0.10438879 0.054832682 0.07543241
000090 d7 30 dc 3d 21 7f da 3d 49 c6 e0 3d f7 c2 92 3d
       0.10751503 0.10668779 0.1097532 0.07166093
0000a0 a9 ea e3 3d 6d 9d bb 3d 7e 7e 79 3d 38 d1 b8 3d
       0.11128742 0.09160886 0.060911648 0.0902428
0000b0 4e 60 ca 3d 1e 57 a6 3d 00 07 91 3d 33 ac a4 3d
       0.0988165 0.08122085 0.07081413 0.08040657
0000c0 21 b9 e4 3d de 13 ee 3d eb 7c c6 3d d8 37 cd 3d
       0.11168123 0.11624883 0.09691795 0.10020417
0000d0 8d e1 92 3d 7a 49 c4 3d 15 e5 db 3d 5b 3f 05 3e
       0.07171927 0.09584327 0.10737053 0.1301245
0000e0 07 2f c4 3d 30 b4 ce 3d 3b cd af 3d 74 ea ff 3d
       0.09579282 0.10092962 0.085840665 0.1249589
0000f0 5b e0 89 3d b6 67 c2 3d ba 6a 93 3d dc 08 d7 3d
       0.067322455 0.094924375 0.07198091 0.10499737

conv4.1.running_mean f4 [64]
000000 ae ac d7 bf 69 44 9b bf 5b 09 90 3d e7 b1 5d 3d
       -1.6849573 -1.2130252 0.070330344 0.05412474
000010 cd 9e bb bc f6 b3 45 3e f3 7f 47 3f 89 35 f6 3f
       -0.02290287 0.19306931 0.7792961 1.9235088
000020 c8 cd aa 3f 06 09 a9 3f 38 6a b1 3f df 5b 43 3f
       1.334405 1.3205879 1.386054 0.7631206
000030 54 2a d5 bf ae eb 6e be ac 4b 8e bf 28 00 e4 be
       -1.6653543 -0.23332092 -1.1116843 -0.4453137
000040 a6 0e 88 3e 34 be 29 bf bc e1 95 3f 00 71 1f 3f
       0.26573676 -0.6630585 1.1709514 0.622818
000050 c8 03 41 bd 34 dd 97 3e c8 09 7d bd 7f f2 94 bf
       -0.047122747 0.29660952 -0.061776906 -1.1636504
000060 ee 15 ec be 6a 79 14 bf c6 9c 79 bf f7 ad ab 3e
       -0.4611048 -0.57997763 -0.9750484 0.33531162
000070 fd 08 aa bf 61 02 a0 be 1f 40 ef be 64 9a c0 3d
       -1.3283993 -0.31251815 -0.46728608 0.09404448
000080 fa 96 6d bf 20 de 06 3e 50 2e 80 3f 51 db 31 bf
       -0.92808497 0.13170671 1.0014133 -0.69475275
000090 1b 92 9b 3f f8 13 82 3e fa 32 4e 3f c1 42 ac bf
       1.2153963 0.2540586 0.80546534 -1.3457872
0000a0 fa 64 d8 3e 4d 17 32 3f ce e0 92 3f ef 5f 8a 3f
       0.4226454 0.69566804 1.1474855 1.0810527
0000b0 a4 d7 57 3f 9e ba 99 3f cf 33 d5 3d 31 93 62 bf
       0.84313416 1.2010076 0.10410272 -0.88505846
0000c0 5d a1 99 be 96 c4 b5 bf ac 88 8d 3c 83 1f 42 3f
       -0.30005923 -1.4200618 0.017277084 0.75829333
0000d0 39 b0 b7 3e 36 c1 e5 bf ba b1 fd be 35 f7 3e 3f
       0.35876635 -1.7949588 -0.49549657 0.7459596
0000e0 a2 a3 75 3f 0c 75 5d bf 59 ad aa 3f b7 a9 4b 3e
       0.9595281 -0.86506724 1.3334152 0.1988896
0000f0 1e 5a a4 bf d4 1f 95 bf bf 1e b3 be 03 85 21 bf
       -1.2840002 -1.1650338 -0.34984395 -0.63093585

conv4.1.running_var f4 [64]
000000 fd 09 54 40 4c 09 20 40 cf fd 14 40 5c 49 2e 40
       3.3131096 2.5005674 2.3279912 2.7232275
000010 77 07 48 40 dd 0b 15 40 20 c5 40 40 60 a7 06 40
       3.1254556 2.328849 3.0120316 2.1039658
000020 48 2d 14 40 dd 94 7e 40 e2 09 f8 3f c7 c2 14 40
       2.3152637 3.977836 1.9378016 2.3243883
000030 83 a5 3c 40 f0 3f 0a 40 20 4b 1a 40 35 0d 46 40
       2.947602 2.1601524 2.4108353 3.094556
000040 8c 1c 49 40 73 5d 14 40 cd 3c 17 40 ea 88 4b 40
       3.1423674 2.3182037 2.363086 3.1802316
000050 a3 02 35 40 d4 2a 33 40 b9 40 2c 40 18 07 3f 40
       2.828286 2.799489 2.6914504 2.984808
000060 90 92 33 40 00 eb 30 40 6c 2f 0b 40 b9 4e 20 40
       2.8058205 2.7643433 2.1747694 2.5048048
000070 01 87 17 40 ed f4 2c 40 d3 d6 29 40 24 f7 33 40
       2.367615 2.702449 2.6537368 2.8119593
000080 62 e2 34 40 27 50 1d 40 dd a1 23 40 cf f5 29 40
       2.8263173 2.458017 2.5567544 2.655628
000090 a2 65 18 40 ae 9d 4b 40 37 36 25 40 fc d8 1c 40
       2.3812032 3.181499 2.581434 2.4507437
0000a0 51 53 2b 40 85 0d 36 40 dd 7d 2e 40 13 56 14 40
       2.6769602 2.8445752 2.726432 2.3177536
0000b0 5a 11 63 40 d9 5e 6d 40 6f 2d 30 40 7b 97 1a 40
       3.547934 3.708914 2.752773 2.4154956
0000c0 07 f5 26 40 5c 06 01 40 55 a7 11 40 3e eb 2f 40
       2.6087053 2.0160131 2.2758381 2.748733
0000d0 15 7b 6f 40 a3 2a 08 40 e2 7f 1c 40 e1 cf 3e 40
       3.7418873 2.1276023 2.4453053 2.981438
0000e0 c6 3b 27 40 00 32 2a 40 5f 54 2b 40 dc df 44 40
       2.6130233 2.6593018 2.6770246 3.0761633
0000f0 f0 86 55 40 22 f3 23 40 83 02 4e 40 fb 10 1d 40
       3.336361 2.5617146 3.2189033 2.4541614

fc1.weight f4 [10, 1024]
000000 cb 17 09 bd d2 a0 20 be 4a 01 6b bc 36 b3 07 3d
       -0.033469956 -0.15686348 -0.014343569 0.033129893
000010 56 38 2a 3e 9f 92 ef 3c ee 2e 54 3e 36 3f 3a be
       0.16623053 0.02924472 0.20721027 -0.18188176
000020 9d 86 2c be 91 36 2c 3e e6 a9 28 3b 8f 89 1e be
       -0.16848226 0.1681769 0.0025736033 -0.15482162
000030 9f df a1 3b cb c4 cd bd ae d0 0b be 0a 7b d6 bd
       0.004939988 -0.10047301 -0.13653824 -0.104726866
000040 1f ed b8 3d 4e 42 bb bd 1e bf 36 3d 82 2b 06 3e
       0.09029602 -0.09143506 0.044615857 0.13102534
000050 b8 6a be bc 39 60 81 bd 29 7c d2 bd 0c b3 bb 3d
       -0.023244247 -0.06317181 -0.10277588 0.0916501
000060 46 11 9f 3d 42 d4 8c bd 79 3f f3 bd a5 d0 09 be
       0.077669665 -0.068764225 -0.11877341 -0.13458498
000070 cd 12 34 be 7d 00 31 3e 98 45 35 3e 02 ae 4a 3d
       -0.17585297 0.17285343 0.17702329 0.049482353
000080 72 1c 6d 3d 83 a8 ea 3c e9 d1 10 3d 11 6c 58 3d
       0.057888456 0.028644806 0.035356436 0.052837435
000090 67 9a 57 be 1c b5 01 be 07 f0 3f bd af 61 fc bd
       -0.21054994 -0.12666744 -0.046859767 -0.12323319
0000a0 c8 db 41 3e 5e ba c8 bd 3a 06 82 bd 8d b0 e3 bc
       0.18931496 -0.09801172 -0.06348844 -0.027794147
0000b0 1f 8c aa 3d 55 06 90 3d 43 1d 83 3d 7c 48 11 3e
       0.08327507 0.07032458 0.064020656 0.14187807
0000c0 47 e4 bd 3d 28 f6 60 be e7 ff 0b bd d1 a2 6d bd
       0.09272056 -0.21968901 -0.034179594 -0.058016602
0000d0 f2 48 f1 bd 1a 88 6e 3e 5c f0 a7 bc 05 66 00 3e
       -0.11781491 0.23294106 -0.020500354 0.12538917
0000e0 90 68 a5 bd 6a 37 e2 3d 96 32 17 be fe be 9f 3d
       -0.08076584 0.11045726 -0.14765391 0.07800101
0000f0 7b 87 02 3e f1 ea d6 3c c2 2e 38 3e 6e d9 ab 3d
       0.12746994 0.026235076 0.17986587 0.08391081
000100 df 39 f2 3d 6a ac 43 bd d6 d9 dd bd 0b ea 83 3d
       0.11827444 -0.04777185 -0.108325645 0.064411245
000110 72 f9 be 3a 26 2f be 3d 2c 5d 3c be 0b aa 4d 3e
       0.001457019 0.092863366 -0.18394917 0.20084397
000120 f8 6c 2c 3e 75 39 47 be c3 ba 26 be 25 ad 3a be
       0.16838443 -0.19455512 -0.16282181 -0.18230112
000130 4f f0 ca bd 9f f0 15 3e 18 9e 04 bd 76 f7 f5 3c
       -0.099091165 0.14642571 -0.032377332 0.030025225
000140 ba 51 9b bd d9 83 0c be bb e9 ff bd 79 7e 25 be
       -0.075839475 -0.13722171 -0.124957524 -0.16161527
000150 92 cf 03 3d 77 77 7a 3e ed b2 36 3e 81 3b 17 3e
       0.032180376 0.24459635 0.17841692 0.14768793
000160 af 3d 6a be bb 44 2e bd 23 27 2f 3e 0b 51 53 bd
       -0.22875093 -0.042546015 0.17104773 -0.05159096
000170 66 88 b7 3d 89 4f 18 3e cc 2b a4 38 24 0b cf 3d
       0.08961563 0.1487409 7.828287e-05 0.10109547
000180 a9 96 02 3e dd 7c 3f be 1e 53 04 3d 93 b3 17 be
       0.12752785 -0.18699975 0.03230583 -0.14814596
000190 45 c3 8d 3d 4e 2c 05 3e 59 dc 05 3e b4 46 fe 3d
       0.0692201 0.13005182 0.13072337 0.12415829
0001a0 c6 49 66 bd 0b 01 c1 3d 43 2a 3d be 51 48 fb bc
       -0.0562227 0.09424027 -0.18473153 -0.030674132
0001b0 6d 7a 39 be ea 93 f9 bd 11 dd 05 bd 62 5a bd bd
       -0.18113108 -0.121864155 -0.03268153 -0.09245755
0001c0 25 51 22 be d3 6e ee bd 50 8b db bd de f9 29 be
       -0.15851267 -0.11642232 -0.10719931 -0.16599223
0001d0 a4 c2 33 3d 01 20 69 be 0b c0 3b 3e fe 0f 18 3e
       0.043886796 -0.22766115 0.18334977 0.1484985
0001e0 1e 23 80 3d 87 5c 76 bd 10 0c 3b bc 12 5a 83 3e
       0.06256698 -0.060146835 -0.01141645 0.25654656
0001f0 8f d4 dc bd 20 ff d7 bd 65 08 4f bd 66 33 74 bc
       -0.1078273 -0.10546708 -0.050545115 -0.0149048325
000200 ad f7 2a be a3 42 22 3e 53 06 d1 bd 81 3a 1f 3e
       -0.16696043 0.15845732 -0.102062844 0.15549661
000210 31 de 03 bc 81 75 cb 3d 01 83 0b be 46 10 0e 3e
       -0.00804858 0.099345215 -0.13624193 0.13873395
000220 d3 15 de 3d a5 40 d6 bc b7 21 e3 bd 34 ff 2a bd
       0.108440064 -0.026153872 -0.11090415 -0.041747287
000230 e4 5f 45 3e dd 7c 2c 3e 8e 8a 8a bc fc 13 be bb
       0.1927486 0.16844507 -0.016911771 -0.005800722
000240 ff 70 55 3e 60 14 de 3d d5 86 fe bd be d3 8a 3d
       0.20843886 0.1084373 -0.12428061 0.06778668
000250 ea bd f5 bc bc 9f 04 3d 7e 49 39 3e b9 e5 d5 bd
       -0.029997785 0.032378897 0.18094441 -0.10444207
000260 b1 90 76 bd 30 1a e4 bd d1 be 3f 3e 2e 79 41 be
       -0.060196582 -0.11137807 0.18725134 -0.18893883
000270 44 76 5e bb 57 28 d6 bd 24 93 1a 3e 8f e5 92 bd
       -0.0033945004 -0.10456913 0.15095192 -0.07172691
000280 30 82 e7 bd f1 b7 ce 3c 0b 74 5e be 63 ec f4 bc
       -0.11304128 0.025234194 -0.21723954 -0.029897874
000290 35 a9 41 3d 18 ac a9 bd 77 ed 9c bc 3e 08 05 3e
       0.04728051 -0.082847774 -0.0191562 0.12991425
0002a0 3e 83 84 3e 86 75 27 be 20 53 48 3e 1d 41 3c 3e
       0.2588138 -0.16353425 0.1956296 0.18384214
0002b0 ff 15 4d bd 9a b8 95 3c 58 58 95 3d fe b5 a7 3c
       -0.050069805 0.018276501 0.07292241 0.020472523
0002c0 0a 69 1c 3e c3 0e ab bd b1 b4 3e 3e a6 8f f1 bc
       0.15274444 -0.08352425 0.18623616 -0.029487442
0002d0 64 29 a1 bc 00 bd 25 be 2b 16 f8 bd c1 e2 d0 bd
       -0.019673057 -0.16185379 -0.12113603 -0.101995
0002e0 73 0d 86 3d 5e 30 80 3d 55 00 aa bd 7a 27 20 3e
       0.06545534 0.06259225 -0.083008446 0.15640059
0002f0 84 5b 37 bd 86 64 73 bd a9 e5 8a 3e 72 93 9d bd
       -0.04476501 -0.05942204 0.27128342 -0.076941386
000300 52 e8 27 ba e4 b7 bc bd 15 4f 10 3b 13 41 05 be
       -0.0006405163 -0.09214762 0.0022019793 -0.13013105
000310 45 52 15 3e 7b af c2 bb ee f0 bd bc 67 b0 01 be
       0.14582165 -0.005941329 -0.023186173 -0.12664948
000320 70 c5 b6 3c 96 01 29 be 48 14 f0 bd 6b 4e cb bd
       0.022310942 -0.16504511 -0.11722618 -0.099270664
000330 41 20 11 bd 30 9d 23 be 9f c2 d3 3d 5e 8e 78 bd
       -0.03543115 -0.15977931 0.103398554 -0.060682647
000340 2c 8b 90 bc 46 13 52 3e 24 4e 24 3e 4d 44 72 3e
       -0.017644487 0.20515165 0.16045433 0.23658867
000350 76 35 d5 3d 32 a7 a5 3d ce 88 00 be 9c 99 03 be
       0.104105875 0.080885306 -0.12552187 -0.12851566
000360 a7 4f d8 3d 78 a9 e2 bd e7 5e 34 3e 4f fb ff 3d
       0.105620675 -0.1106748 0.17614327 0.12499105
000370 6c ef 4f 3b 33 89 17 3e 59 52 5c 3d 90 36 ec bd
       0.00317284 0.14798431 0.05378947 -0.115338445
000380 c1 de 8f 3d da 2e 11 bd 72 19 b2 3d 3b 1b 3f 3d
       0.07024909 -0.03544507 0.086962596 0.04665683
000390 16 87 c7 3d a6 26 c9 3d d4 bb 32 be e2 15 25 be
       0.097425625 0.09821825 -0.17454463 -0.16121629
0003a0 d4 12 bf bd c5 73 fd 3d cd ee 3f be a4 a9 d2 3d
       -0.09329763 0.12375597 -0.18743439 0.10286263
0003b0 ed 69 2c bd f6 14 6b 3d b5 af d0 3c fd f9 b3 bd
       -0.042093206 0.057393037 0.025474409 -0.08787916
0003c0 0c 86 48 be 53 84 5d 3e 47 8a bd bd 4c 3b 06 3e
       -0.19582385 0.21632509 -0.0925489 0.13108557
0003d0 e1 26 6e be a1 ac 13 be bd 8f 6b bd 2a b9 e2 bd
       -0.23257019 -0.14421321 -0.057510126 -0.110704735
0003e0 ca 5e 11 3e ba 27 16 3e 2b 07 fb 3d dc 2a 03 be
       0.14196315 0.14663592 0.122572266 -0.12809318
0003f0 64 da 92 3d 48 b8 7d 3e 8a ef ea bd 61 66 76 bc
       0.07170561 0.24777329 -0.1147147 -0.0150390575

fc1.bias f4 [10]
000000 64 38 83 3c e6 38 2b bc 5b 32 e1 3c da c5 a6 bb
       0.0160181 -0.010450577 0.027489832 -0.0050895037
000010 e7 b6 8a 3c 40 19 1b bb 16 0c 7c 3c 6d 82 fd ba
       0.016932918 -0.0023666173 0.015383741 -0.0019341238
000020 c7 36 29 3d b4 93 f1 3c
       0.041312005 0.029489376
