src/mnist_clf_best.pt (torch_old, 810108 bytes, 14 tensors)

conv1.0.weight f4 [32, 1, 5, 5]
00000000: 7b21 42bd 22b1 a1bd 6a9f 1c3c 1513 3fbd
00000010: d4ec b23d b504 2bbd 2c28 153d 7fe5 98bd
00000020: 07d7 a6bd b3d1 193d 6978 82bd fd6a 9ebd
00000030: 3e52 99bd 8d80 aebd 662a 1fbd 306c 6fbd
00000040: b1eb 66bc 44fe 78bd bf0d 41bd 23ba a43b
00000050: 3253 6cbd 00a4 f6bc 1c7e 99bc 364b 403a
00000060: a924 98bc e8cc 813d ac4c 263d 1eb3 1fbc
00000070: 12e1 36bd 52bf 6b3d b767 f73d 006e 1d3d
00000080: b128 233d a71b 37bd f95d 9dbc 7ca5 033e
00000090: 9f43 abbd d457 cfbb 63a3 8bbc 4c34 49bd
000000a0: 4789 c13d d50f ac3c 26ba 23bd 279a 89bc
000000b0: 34af 92bd b3b5 603d d37a b1bc 4820 7dbc
000000c0: 6963 60bd 1e2f 00be 2c44 cdbd c956 4c3a
000000d0: 3d89 313d 8a7a 223e a64b e93b ecfe 373c
000000e0: beba aa3d 9382 d93d 2502 273d dc61 813d
000000f0: ba6d 3d3d 755f 053d 94c4 0d3e d779 573d
00000100: 9bc1 5dbc cd18 b93d e50e ca3d fc79 163e
00000110: 6147 2c3a 000a 1738 26ad 4bbc 4ce4 173e
00000120: b333 bf3d 20c4 9ebc b803 25bd 2c58 94bc
00000130: 0003 4b3c 9314 df3d 6a07 583d 98b3 0f3d
00000140: a38b 5bbd 5dea b83c 4e52 1fbb c6c8 2bbc
00000150: 626f b13d da11 1d3e 72c2 d03d 36e8 2c3d
00000160: ad09 75bd ea13 03bd 31c5 a83d d3b2 31bb
00000170: d488 6b3d cb00 313d f583 b2bc 0717 873d
00000180: 56c6 183d 8768 06bc a7b8 73bd 970a dfbc
00000190: 089b 8f3a 45d3 38bd c2a7 35bc 4067 e7bb
000001a0: 4886 2fbc 6bc3 35bd 6122 0dbe 4759 d4bd
000001b0: 94aa 24be 90f9 e5bd 0f2f 05be 4bc3 1bbe
000001c0: b74a 32be 1343 1cbe 6e90 05be 5251 2dbe
000001d0: 82b4 e3bd 5cac 2cbe 8676 d6bc 5b69 083c
000001e0: 5318 83bd a9ba fabd 5a37 a2bd 6f2c 9c3d
000001f0: a6b9 c0bb 7086 9dbd 8caa 11bd ee05 33bd
00000200: 4829 afbd ba2a 8f3c 4f19 e83b 6255 833d
00000210: ae7f 97bc 6303 a1bc 6a88 11bd 0829 d63a
00000220: 0600 0cba d7d8 e23c 8c39 9fbc e73c d53a
00000230: b831 1e3e 9103 bb3d 4d1c df3d fa30 fc3d
00000240: 4630 323e b207 e83c 33b7 e33c 9f66 823c
00000250: 1763 873d e430 ba3c 85ad db3b 3098 ddbd
00000260: 0ea6 97bd e12a 5fbd 4102 35bc 5535 efbd
00000270: 3896 18be 4bf0 1cbe 74c5 82bd a5f2 c7bd
00000280: 0c86 1bbc 271d f1bd 3bd3 f7bd e435 e9bd
00000290: 90ab bdbd 671b 3a3a 008f 073d fd07 0d3c
000002a0: c728 fc3d e9bf 853b ac7a 913d b20f 143e
000002b0: 7416 a3bc 528b 993d adcf e53c 938c 70bd
000002c0: 7c1f b23d e853 953d aeb9 823d 176b 613c
000002d0: 0aba 70bd f108 5cbb 65ca 2a3d 78ec 283c
000002e0: 859e 8cbc 6a08 5bbd 6129 8ebc a014 a13d
000002f0: 1f3b 79bc 8c58 3bbd 8c66 163e d756 233d
00000300: 9940 e838 62de 22bd 0cdf fabc 8577 96bc
00000310: 3f80 ea3d f3d4 c33d b532 0abd f18e d0bd
00000320: eec2 2dbd 3418 5ebd 880a 2cbd 886e e0bc
00000330: 14df cfbd ea6a aebd 393b bc3c 02dd 50bd
00000340: b9ec 9dbd 196b 503d 1cf9 563d 8a55 fa3d
00000350: a864 5d3d 54a1 893d 33b5 c93b fbbe 23bd
00000360: b84a 213d 7b70 8a3c 34c7 c53d d171 a73d
00000370: ae67 173d 5625 a73c a79f 1f3b e045 8cbc
00000380: d818 763d 169d 4ebd 52dc bebd 8c69 283d
00000390: dc32 143e 3cb3 053e cc9b e6bd 67fe aabd
000003a0: b931 b23c bdb1 df3d 5d51 423d 95f0 7abd
000003b0: 474a ad3c bea2 b03d 2b26 243e 699a 263d
000003c0: d7be 0cbe 6584 fa3d 953c cc3d 98f2 333e
000003d0: 2fd8 54bd 35e0 23bd 3924 933d e20f e53d
000003e0: 47a5 063e e74b 933d 7819 7abd 9796 05be
000003f0: 6b96 f1bd 2037 3ebd 31dc 9fbc 55fc 1cbe
-0.04739521 -0.078951135 0.009559492 -0.046649057 0.08736578 -0.041752536 0.036415264 -0.07465648
-0.08146482 0.0375535 -0.06370623 -0.0773525 -0.074863896 -0.08520613 -0.038858794 -0.058452785
-0.014094279 -0.06078936 -0.04713225 0.005027072 -0.05769653 -0.030107498 -0.018736891 0.0007335426
-0.018572168 0.06337911 0.040600464 -0.009747295 -0.044648238 0.057555504 0.12080329 0.038434982
0.03983373 -0.044704106 -0.019209849 0.12856096 -0.08362507 -0.0063276086 -0.017045682 -0.04912214
0.09450012 0.021003643 -0.039972447 -0.016797138 -0.071623236 0.054860782 -0.021665012 -0.015449591
-0.054782305 -0.12517974 -0.100227684 0.00077949144 0.04334377 0.15867057 0.0071196137 0.011230212
0.083363995 0.10620608 0.04077353 0.06317493 0.04624722 0.032561738 0.1384452 0.05260643
-0.013534929 0.090379335 0.09866122 0.14694971 0.00065719156 3.601052e-05 -0.0124314185 0.14833182
0.09336033 -0.019380629 -0.04028675 -0.01810845 0.012390852 0.10892596 0.052741446 0.035083383
-0.053599965 0.02257269 -0.0024310532 -0.01048488 0.08663823 0.15338841 0.101933375 0.04221364
-0.05982368 -0.032001413 0.08240736 -0.0027114644 0.057503536 0.043213647 -0.021791438 0.06596189
0.037298523 -0.008203632 -0.05950227 -0.02722673 0.0010956237 -0.045123357 -0.01108736 -0.007061869
-0.0107131675 -0.04437582 -0.13782646 -0.10368591 -0.16080695 -0.11229241 -0.13006233 -0.15211217
-0.17411314 -0.15259962 -0.13043377 -0.16925552 -0.111184135 -0.16862625 -0.026179563 0.0083259
-0.06401124 -0.12242634 -0.07920714 0.076256625 -0.005881506 -0.076916575 -0.035563037 -0.043706827
-0.08552796 0.017476428 0.007083095 0.0641277 -0.0184935 -0.019654935 -0.035530485 0.0016339133
-0.00053405797 0.027691288 -0.01943662 0.0016268761 0.15448654 0.091315396 0.1089407 0.12314029
0.17401227 0.028323982 0.027797317 0.015918074 0.06610697 0.022728391 0.0067040347 -0.10820043
-0.07404719 -0.054484252 -0.011047901 -0.11680094 -0.14901054 -0.1532604 -0.063853174 -0.09763078
-0.0094924085 -0.117731385 -0.12100836 -0.11387232 -0.092612386 0.000709942 0.03309536 0.008607862
0.12312465 0.0040817154 0.07103476 0.14459112 -0.019908167 0.07497276 0.02805313 -0.058727812
0.086974114 0.072913945 0.06383072 0.013758442 -0.05877117 -0.0033574665 0.041696925 0.010310285
-0.017165432 -0.05347482 -0.017353715 0.07865262 -0.0152118495 -0.04573874 0.14687556 0.03987774
0.00011074654 -0.039762862 -0.030623935 -0.018367538 0.11450242 0.09562101 -0.033739764 -0.10183514
-0.042422228 -0.0542223 -0.04200223 -0.027396455 -0.10149971 -0.08516486 0.022977458 -0.05099202
-0.07711167 0.050883386 0.052483663 0.122233465 0.05405107 0.06720224 0.006155634 -0.039977055
0.039377898 0.016899338 0.096571356 0.08176006 0.03696411 0.020403545 0.0024356635 -0.017123163
0.060082287 -0.050442778 -0.093193665 0.041116282 0.14472526 0.13056654 -0.11260185 -0.08349305
0.021752225 0.10922573 0.047440875 -0.061264593 0.021153582 0.086247906 0.16030185 0.0406746
-0.13744675 0.122322835 0.099724926 0.17573011 -0.05196398 -0.040008742 0.07184643 0.1118467
0.13148986 0.071922116 -0.061059445 -0.13045727 -0.11796268 -0.04643929 -0.019514175 -0.15330632

conv1.0.bias f4 [32]
00000000: 19e5 d13c 380c 223d 708c 693d bed8 cf3c
00000010: c531 023d 8d79 223d 4df6 243d 5599 cc3c
00000020: 4b20 a43c 8366 883d a129 953d 470d ae3c
00000030: a7d0 a73c 6674 cf3c 5e13 8d3d bbdc 0e3c
00000040: 95b0 8f3c 25d9 1d3c 2c4e dd3c 6bbe 833d
00000050: 6e6f 1c3c b5fa 8e3c e251 223d d747 033d
00000060: 6220 223d 03ac 023d 308e 603d 6538 a43c
00000070: 8a5f ad3c d078 533d 1596 5f3d 75b8 573d
0.025621938 0.039562434 0.057018697 0.025371905 0.031785745 0.0396667 0.040273953 0.024975458
0.02003493 0.066601776 0.07283331 0.021246566 0.020485235 0.025324058 0.068884596 0.008719618
0.017540256 0.009634291 0.027014814 0.06432804 0.009548051 0.01745353 0.03962887 0.032050934
0.039581664 0.031902324 0.0548231 0.020046422 0.02116372 0.051628888 0.05458649 0.052666146

conv2.0.weight f4 [64, 32, 5, 5]
00000000: 1fd7 3abb 0333 f8bb 028d 9fbc 105d 90bd
00000010: cbde 0d3d 9009 5f3d 1f04 0b3d 996f 84bb
00000020: 7512 aabd 4d49 603a 3cbf 04bc 7aec 9cbb
00000030: 7d9f 103d ab78 8d3c a744 9a3d 5dcc 553d
00000040: 34dc 64bc 01c5 1bbb dde1 803d f2e4 243d
00000050: 03b2 8abd de9c b5ba 18ee 37ba c9cf 36bd
00000060: e1c5 bf3c 22bc abbb 0b1d fdbb 7708 5a3b
00000070: 180d 843a 864a 39bd aceb 753c 5d7a 8a3c
00000080: 22b8 a3ba 413c 3bbd 95bf 1bbd 245a b23a
00000090: b9d4 f33b 0909 8d3d 8e2b c1bc fe37 26bd
000000a0: a6bb c8bc 06b1 8abc 51ec 4abc fb4f 3dba
000000b0: f41d 17bc 87b5 4a3d 5c4a 2bbb 4e46 81bc
000000c0: f176 3bbc 982b 82bd 18ad be3b 853a 52bd
000000d0: 783a dd3c b06b eabb 6400 7ebc f0cc ae3c
000000e0: f499 c6bc af8f 8c3b 31c7 0fbd 5baf 153d
000000f0: 83d6 643d c4b7 5dbc ce58 5e3b 03fc ad3c
00000100: 3573 0c3c 9d63 1e3c a382 913c 420c 073d
00000110: 4a01 f3bc 9634 aebc 998a a43d 6db6 123b
00000120: 1cfa adbc 693a e63c 163c b73c d3e1 35bd
00000130: 0bc5 513d 747c 003d 40f8 0bbc b3fa 41bc
00000140: 50be b3bc e02f 15bd 8d46 8e3c 34cb e33b
00000150: 2bc8 613d c1b0 8d3c 4515 203d d899 15bd
00000160: ccf7 96bc 7f26 c739 6ed6 393c 714d 663b
00000170: 5d8d d93b 7c86 283b 83c2 56bd 58b5 9f3c
00000180: 8d19 39bd 0dcd 19bc 7174 fbb9 19d4 1f3d
00000190: 9cb0 9cbc df7b d93b fffc 13bd 2c0a 78bd
000001a0: 180a b73c 1258 8fbb 1286 19bd 2c71 2fbd
000001b0: db62 323d ec6f 233d c3e2 72bb 4a3a bd3c
000001c0: 9939 d73b 33ae 3b3c aa1a 21bd b4d4 34bc
000001d0: d035 9a3c f7c5 a9bc 3d5f e73c b913 7abc
000001e0: 3611 17bd 2545 b5ba 93cd 3f3d 0f61 223d
000001f0: f2b1 333b 10ba cd3b 00f4 813d edfb 3c3d
00000200: 9740 e83c 3d1e ebbc 3eee 323c 7289 153d
00000210: 15e8 123d 4488 39bd c9bc 06bd 7548 003c
00000220: b67a afb9 08a5 8bbc 106e cd3b 907b 8b3d
00000230: ea77 683b ffa6 1f3c 85c9 ad3b b141 d0bc
00000240: 55c8 c03c 9a93 213c 838b 73bc 17fa c5bc
00000250: 0955 16bd 4ef1 0bbd dbf0 d2bc f3c2 8e3c
00000260: 47f0 a03c e2da 8a3b c378 36bd 3e53 4b3d
00000270: 0f23 b43c b014 433c 862f 133d a86a 09bd
00000280: cb0a 093c 04f4 18bd 329e d13c 27af 113d
00000290: fdd1 033d c9ad 7fbc c4c7 053c b412 dabc
000002a0: 6526 913b 20c7 5e3d d457 f63c f2bf fd3c
000002b0: 9971 21bc 36a2 583c c10f ebbc 979c 443d
000002c0: 4f89 d7bc d16e 7e3c 0f72 f7bc 171a 12bb
000002d0: d193 1fbc e320 daba 365f 863b 39e8 a83b
000002e0: 87ee 33bc 75e5 163d eaf6 8dbc 3576 85bc
000002f0: b873 893d e75c 7e3d 1010 3d3d 15bd 933c
00000300: 96ba f0bc 7f23 e93b 6a3f 0c3d b677 473c
00000310: 1972 483d 203f 123d 7b45 133d 8364 14bd
00000320: 14b6 2ebc 96b1 1bbc 5287 df3c c2db 913c
00000330: 5f3b 693d e0f9 a5b8 b4b1 6e3c 2340 fdbb
00000340: 5838 fdbc 24f5 b5bb 1c21 8abd 9493 7ebd
00000350: d625 1fbd 783b 35bd 60ec febc 5388 a8bc
00000360: a884 0dbc ef75 083c e4e6 683b 048f 1bbd
00000370: ad71 c23b b664 91bd be85 90bc e778 693d
00000380: 2fe9 443d 9a19 b53c b034 313d b978 30bd
00000390: 629d 45bc 8491 10bc d0fb 18ba 783a 5dbb
000003a0: 5e9b 06bd 6631 8d3c 618e 07bd 0b5c 7f3d
000003b0: c80f a9bc 8712 7d3a f226 bf3c 744a b93b
000003c0: 78c4 9dbb 5f3b 353d 57f4 fe3b c507 9fbd
000003d0: 0a0a 803d 9b34 09bc cb5c 1ebc 0445 313d
000003e0: 89c7 3eba 5490 21bd fced bcbc 809c 33bd
000003f0: 80e0 b6bc 5168 d8bc 07cc 9e3c b464 65bd
-0.002850957 -0.0075744404 -0.019476417 -0.07049 0.0346363 0.05445248 0.033939477 -0.004041624
-0.08304302 0.00085558445 -0.008102234 -0.0047889324 0.03530835 0.017269453 0.07532626 0.05219685
-0.013968516 -0.0023768547 0.0629308 0.0402574 -0.06772234 -0.0013855954 -0.0007016375 -0.044631753
0.023409786 -0.005240933 -0.0077244095 0.0033269206 0.0010074703 -0.045237087 0.015009802 0.01690405
-0.0012490789 -0.04571176 -0.038024504 0.0013607186 0.00744113 0.06886489 -0.023580339 -0.040580742
-0.02450354 -0.016930114 -0.012385444 -0.0007221696 -0.00922345 0.049489524 -0.002613685 -0.015780594
-0.011441932 -0.06355971 0.005818974 -0.05132534 0.02700542 -0.0071539506 -0.015503023 0.021337956
-0.024243332 0.0042895894 -0.035102073 0.036544185 0.055868637 -0.013532583 0.0033927443 0.021238333
0.008572389 0.009667304 0.017762488 0.032970674 -0.0296637 -0.02126531 0.08034248 0.0022386566
-0.021237426 0.028104024 0.022367518 -0.044404816 0.051213305 0.031368688 -0.008543074 -0.0118395565
-0.021941334 -0.03642261 0.017367626 0.006951714 0.055122536 0.017296197 0.039082784 -0.03652367
-0.018428706 0.0003798492 0.011342628 0.0035141374 0.0066391663 0.0025714925 -0.052431595 0.019495651
-0.045190383 -0.009387267 -0.00047961206 0.03902063 -0.019127183 0.006637081 -0.036129948 -0.060556576
0.02234368 -0.0043745125 -0.037481375 -0.04283254 0.043551307 0.03990166 -0.003706143 0.023099083
0.0065681455 0.011455107 -0.03933207 -0.0110370405 0.018824488 -0.02072428 0.028243655 -0.015263491
-0.036881648 -0.0013829811 0.04682691 0.039643344 0.0027419296 0.006278284 0.063453674 0.046138693
0.028351111 -0.028700942 0.010921059 0.03650803 0.035865862 -0.04529597 -0.032894883 0.007829775
-0.00033470028 -0.017046466 0.006269224 0.06810677 0.0035471865 0.009744405 0.005303564 -0.02542195
0.023533026 0.009861851 -0.014864805 -0.024167104 -0.03670219 -0.034165673 -0.025749614 0.017426943
0.019645823 0.0042375186 -0.04454876 0.049639933 0.021989373 0.011906788 0.035933994 -0.03354898
0.00836439 -0.037342086 0.025588129 0.03556743 0.032182682 -0.015605398 0.008165304 -0.026620246
0.004429626 0.05438912 0.030071177 0.030975316 -0.009853744 0.013222268 -0.028694035 0.0480009
-0.026310591 0.01552935 -0.030205755 -0.0022293383 -0.009739832 -0.0016641881 0.0041007055 0.005154636
-0.010982162 0.03683992 -0.017329652 -0.016291717 0.06711525 0.062100317 0.046157897 0.018034497
-0.029385846 0.007114827 0.034240164 0.012174537 0.048936937 0.035704732 0.035954934 -0.036228668
-0.010663528 -0.009502789 0.027286205 0.017804984 0.056941386 -7.914356e-05 0.014568735 -0.007728593
-0.030910656 -0.0055529047 -0.06744596 -0.06215246 -0.038854443 -0.044246167 -0.031118572 -0.020572817
-0.008637585 0.008328899 0.0035538012 -0.037978187 0.0059339614 -0.07099287 -0.017641898 0.057000067
0.048073944 0.022106934 0.043263137 -0.04308388 -0.012061449 -0.008823756 -0.0005835863 -0.0033756774
-0.032863013 0.01723547 -0.033094767 0.06234364 -0.020637408 0.0009653945 0.023334 0.0056546275
-0.0048146807 0.044246074 0.0077805924 -0.07765154 0.06251915 -0.0083743585 -0.009665678 0.04327871
-0.0007277658 -0.039444283 -0.023062699 -0.043850422 -0.022323847 -0.02641693 0.019384397 -0.05600424

conv2.0.bias f4 [64]
00000000: 8e7e 5f3b ca92 f33b 3876 de3b 2d81 843b
00000010: 0925 8b3b d387 593c b925 1d3c c635 cd3b
00000020: a284 893b 3f06 743a 2b89 953c a7b5 b13b
00000030: 2372 103c 6076 123c 25bd 223c 6e98 783c
00000040: 6281 5e3c bb6e 603c 4052 df3b 2645 913c
00000050: c3a7 0c3c dca6 043c b59a 343c 1521 843b
00000060: 6574 4e3c 147a 413b 98d1 813c 7f7a 6e3c
00000070: a281 923c 550a f23b 5dcb 863c b53d 3e3b
00000080: 04b8 6b3b 85eb 893b 28d8 d33b fc27 b93b
00000090: c1ed d03b c3bb dd3b adc4 2a3c 7060 fd3b
000000a0: 06dc f93b 189a 1a3c c142 093c f56f 0f3c
000000b0: 208d 333b 4613 a03b 0c65 f93b a904 95bb
000000c0: cb09 cd3c 2fa4 593c 5b29 07bb 7d54 073c
000000d0: 8126 723c 44a7 343c 6143 d038 61c8 c63b
000000e0: 7a9e 9a3c 5b2a 3d3c 5ef3 923c 3665 e73b
000000f0: 301f 1bbb 4d60 323b 8a5f 233c 51a2 db3b
0.0034102532 0.00743327 0.006788995 0.0040437193 0.0042463583 0.013277012 0.009591513 0.006262514
0.0041967193 0.0009308792 0.018253883 0.005423266 0.008816275 0.008939356 0.009932791 0.015173061
0.013580652 0.013698275 0.006815225 0.017733168 0.008584919 0.008096423 0.011023213 0.004032264
0.012600993 0.0029522227 0.015847012 0.0145555725 0.01788408 0.0073864856 0.016454393 0.002902848
0.0035967836 0.0042089843 0.006464977 0.0056505185 0.0063759987 0.0067667677 0.010422868 0.0077324435
0.007625106 0.009436153 0.008377732 0.00875472 0.002739735 0.00488511 0.0076109227 -0.0045476747
0.025029084 0.013283773 -0.0020624015 0.00825989 0.014779688 0.011026207 9.930763e-05 0.0060663675
0.018874396 0.011545743 0.017938312 0.007061626 -0.0023669712 0.0027218044 0.009971509 0.0067026992

conv3.0.weight f4 [64, 64, 5, 5]
00000000: 0df9 4cbc 430e 263d 90b7 18bd 0077 0e3b
00000010: 7d16 1cbc 68ee 113d a4f0 a6bc 96e3 883b
00000020: f26a 82bc 5da4 4fbd ba19 8abc 1eda e33c
00000030: 3f71 613c 60a3 cdbb 77dd 003a 9d53 82bc
00000040: 30fd d5bc c497 e33a 318b fabb 8eb1 423d
00000050: cd58 89bc c100 4f3b e407 993c f955 0abd
00000060: 2f6d b8bc a928 debc c778 513d 7a38 89bb
00000070: f489 bc3c d6a3 01bd 76a3 d63c 031d 043c
00000080: be8e 14bc 3564 893b eb5a a5ba 7a0b 213d
00000090: 6bb4 703c c276 463c 7fbb 2ebd 4baf 08bc
000000a0: 2231 8fbc 374a 80bd 55d7 c9bb f103 193b
000000b0: b155 29bd 386e 18bd d80f 8e3d 173b 81bc
000000c0: 13d4 c53c bdfb 703c 34ce 0dbc 665a 4f39
000000d0: 0f9a d63c 02b6 02bb 6e8f cfbc 8337 073d
000000e0: 7652 43bc bd18 243d 6e67 fabc 2ac4 e5bb
000000f0: 82f6 d6ba 941e 15bd 6d84 3b3a 3476 dabc
00000100: 8c4b bb3c 54ad fc3c 841e 253d aef3 513c
00000110: 47d9 4f3d 0b20 92bd 8856 43bc 246c 1b3c
00000120: 9b34 77bc ca23 0ebc a498 13bd 7233 cd38
00000130: fb0a bb3c ba11 a23c 71bc 79bb 6178 cb3c
00000140: 2a98 593b f568 023c 2959 183d 61f2 97bc
00000150: 46aa e0bc 0824 7dbb e931 023c a9e0 1dbc
00000160: c5a5 18bc 29f4 0b3c 25dc 04bb ef58 933b
00000170: efc7 01bd 6138 e13c a035 443c 0d1f 44bc
00000180: f805 8bbc 6711 1e3c a9e0 973b 1705 0a3d
00000190: 80c7 783c 5379 1a3d 16cd a7bc edf9 293d
000001a0: a3e7 0f3d bc10 d03c 1387 4e3c bf08 823b
000001b0: bc2a aabc 1bbd 31bc a3ce f6bb 5f40 2abd
000001c0: 80a9 3e3c 36ea 063d 2b23 2abb e269 4aba
000001d0: da32 153d 49a5 2e3c 22f7 fc3b ca49 3abc
000001e0: 9618 0dbd c52b 0c3d dbf6 bb3c fb6d 68bd
000001f0: b5b0 37bc f68e 03bd 629d 2ebd 1adf 4239
00000200: 8527 013d 8f91 8e3b f420 133c ad5f e0ba
00000210: c9bb 86bd c171 a73c bf94 0dbd 2ae3 c43c
00000220: 79ae 51bc e969 a53b 4a4b 773d df9d a2bc
00000230: 5cd3 51bc 0d53 b63b 19d8 afbc d6c3 7d3c
00000240: dc30 e6bc c4d8 87ba 17bf 4e3c 0130 1d3d
00000250: 37fd ff3c 5d26 8dba 7a65 b33c 3b98 af3c
00000260: c788 e2bb a5af b73c c3fe b33c 974a 19bd
00000270: 9a2c 3c3c e9ba ccbc a0bf 1bbd 8075 2cbd
00000280: 2b0b 2ebd d14f 6b3c 9d17 90bc 09be efbc
00000290: 6e0c 0bbd 0bb8 50bd 810f 48bd 540b 6cbb
000002a0: c5ec 4b3a 5be4 21bd 7a6f 60bc 0a25 673d
000002b0: f9a4 203d e450 03bb 8db1 e9bc cb16 3f3d
000002c0: 9163 8ebc 4ebf 00bc 8bfc 073c bf23 f13c
000002d0: be4e 87bc d2b4 433c bb07 8b3b 3ef6 02bc
000002e0: d34c 88bc 4438 4e3c 1648 6fbc 9533 063d
000002f0: 01e0 9fbd fea1 123c ee95 923c 36f2 223d
00000300: 3bbc 82bb 2713 4abd cb07 653c 3524 bd3b
00000310: a8f1 ed3c 9016 e6bc 4f92 a03c 751b 71bd
00000320: 4abf 353d ff1c 193d 0516 863d bf25 583c
00000330: ddf6 ba3c 1540 97bc 10cd d03b 2c1d e9bc
00000340: f47a 243c 1f36 abbc 822b c0bc 24ec 6abd
00000350: b4ba 05bd 1a07 3a3b 8829 ccbc 798d 37bb
00000360: 0956 8d3d 5e8e 25bd b9fc 3c3c 3fbf dabb
00000370: 638a 3dbd ff42 c8bc 95fe 95bd c756 0c3c
00000380: 1bd3 973c ce4d a13c 9b53 1c3d 440e d5bc
00000390: e577 e6bc de80 b2bb 6908 32bd ef30 413d
000003a0: 2e1b 2a3c 20f8 b6bb dc18 ddbc e627 863c
000003b0: 1ab6 a13c fac1 babc c9b5 793b 7ab7 243d
000003c0: f445 fc3c d902 8dbc 6e6b e13b 66b9 4c3c
000003d0: ea26 e2bc f0a4 52bd f50e 91bd 54ab 59bc
000003e0: ec1f ef3b 2fa0 4abd bad2 e23c 5737 a4bc
000003f0: 9b9d 36bd 5d33 cf3c 207f b03c 46be 233c
-0.01251055 0.040540945 -0.037284434 0.002173841 -0.009526846 0.035627753 -0.020378418 0.004177521
-0.015920136 -0.05069386 -0.01685797 0.027813967 0.01375991 -0.0062755793 0.00049158133 -0.01590901
-0.026121706 0.0017363955 -0.0076459874 0.04753261 -0.016765976 0.0031586143 0.01868052 -0.033773396
-0.022513 -0.027118998 0.051140573 -0.0041876407 0.023015 -0.031650387 0.026200991 0.008063558
-0.0090672355 0.004192854 -0.0012615597 0.039317586 0.0146914525 0.012113275 -0.04265928 -0.008342574
-0.017479483 -0.06264155 -0.006159703 0.0023348297 -0.041341487 -0.037214488 0.06936616 -0.015775247
0.024148976 0.014708457 -0.00865512 0.00019774734 0.026196508 -0.001994491 -0.025336947 0.033011924
-0.011921516 0.040062655 -0.030566897 -0.00701191 -0.0016400369 -0.036406115 0.0007153217 -0.026667692
0.022863172 0.030844368 0.040312305 0.012814445 0.05074432 -0.07135018 -0.011922486 0.009486232
-0.015088226 -0.008675525 -0.03603424 9.784744e-05 0.022832384 0.019783843 -0.0038106705 0.024837675
0.003320227 0.007959594 0.037194405 -0.018548192 -0.027424943 -0.0038626213 0.00794647 -0.009636083
-0.009316866 0.008542099 -0.0020272818 0.0044966857 -0.031684812 0.027492704 0.011975676 -0.011970294
-0.01697062 0.009647704 0.004634936 0.03369626 0.015184283 0.03771336 -0.020483535 0.041498113
0.035133015 0.025398605 0.012605446 0.003968328 -0.02077233 -0.010848309 -0.0075319572 -0.041565295
0.011637092 0.032938205 -0.0025960903 -0.0007721466 0.03642545 0.010659524 0.00771989 -0.011370132
-0.034447275 0.03422143 0.022944858 -0.05674551 -0.011211564 -0.03211876 -0.04263056 0.00018584394
0.03153183 0.004350848 0.008980025 -0.0017118357 -0.06578786 0.020439984 -0.034565683 0.024034102
-0.012797945 0.005048026 0.060374536 -0.01985067 -0.01280674 0.0055640996 -0.021465348 0.015488585
-0.02809947 -0.0010364284 0.012618802 0.03837586 0.031248672 -0.001076888 0.021898974 0.021434894
-0.006913278 0.022422621 0.021972066 -0.03742465 0.011485243 -0.02499147 -0.038024545 -0.042104244
-0.04249112 0.014362291 -0.017589385 -0.02926542 -0.0339474 -0.050956767 -0.04884291 -0.0036017494
0.0007779117 -0.039524417 -0.013698453 0.056431808 0.03921983 -0.0020037228 -0.028527046 0.046652596
-0.017381461 -0.007858111 0.008299957 0.02943599 -0.01651704 0.011944966 0.004242865 -0.007993279
-0.016638195 0.012586657 -0.014604589 0.032764036 -0.07806397 0.008949755 0.017893758 0.03978177
-0.003989724 -0.04933467 0.013978909 0.0057721385 0.029045895 -0.02808693 0.019601015 -0.058864076
0.04437188 0.03738117 0.06547169 0.013192593 0.022822792 -0.018463174 0.0063721016 -0.028456293
0.01003908 -0.02089983 -0.023458246 -0.057354107 -0.032648757 0.002838558 -0.024922147 -0.0028007908
0.069011755 -0.040418975 0.011534863 -0.0066756303 -0.046274554 -0.024446009 -0.07323948 0.008565611
0.01853328 0.01969042 0.03816567 -0.026007779 -0.028133342 -0.005447491 -0.04346505 0.047165807
0.010382457 -0.005583778 -0.026989393 0.016376447 0.019740153 -0.022797573 0.0038102737 0.04021404
0.030795075 -0.017213272 0.0068792617 0.012495374 -0.027606446 -0.051426828 -0.07082931 -0.013285477
0.0072975066 -0.04946917 0.027688373 -0.02004592 -0.044583898 0.025293047 0.021544993 0.009994095

conv3.0.bias f4 [64]
00000000: e9e6 183b 04aa 01ba 5a80 b53b 3a95 e53b
00000010: 4c7b f63b 5080 80bb 2009 1b3c a297 623b
00000020: 1aef 0e3b 24ff e9ba b167 543a 54cd 433b
00000030: 4972 24bb 790b 023c 0f8a a33b 83c8 69bb
00000040: 36f5 c33b ba8a 0c3c 27dd 533c 137a c73b
00000050: 4280 443b 1e43 933b f444 453c 70cc 683b
00000060: b381 b03b cfe2 b63b 1430 513c 04a7 203c
00000070: 8d40 9f3a cd54 cab9 1d13 e239 7b0b ac3b
00000080: 3032 2e3c 6293 303c 5735 d6b9 219c 6cbb
00000090: 0d94 593c 5b20 c43b 2426 3aba 23ab db3a
000000a0: c6cb 123c 856b 0e3c 2408 583c a4ee 1f3c
000000b0: 8201 f43b cbf8 173b f57a 033c 88b6 943b
000000c0: 85c5 513b 5cd8 f73b 251b 063c 1c2d e93a
000000d0: 49b6 3d3c 0b6c f03b e548 9f3b 0875 4a3c
000000e0: 669a 843b 792a 473a 63ea 123c 06e4 243a
000000f0: 5763 303c 5557 ca3b 1e15 693a 3a2b 0c3b
0.0023330993 -0.0004946294 0.0055389823 0.0070063146 0.0075220224 -0.003921546 0.009462625 0.0034575243
0.0021809996 -0.0017852527 0.00081026094 0.0029877024 -0.0025092533 0.007937306 0.004990823 -0.0035672493
0.005980159 0.008577997 0.012931145 0.0060875504 0.0029983674 0.004494085 0.0120403655 0.0035522245
0.005386555 0.005581237 0.01276781 0.009805445 0.0012149975 -0.00038591624 0.0004312032 0.005250392
0.010632083 0.010777326 -0.00040857002 -0.0036103802 0.013279927 0.0059853024 -0.00071010203 0.0016759377
0.008959716 0.008692627 0.013185535 0.009761486 0.007446469 0.0023189064 0.008024921 0.004538361
0.00320086 0.007563634 0.008185183 0.0017789933 0.011579105 0.0073370985 0.0048609846 0.012357004
0.004046726 0.00075975765 0.008967015 0.00062900817 0.010765872 0.0061749616 0.00088913913 0.002138807

conv4.0.weight f4 [64, 64, 3, 3]
00000000: 4392 f83b c97f 01bb 0b9f 1abd dee2 f1bc
00000010: 9fe4 05be 5772 653c 79d8 faba bc1b 263c
00000020: 65bd b83d fa07 573c d1a8 c3bc a5e0 83bd
00000030: 37b9 093d 04ef b7bc dbca 15bd 7d26 5d3d
00000040: 5b43 383c 2ce1 4dbc f36f bc3c b55d e33b
00000050: 081d ee3c 975a 433d 5710 4f3c 6a77 1cbc
00000060: b67e 113d e017 15bc e3d1 f53b 601c 12bd
00000070: 2631 743d a44b 4abd 183c 88bc aa34 4cbd
00000080: e6f1 c8bd c171 8f3d 3ede 48bd 18e8 123d
00000090: 6fbb 033d 0603 b9bc 3141 e63c db90 f1bc
000000a0: b58f 0d3d e59b 4fbc 9c11 f1bb 0c81 c6bc
000000b0: bbcb 47bc d479 82bd 068f bc3c b4ce 73bc
000000c0: 1947 553d 3051 773c d1b4 acbc ef7b 9dbd
000000d0: 0f07 e6bc 5a92 02bd 7666 c43b bc23 2cbd
000000e0: 30b6 183d 4cd5 873c 549f 7bbd f9b8 ccbc
000000f0: 1e29 423d 62df 1f3d acbe 6b3c 7e83 c93c
00000100: a1a0 babc f610 97bc a801 5abd b39e 0d3d
00000110: ebe2 c93d dd21 41b9 3af0 78bd 36f4 ccbb
00000120: e077 61bc 7e74 1b3d 48a5 ba3c d444 aebd
00000130: 3e8e b0bc 85c9 0c3d 4629 1ebd b913 2bbd
00000140: d031 7ebc 4f31 b9bd 516e 573d 6203 c63c
00000150: 992e 863d 6dff 203d a291 4cbc 3043 483d
00000160: 3930 483d 191d 9ebc 3e10 1c3d 45fc 7e3d
00000170: d381 25bd 0f7b 2dbd b7fa 3f3c 725c 3cbd
00000180: 491a 113d 9451 bd3d 41c2 c7bc 3e8f 46bd
00000190: b709 993c 2e51 3f3b 2f25 043d 4f56 d53b
000001a0: 6f52 3ebd 0cb3 9d3d 6f9b ab3a f5f3 4ebd
000001b0: 6ae2 fcbc a5f0 923b ed26 0bbd 8c40 0bbb
000001c0: d5b1 3c3d 3218 523c af97 c1bc b2e9 0f3c
000001d0: 6c5d 9d3c 410d 39bd de7e b13c 4d7c 573a
000001e0: 0111 873c b2bb 163d dea2 b83c 9e31 483d
000001f0: 3855 793d b9d6 c73a 0159 96bc 0d97 a6bc
00000200: 8f95 293d 8668 34bd 4dfa 22bd 5669 d9bc
00000210: 5f13 abbc 5643 58bc 4fa0 82bb defc 16bd
00000220: cf3b f53c 95cb fabc 768f c5bc 0377 283d
00000230: c45e 3ebc 8bdd 9d3a d0c6 1abc 10b4 ddbb
00000240: 8802 bdbd 1cf5 753d 86fc 043d 5aeb 2abd
00000250: 156e 033d fca7 193d c715 2fbd 54a0 013a
00000260: ffc4 67bd 6288 56bc ad26 e53c 9992 c4bc
00000270: 1faa c93c 7b1d 1dbd 085c 903c 3d65 67bd
00000280: abab dfbc 372a ef3d 61a7 0b3d 17f8 dabd
00000290: 166c 1b3d 6c17 333b 340e b5bc f336 603d
000002a0: 6ef4 8bbc 0700 adbb 9480 8f3d 42b0 ee3b
000002b0: 94c6 22bd 129b 863b e501 aabd f954 c83b
000002c0: 5454 2a3d 1910 f63c 0724 9b3d 5f47 513d
000002d0: 19ac acbd 207c 86bd 6bdd 4b3a c754 92bd
000002e0: b958 923d 6af9 79bc 5ea2 71bd 09e3 35bd
000002f0: 225a efbc 1b59 463c 76f4 a3bc 7628 9f3c
00000300: 415c cdbd 83d0 a13c 878b d73c fbe1 ce3c
00000310: 5b50 333d c3da 603d 30d9 133c 3e5a 69bd
00000320: d606 f8bc eb7c d5bc 08bb 2fbd 3986 a6bc
00000330: 1c47 e4bc 0fba 26bd 06b6 b2bb 3983 8f3d
00000340: 56ef 46bc 1a2f 7b3c 0334 80bc e1b3 653b
00000350: ce41 3c3d 48a7 26bd 820f 673c dd3c 99bc
00000360: f81a af3d 45f8 363d 2cb4 ef3c c244 b9ba
00000370: cf40 cd3c 7b2c 7fbc a8ca b43d 65e5 4e3b
00000380: c431 1abd da7a 2abd 06d4 213d 0066 e83c
00000390: 20a5 8abc 5dbb 5d3d 00fd 593d 9b6f 533a
000003a0: d6fa 8fbc b2ec 683d 5068 8c3d 715a 12bc
000003b0: 168d 683d 0208 403c a29f 003d 22ae a4bb
000003c0: 3541 6e3c 30a5 68bd 4b24 29bd 3190 ca3c
000003d0: 4165 a43d 687d dfbc 32f9 fdbc ff55 1e3d
000003e0: 8a58 1dbb 48df 863c cc5b 4d3c bde9 81bc
000003f0: 093a 49bd 349e 8f3d cbbf c43d 887a 18bd
0.007585795 -0.0019760004 -0.03774933 -0.029527124 -0.13075493 0.0140043115 -0.0019138 0.010138448
0.09020499 0.01312446 -0.023884209 -0.06439332 0.0336239 -0.022452839 -0.03657041 0.053991783
0.011246528 -0.012565892 0.0230026 0.006938661 0.029066578 0.047693815 0.012638173 -0.009549955
0.03552123 -0.0090999305 0.007501827 -0.03567159 0.059617184 -0.049388543 -0.016630217 -0.049854912
-0.098117635 0.07004119 -0.04904007 0.035865873 0.032161172 -0.02258445 0.028107258 -0.029488018
0.034560878 -0.0126714455 -0.0073568355 -0.024231456 -0.012194569 -0.06370893 0.023017418 -0.014880825
0.052069757 0.01509504 -0.021082314 -0.07689654 -0.028079538 -0.031877853 0.0059936596 -0.042026266
0.037283123 0.0165812 -0.061431244 -0.024990546 0.047402494 0.039031394 0.014388721 0.024598833
-0.022781672 -0.018440705 -0.053224236 0.034575175 0.09857734 -0.0001841853 -0.060775973 -0.006254698
-0.013761491 0.037952892 0.02278389 -0.08509222 -0.021552201 0.03437187 -0.03861358 -0.041766856
-0.015514806 -0.09042608 0.05259544 0.024171535 0.065518565 0.039306093 -0.012485893 0.0488922
0.048874114 -0.019300984 0.038101427 0.0622523 -0.040407013 -0.042353686 0.01171749 -0.0459866
0.035425458 0.092440754 -0.02438462 -0.04847645 0.01868139 0.0029192674 0.032262024 0.006510533
-0.046465334 0.07700166 0.0013092587 -0.050525624 -0.030869681 0.0044842535 -0.03397267 -0.002124819
0.04606803 0.012823151 -0.023631899 0.008783745 0.019209586 -0.045178656 0.02166694 0.00082201214
0.0164876 0.036800094 0.022538599 0.048875444 0.060872287 0.0015246487 -0.018352987 -0.020335699
0.041402396 -0.044044994 -0.039789487 -0.026539486 -0.02088326 -0.013199648 -0.0039863954 -0.036862247
0.029935746 -0.030614654 -0.024116259 0.041129123 -0.011619274 0.0012044174 -0.009446815 -0.00676585
-0.092289984 0.060048208 0.032467388 -0.041728355 0.032087404 0.037513718 -0.042745378 0.000494485
-0.056584354 -0.01309404 0.027972544 -0.023995684 0.024617253 -0.038358193 0.017622009 -0.056493033
-0.027303537 0.11677974 0.03409517 -0.10691851 0.037944876 0.0027327193 -0.0221015 0.054739904
-0.017084327 -0.0052795443 0.07006946 0.007284195 -0.03974016 0.0041078413 -0.083011426 0.006113645
0.041584328 0.030036973 0.07575231 0.051093455 -0.084312625 -0.06566644 0.00077768293 -0.07145076
0.07145829 -0.015257219 -0.058992736 -0.04440597 -0.029217783 0.012106205 -0.020014029 0.019428473
-0.10027362 0.019752746 0.026311649 0.02525424 0.043777805 0.054896127 0.0090239495 -0.056970827
-0.030276697 -0.026060542 -0.042902976 -0.020327674 -0.027865939 -0.040704783 -0.005453828 0.070074506
-0.012142023 0.015331054 -0.015649801 0.0035049843 0.045961194 -0.040686876 0.014102818 -0.01870578
0.08550066 0.044670362 0.029260717 -0.0014134871 0.025055317 -0.01557457 0.08827716 0.0031569835
-0.037645116 -0.041621067 0.039508842 0.02836895 -0.01692444 0.05413376 0.053219795 0.0008065642
-0.017575663 0.056866355 0.068558335 -0.008932696 0.056775175 0.011720659 0.031402238 -0.005025641
0.014541914 -0.05679816 -0.041294377 0.024726959 0.08027125 -0.027281478 -0.031002615 0.03865623
-0.0024009072 0.01646389 0.012534093 -0.015858525 -0.049127612 0.07012597 0.09606894 -0.03722623

conv4.0.bias f4 [64]
00000000: 6f12 833a 6f12 833a 6f12 833a 6f12 833a
00000010: 6f12 833a 6f12 833a 6f12 833a 6f12 833a
00000020: 6f12 833a 6f12 833a 6f12 833a 6f12 833a
00000030: 6f12 833a 6f12 833a 6f12 833a 6f12 833a
00000040: 6f12 833a 6f12 833a 6f12 833a 6f12 833a
00000050: 6f12 833a 6f12 833a 6f12 833a 6f12 833a
00000060: 6f12 833a 6f12 833a 6f12 833a 6f12 833a
00000070: 6f12 833a 6f12 833a 6f12 833a 6f12 833a
00000080: 6f12 833a 6f12 833a 6f12 833a 6f12 833a
00000090: 6f12 833a 6f12 833a 6f12 833a 6f12 833a
000000a0: 6f12 833a 6f12 833a 6f12 833a 6f12 833a
000000b0: 6f12 833a 6f12 833a 6f12 833a 6f12 833a
000000c0: 6f12 833a 6f12 833a 6f12 833a 6f12 833a
000000d0: 6f12 833a 6f12 833a 6f12 833a 6f12 833a
000000e0: 6f12 833a 6f12 833a 6f12 833a 6f12 833a
000000f0: 6f12 833a 6f12 833a 6f12 833a 6f12 833a
0.001 0.001 0.001 0.001 0.001 0.001 0.001 0.001
0.001 0.001 0.001 0.001 0.001 0.001 0.001 0.001
0.001 0.001 0.001 0.001 0.001 0.001 0.001 0.001
0.001 0.001 0.001 0.001 0.001 0.001 0.001 0.001
0.001 0.001 0.001 0.001 0.001 0.001 0.001 0.001
0.001 0.001 0.001 0.001 0.001 0.001 0.001 0.001
0.001 0.001 0.001 0.001 0.001 0.001 0.001 0.001
0.001 0.001 0.001 0.001 0.001 0.001 0.001 0.001

conv4.1.weight f4 [64]
00000000: 4429 8b3f 802e 8d3f 2486 903f 0526 883f
00000010: adba 883f b7b5 8e3f 651b 8c3f 07c6 873f
00000020: d41f 853f 08ff 813f c626 873f 3cef 8e3f
00000030: 1685 8b3f de8a 853f b87d 8a3f 9f1c 893f
00000040: f71e 8c3f b8ff 873f 8faa 8c3f f09e 893f
00000050: b401 8b3f c85c 813f a3db 853f 8d2b 883f
00000060: 4ab9 8d3f 049c 883f f9ed 853f 449a 8d3f
00000070: c61e 8f3f 2000 8c3f 41eb 8b3f 1aec 873f
00000080: 88f2 823f 40e0 8a3f 4d06 8c3f 23e0 8b3f
00000090: 157b 8a3f e8b5 8a3f 74d0 8b3f 4359 893f
000000a0: c759 893f 2489 8e3f fdd5 853f 2b05 8e3f
000000b0: 7878 8d3f f612 873f b10e 893f f3c6 903f
000000c0: b2e9 843f a7ba 8c3f 2f74 853f 874e 873f
000000d0: 5217 8d3f 82ca 813f 6a15 853f c330 893f
000000e0: b11f 883f 58dc 883f b2e1 873f 11d5 873f
000000f0: 579e 833f 849d 8e3f 134f 813f 13ee 8d3f
1.0871968 1.1029816 1.1290936 1.0636603 1.0681969 1.1149205 1.094586 1.0607308
1.0400338 1.0155954 1.0558708 1.1166759 1.089999 1.0433004 1.0819616 1.071186
1.094695 1.0624914 1.098955 1.0751629 1.0859895 1.010644 1.0457653 1.0638291
1.1072171 1.0672612 1.0463248 1.1062703 1.1181266 1.0937538 1.0931169 1.0618927
1.0230265 1.0849686 1.0939423 1.0927776 1.0818812 1.0836763 1.092299 1.0730366
1.0730523 1.1135602 1.0455929 1.1095327 1.1052389 1.0552661 1.0707608 1.1310714
1.0383818 1.0994462 1.0426081 1.057084 1.1022742 1.0139925 1.039716 1.0718006
1.0634671 1.0692244 1.0615752 1.0611898 1.0282696 1.114182 1.0102257 1.108828

conv4.1.bias f4 [64]
00000000: af7a 0e3d f7ef 9e3c 5e0b 9c3d 1f04 c13c
00000010: 4b7c 2a3d 2376 f33c 88de 663d db30 a93d
00000020: ab95 f03b 5097 523c 8728 7f3c 22b7 c33d
00000030: b18d 8c3c 50c3 ec3c 6649 8b3d 791a b43c
00000040: 6a8e 543d 1986 373d f237 e63c 690c 493d
00000050: ad24 103d 0f55 9a3c 9cdb 873c 0cf2 0e3d
00000060: b01f 303d 56b9 d83c 137c ee3b 895b 003d
00000070: 2484 543d a64d e03c 507f 6c3d d298 4b3c
00000080: 7e1e a03b d5b7 0c3d fc1f 303d eda4 3f3d
00000090: bdfa 1d3d ca17 843d 73c2 283d 3e68 393d
000000a0: 2965 113d 91b7 a83b 4a8d ea3c 4327 8a3c
000000b0: d02f 4a3d a2a1 423c 477a 243d 3b81 393d
000000c0: ee0a c33c 8159 3b3d 93f4 113d 04d8 123d
000000d0: e3a9 563d e358 1f3a d556 863c 7eb8 743d
000000e0: 1619 083d 929d 243d c673 1d3d b4ee af3c
000000f0: 8e80 373d 9ca3 c73c dea2 2e3d e2dc 3f3d
0.03478497 0.019401534 0.076193556 0.023561535 0.04162244 0.029719418 0.056364566 0.082612716
0.0073420606 0.0128534585 0.015573627 0.09556414 0.017157407 0.028901726 0.06801109 0.02198528
0.05189363 0.04480562 0.028102849 0.0490841 0.035191227 0.018839387 0.01658421 0.034898803
0.04299897 0.026455563 0.0072779744 0.031337295 0.05188383 0.027380776 0.057738602 0.012426572
0.0048864475 0.034355003 0.042999253 0.046788145 0.0385692 0.0644985 0.041201066 0.04526543
0.035496864 0.005148836 0.028631825 0.016864425 0.049362004 0.011879357 0.040155675 0.04528926
0.023808923 0.045739654 0.035633635 0.03585054 0.05240811 0.0006078614 0.016398827 0.059746258
0.03322705 0.040189333 0.03844049 0.021476127 0.044800334 0.024370007 0.04263579 0.04684151

conv4.1.running_mean f4 [64]
00000000: 33ba 9cbe 2188 08bf 30d6 8dbd ffbf 81bd
00000010: b699 003f 5567 ff3f b22a 873f eaf3 1fbd
00000020: 0925 0cbe c622 2f3e 6c70 fc3e af8f f23e
00000030: b1ca 00bf b5ed 813f 1320 3b3f 98cc acbf
00000040: 267e 5dbe 8ff9 953f b7a4 c43e bb2e 17bf
00000050: f219 ae3f b9a0 2bbf 1713 c1be d2ff 6cbf
00000060: 1bbd d63f 4dc4 fa3f 795e e93f 2721 24bd
00000070: e372 423f 8cb5 583f 444b 9b3f 2d9e 8c3e
00000080: 2a07 943f f5d0 7c3f 54f1 2ebf b865 f33d
00000090: 8ec7 183f 68e8 4f3f 6907 0f3f 8475 cd3c
000000a0: ca71 b6bf 7958 8cbe 368f ed3e cf6c 213f
000000b0: 0050 a7bd fc49 43bf a23c 59bf a12f 8dbe
000000c0: ec08 1f3f f059 933f f84a a03e 9fc8 823d
000000d0: aff8 1c3f 2828 e13a f188 f73f 8ccc 603f
000000e0: 4c60 813f f5ad 913f 2f8a 873e 8143 ce3f
000000f0: 11a8 c0be bc17 1a40 7f6e 183e a7a3 6c3f
-0.3061081 -0.53332716 -0.06925619 -0.063354485 0.50234544 1.995341 1.0559905 -0.039050974
-0.13686003 0.17103109 0.4930452 0.47375247 -0.5030928 1.0150667 0.73095816 -1.3499937
-0.21630153 1.1716784 0.38406917 -0.5905568 1.3601668 -0.6704212 -0.37709877 -0.9257785
1.677646 1.9591156 1.8231956 -0.04007068 0.75956553 0.8465202 1.2132344 0.2746443
1.1564686 0.98756343 -0.6833699 0.11884636 0.59679496 0.81214 0.5587068 0.02508045
-1.4253476 -0.2741125 0.46398324 0.63056654 -0.08169556 -0.76284766 -0.84858143 -0.275754
0.6212299 1.1511822 0.31307197 0.06385922 0.6131696 0.0017178105 1.9338666 0.87812114
1.0107512 1.1381212 0.26472613 1.611435 -0.37628224 2.4076986 0.14885901 0.92437214

conv4.1.running_var f4 [64]
00000000: 60fa c53f 0f0f cc3f 3c80 c43f 7ea1 e43f
00000010: f595 a93f e153 f23f b851 5640 1f3b c83f
00000020: b8c6 973f 42cf d43f 39ea c53f a283 c93f
00000030: acd7 9b3f ac5c c63f b53f e53f b9a4 a03f
00000040: 9313 f53f 7392 a33f a7a0 0340 8836 9b3f
00000050: 7a4d c83f fe3f f33f 1cc5 b43f 9a7c 8d3f
00000060: b7b9 8a3f b4d8 f73f 09a7 e23f 199d 0440
00000070: ead2 1a40 8389 ae3f ec47 d93f 4c4e e43f
00000080: 4522 c73f 3f4a d63f 4632 d63f 4360 8b3f
00000090: b7ac bd3f 2603 ea3f ff50 b93f 5ada ad3f
000000a0: bf0c c13f 27fb b73f b157 b23f 397c 833f
000000b0: abb8 d13f 1d79 bc3f b31f 903f fc87 963f
000000c0: a544 aa3f f22a ee3f b3c8 ce3f 052f b73f
000000d0: 8964 ea3f ddb3 a23f 18a6 ba3f ccb5 f23f
000000e0: 3c49 c13f 4fef af3f 1b1a c73f 113d a03f
000000f0: e0c6 8b3f 1d4a 9f3f 3341 963f 99a5 993f
1.5467033 1.5942096 1.5351634 1.7861784 1.3248888 1.8931848 3.3487377 1.5643042
1.1857519 1.662575 1.5462104 1.5743296 1.2175193 1.5497031 1.7910067 1.2550269
1.9146599 1.2779068 2.0566804 1.2126017 1.5648644 1.9003904 1.4122653 1.105365
1.0837926 1.9363008 1.7707225 2.0720885 2.4191232 1.3635715 1.6975074 1.7836394
1.5557333 1.6741408 1.6734092 1.0888752 1.4818333 1.8282211 1.4477843 1.3582261
1.5082015 1.4373521 1.3933011 1.0272285 1.6384481 1.4724461 1.1259674 1.1760249
1.3302199 1.8606856 1.6154999 1.4311224 1.8311931 1.271114 1.4581938 1.896173
1.5100474 1.3744906 1.5554842 1.2518636 1.0920067 1.2444493 1.1738647 1.2003661

fc1.weight f4 [10, 1024]
00000000: 88f6 e0ba 0832 943a a6cd 0abd 65d3 3abd
00000010: a2bc 02be bf4c 90bd bd3d 87bb e717 a13d
00000020: 406e 11bc 7882 83bd 28c6 883d a1de 02b9
00000030: 5c55 84bb d238 51bd a529 ad3c cc40 203d
00000040: eb03 f13c aaa4 773d f3f9 53bc 0b0f 78bd
00000050: 7d34 8ebc 40c4 a13c cf91 da3b 2e19 8bbd
00000060: c68f 30bd 6fee 9ebd 406f de3d 1747 053d
00000070: 9d62 c6bc 8a2b 60bd a4db aebd 1879 cf3b
00000080: 0c99 11bc 87b5 c23d 6f14 edbd b320 41bd
00000090: 6f8b 2bbd 337e c1bc c387 833d fc5c d13b
000000a0: f945 f53c 4559 e63c c8fb e9bd e3ee e33d
000000b0: 8759 973c 9747 a23d 8bd5 b23c 8888 353d
000000c0: f22e 19bd 3ec9 023d 3f06 353c d221 063d
000000d0: d77a 5dbb 7097 d4bd 8f92 96bd 49f8 fdbd
000000e0: a8fd 273c 2498 a63a 7878 a13c 1aa8 5bbc
000000f0: a095 803c 569c a4bc e51d 5bbc d529 0abd
00000100: bad9 ac3b a209 033d dc1c 0a3e f892 d33a
00000110: 870b d63c c694 a63c ab64 283d 23d6 6bbd
00000120: 2363 59bd cc04 c83b ef4d 1abd 0d4b 943c
00000130: da1c 5a3c 5e29 b1bc 5f9b f5bd 8bef 203d
00000140: 3e92 01be 281f e03c c94d 983b af33 1d3d
00000150: 7d8b 12bb 6596 1a3c a0d4 3c3d 55c9 cf3c
00000160: e342 94bc 3e42 95bd 58b4 2ebd 2679 b73d
00000170: 38ad 153d 2677 adbd 6966 343d fda0 5dbc
00000180: d261 97bc 1aed 923d 1a52 d83d e73f 473d
00000190: 51b4 45bd 20ec 1bbd 51a3 81bd 2533 c83d
000001a0: 21eb 003d 70bf 1abd c4ce 1c3d 14f0 47bd
000001b0: 90ba 0cbd 0c15 ba3c 0811 db3b 3ba5 1abb
000001c0: 4466 183d 8052 f1bb d963 743d ef69 cdbb
000001d0: 2c8a e53d ff70 1b3d 4182 8d3d f823 223c
000001e0: 164d 4e3d 3d72 b5bb faee 823d ef25 1fbc
000001f0: 25e2 0c3d f91a dabc b63e 053d 01f8 1c3c
00000200: a18b 403d 2c80 163d ead6 3d3d 0839 da3c
00000210: d6a6 0a3c 20c3 a73d 66c5 a03b 3afb c03c
00000220: 407b dd3c ed34 c43d 63a0 a63c d84a 7dbb
00000230: 9bdf 313c 8579 d1bd fa97 e53c 0b2f 4dbd
00000240: 7398 49bc 82d3 7ebd 4618 933d cbff c439
00000250: 0d6b 7ebd 6438 203d c3d4 683c 967e d23b
00000260: f442 9b3d 2121 2abd c6a1 60bd 68a4 93bd
00000270: 72bc ca3c ccef 753b 7f0e 453d 8b36 503d
00000280: 9a42 8e3d bb01 6e3d 8c98 fcbc 1100 5e3d
00000290: 3eec 313c f5af 19bd 90cc 6abd f1dc 163d
000002a0: b19d 03bb 8cb4 283d 3727 51bd fcc4 0d3d
000002b0: 5f65 203a 4504 703d 8315 94bd ad5e 19bd
000002c0: 855f 943c e6ab 013d 2eb4 0f3d 3416 1e3d
000002d0: e727 85bc 3ec6 8a3c 6858 92bd d9b3 37bd
000002e0: f2a9 17bd 3fb3 973d f845 9b3d 4bd4 873c
000002f0: 8218 8e3c ce0b 073b fbcd 093d fda8 9dbd
00000300: fc49 1f3d 3fb2 1f3d 2c95 503d c823 3c3d
00000310: 2223 9ebd 4d7c 33ba 4dfa 09bd 2e21 963d
00000320: 6148 423d 600a 593b eaca 4fbc bd3d b7bd
00000330: 80c2 4bbc ae25 803c ab84 f1bc 4fef 133c
00000340: f105 f83c 5641 0b39 e2f2 29bd 2102 21bd
00000350: 75e6 4c3d 779e 29bd d635 953d e314 0cbd
00000360: 5be7 86bd 7527 91bd 828f c9bd 6046 313d
00000370: 99e5 afbc 07c7 f9bc afa8 f63c d55a 88bc
00000380: 6fab 863d d1de b23d 706b 983d ce3b 0dbd
00000390: ec76 483c 837c cb3c cad3 fb3d 8359 c73d
000003a0: a97b 503d 920f 433c a9a5 d4bb a96d 7cbd
000003b0: 3858 d53c 85d6 eebc 4da9 ec3b 1f20 ecbc
000003c0: b6fd 48bc 18f7 4d3c 7000 91bc ef64 61bc
000003d0: 04ec d0bd bac8 123d c914 34bd dc84 46ba
000003e0: d81c 333b 5116 9b3c 387c eebc 8cfe 503d
000003f0: 2b29 5f3d 68ec 3fbc 11fc b03d 8f23 e0bc
-0.0017163316 0.0011306414 -0.033887528 -0.045611758 -0.1276727 -0.07045888 -0.004127233 0.07865887
-0.008876383 -0.06421369 0.0667842 -0.00012480702 -0.004038496 -0.05107958 0.021138022 0.039124295
0.029420814 0.06045977 -0.0129380105 -0.06056122 -0.017359013 0.0197469 0.006670214 -0.06791912
-0.043105863 -0.07760321 0.10861063 0.0325385 -0.024216944 -0.054729022 -0.08537987 0.006331574
-0.008886587 0.0950728 -0.11576163 -0.047150325 -0.04188102 -0.023619747 0.06422379 0.0063892584
0.029940592 0.028118739 -0.114249766 0.111295484 0.018475307 0.07923811 0.02183034 0.04431966
-0.037398286 0.0319302 0.0110488525 0.032747097 -0.0033795142 -0.10380447 -0.073521726 -0.12400872
0.010253347 0.0012710136 0.019710764 -0.013406778 0.015696347 -0.020094078 -0.013373827 -0.0337313
0.0052749785 0.03199161 0.13487571 0.0016141823 0.026128544 0.020334613 0.04111163 -0.057577264
-0.05307306 0.0061040875 -0.03767198 0.018102193 0.013312543 -0.02162617 -0.11992525 0.039290946
-0.12653443 0.027358606 0.0046479446 0.038379367 -0.0022360974 0.009435271 0.046101213 0.025364557
-0.0180983 -0.07288025 -0.042652458 0.08958654 0.036542147 -0.084699914 0.04404298 -0.013527152
-0.018479262 0.0717413 0.10562535 0.048644926 -0.048267666 -0.038066983 -0.06329978 0.0977538
0.031474236 -0.037780225 0.038283125 -0.04881294 -0.034357607 0.022715114 0.00668538 -0.002359702
0.037206903 -0.007364571 0.059665535 -0.006268732 0.11207995 0.03794956 0.069096096 0.009896271
0.050366484 -0.0055373 0.063932374 -0.009713634 0.034395356 -0.02662419 0.03253051 0.009580613
0.04700816 0.036743328 0.046347536 0.026638523 0.008462628 0.08191514 0.004906344 0.023557294
0.02703631 0.09580407 0.02034015 -0.0038649347 0.010856534 -0.10228256 0.02802657 -0.05009369
-0.012304413 -0.06221343 0.07182364 0.00037574614 -0.06211381 0.03911628 0.014210883 0.0064237816
0.0758113 -0.0415355 -0.05484178 -0.072090924 0.02474806 0.0037526963 0.048109528 0.050833266
0.06946297 0.05810712 -0.030834459 0.054199282 0.010859547 -0.03752132 -0.057323992 0.0368318
-0.0020083005 0.041187808 -0.05106279 0.034611687 0.0006118621 0.05859782 -0.072306655 -0.037443805
0.018111954 0.031658076 0.035083942 0.038595393 -0.016254378 0.016940232 -0.071457684 -0.04484925
-0.037027307 0.07407235 0.07581705 0.016580721 0.01734567 0.0020606401 0.033643704 -0.076982476
0.038888916 0.038988348 0.05092351 0.04593256 -0.07721545 -0.00068468304 -0.03368597 0.07330547
0.047432307 0.0033117756 -0.012682656 -0.089473225 -0.012436509 0.015642967 -0.029482206 0.009029224
0.03027627 0.00013280413 -0.041491397 -0.03930867 0.05002447 -0.04141089 0.07285659 -0.034199607
-0.06587096 -0.07087604 -0.09841825 0.043280005 -0.021471785 -0.030490411 0.030109731 -0.016644875
0.06575667 0.08733905 0.07442367 -0.034480862 0.012235384 0.024839645 0.12296255 0.0973387
0.05089918 0.011905568 -0.006489475 -0.061628018 0.026043043 -0.029155025 0.0072223307 -0.02882391
-0.012267521 0.012571119 -0.017700404 -0.013756975 -0.102012664 0.03583596 -0.043965135 -0.0007572898
0.0027330425 0.01893154 -0.029111966 0.051024005 0.05448262 -0.0117140785 0.08641828 -0.027360706

fc1.bias f4 [10]
00000000: 26cc 2e3d 6064 153c b77c 313c 9547 2f3d
00000010: 7bb8 013d b8eb acba 4cd3 193c fece a13c
00000020: 9bfd e63c a896 e23b
0.04267516 0.00911817 0.010832957 0.042792875 0.031670075 -0.0013192808 0.009388756 0.019752022
0.0281971 0.0069149323
