src/mnist_mix_clf_best.pt (torch_old, 851134 bytes, 14 tensors)

conv1.0.weight f4 [32, 1, 5, 5]
0.27863201 -0.43633085 0.29644832 -0.06983812 -0.045902904 0.3055806 -0.6742214 0.32670867
0.1668032 -0.08482893 0.054630898 -0.2962127 -0.0048856335 0.19076076 0.113032214 -0.0034586384
0.108061254 0.04003551 -0.21836986 0.06401213 -0.115973964 0.24198964 0.14037001 -0.28869125
-0.0064995503 -0.027378038 0.05456879 0.049488675 0.16988431 -0.04919873 -0.1407479 -0.21668577
-0.030761907 0.0043388866 0.10867677 0.047452703 -0.14119513 -0.1664826 -0.13282211 -0.024941137
0.07313962 0.037041042 0.119498864 -0.06919987 -0.20695056 -0.0121086445 -0.08240404 0.042083148
-0.018978234 0.108956926 0.07027808 0.027643891 -0.10866175 0.14957838 0.053094458 0.07590363
-0.078284 -0.22480063 0.12826397 0.09452628 -0.1705981 -0.10183409 -0.04775999 0.040996898
0.2568446 -0.12208145 0.10666062 -0.18001902 -0.08876271 0.096521765 0.10057937 0.2609248
-0.009624934 -0.04820065 -0.26949558 -0.0076101813 0.082991496 -0.48952788 0.2968232 0.072597705
0.06157434 0.26287642 -0.6957553 0.10359618 0.28157723 0.016633483 0.6785586 -0.34188482
-0.24197143 0.03027715 -0.34358305 0.031268295 0.2263907 -0.014131968 0.03835748 -0.08457858
0.05421563 0.4084132 -0.060934547 -0.40152353 0.019042721 0.35487315 0.009347077 -0.40186197
-0.24912232 0.059839457 -0.03309304 -0.16394632 -0.020578513 0.23738162 -0.13032848 -0.24596542
-0.02430324 0.14590514 0.10350373 -0.062452197 -0.19400705 0.13914378 0.118316725 0.09977055
0.2515796 0.075306885 -0.15808894 -0.024552802 0.049501278 0.16935565 0.026681317 0.0008757959
0.004527547 -0.019974634 0.062426925 -0.119487986 -0.12421611 -0.050083533 -0.18573913 -0.019031169
-0.14284967 0.10685173 -0.17001632 0.23349378 8.263446e-06 -0.090057015 -0.04055703 0.041655995
0.025372513 -0.24048993 0.06253316 0.1834147 -0.0076120924 0.060534354 -0.28335035 -0.24924964
0.30025515 0.34477425 0.22720556 0.09097797 0.32366344 0.3175968 0.13407952 -0.17626859
0.09348356 0.351925 0.25884047 -0.19360794 -0.29707235 0.20363426 0.30029377 -0.110202715
-0.29277068 -0.17908141 0.17592844 0.07903158 -0.2893609 -0.22583607 -0.17627697 0.0034080169
0.052029457 0.008292916 0.102649644 -0.07619707 -0.013789201 -0.2262302 -0.31988505 -0.054301567
-0.24410608 0.1061955 -0.059235595 -0.17927285 -0.07389419 0.12470216 0.15013702 0.23596576
0.20619658 0.107916586 0.08235192 -0.19840704 0.02585764 0.074119255 0.104845785 -0.0022164956
0.03520239 -0.22818 -0.24414872 0.318406 0.037962344 0.037617918 -0.28847662 0.15747085
0.22366756 -0.10657738 -0.20720226 0.034110665 0.1978849 0.25919887 -0.3273433 -0.15863213
0.07643345 0.29108194 -0.21875954 -0.44716957 -0.019830283 0.2010249 -0.10321196 -0.034808084
0.07471541 -0.032253116 0.04613529 0.19681081 0.32185742 0.12930675 0.13435341 0.016112598
0.01907391 -0.078442514 -0.081815444 -0.09342501 -0.49920106 -0.3726759 -0.3137762 0.028554423
0.030493302 -0.03410543 0.03502614 0.09963069 0.010413603 0.30323213 0.2216994 -0.017692184
-0.017734425 -0.0006630261 0.0928028 0.23036116 0.09069456 0.043234147 0.09189426 0.24504177
00000000: dba8 8e3e c266 dfbe 13c8 973e 4a07 8fbd
00000010: af04 3cbd 0f75 9c3e c699 2cbf 5c46 a73e
00000020: 75ce 2a3e caba adbd a6c4 5f3d 31a9 97be
00000030: aa17 a0bb ca56 433e 6f7d e73d 53aa 62bb
00000040: 384f dd3d 46fc 233d 599c 5fbe cb18 833d
00000050: c283 edbd 22cc 773e 28bd 0f3e 57cf 93be
00000060: 2efa d4bb e847 e0bc 8683 5f3d a3b4 4a3d
00000070: 27f6 2d3e 9c84 49bd 3820 10be e0e2 5dbe
00000080: 6500 fcbc 382d 8e3b ed91 de3d c45d 423d
00000090: 7595 10be 6a7a 2abe 8502 08be 5b51 ccbc
000000a0: 3aca 953d 59b8 173d d2bb f43d a9b8 8dbd
000000b0: d9ea 53be 5663 46bc 73c3 a8bd 615f 2c3d
000000c0: 3e78 9bbc cf24 df3d f4ed 8f3d 7175 e23c
000000d0: 0d8a debd 132b 193e 9379 593d 5d73 9b3d
000000e0: 5d53 a0bd 2332 66be a157 033e ff96 c13d
000000f0: 45b1 2ebe 648e d0bd fb9f 43bd 5dec 273d
00000100: 2381 833e d705 fabd e270 da3d e856 38be
00000110: 39c9 b5bd 34ad c53d 8ffc cd3d ef97 853e
00000120: e6b1 1dbc 0b6e 45bd 53fb 89be d45e f9bb
00000130: 72f7 a93d 66a3 fabe 36f9 973e 1bae 943d
00000140: 6035 7c3d bd97 863e 051d 32bf 3c2a d43d
00000150: e42a 903e f142 883c 04b6 2d3f 870b afbe
00000160: 5cc7 77be c907 f83c 1eea afbe 2f13 003d
00000170: f7d2 673e c589 67bc bc1c 1d3d 8937 adbd
00000180: 3511 5e3d 891b d13e 8196 79bd 7e94 cdbe
00000190: 7bff 9b3c efb1 b53e 7c24 193c dac0 cdbe
000001a0: ec19 7fbe 381a 753d 918c 07bd 8be1 27be
000001b0: 4594 a8bc 2b14 733e d474 05be 5cde 7bbe
000001c0: 9717 c7bc 2868 153e c3f9 d33d e0cd 7fbd
000001d0: c9a9 46be b57b 0e3e 0a50 f23d 8154 cc3d
000001e0: 0bcf 803e 7f3a 9a3d 11e2 21be f522 c9bc
000001f0: dac1 4a3d 916b 2d3e c792 da3c ab95 653a
00000200: d15b 943b d8a1 a3bc 60b3 7f3d 1eb6 f4bd
00000210: 0465 febd 6424 4dbd 6632 3ebe 41e7 9bbc
00000220: 2f47 12be 14d5 da3d c218 2ebe fe18 6f3e
00000230: 3ba3 0a37 d06f b8bd 211f 26bd 7a9f 2a3d
00000240: 04da cf3c fe42 76be 6311 803d 10d1 3b3e
00000250: dc6e f9bb dff2 773d 4c13 91be 4c3b 7fbe
00000260: 0bbb 993e 4086 b03e 93a8 683e a852 ba3d
00000270: 37b7 a53e 0c9c a23e 244c 093e c17f 34be
00000280: 4f74 bf3d 832f b43e bd86 843e 2941 46be
00000290: de19 98be 8085 503e 1bc0 993e f6b1 e1bd
000002a0: 0ae6 95be 1e61 37be 9626 343e 4fdb a13d
000002b0: 1d27 94be 9241 67be f381 34be 0959 5f3b
000002c0: d71c 553d 03df 073c fa39 d23d 360d 9cbd
000002d0: 1aec 61bc e4a8 67be f9c7 a3be 526b 5ebd
000002e0: f2f6 79be 077d d93d 06a1 72bd 4d93 37be
000002f0: d655 97bd d963 ff3d 85bd 193e 02a1 713e
00000300: 3225 533e 5f03 dd3d 20a8 a83d 372b 4bbe
00000310: 67d3 d33c d6cb 973d 63b9 d63d a042 11bb
00000320: 6230 103d 05a8 69be 1f02 7abe 1c06 a33e
00000330: 677e 1b3d 3f15 1a3d 35b3 93be 0a40 213e
00000340: 1c09 653e 3e45 dabd d42c 54be a0b7 0b3d
00000350: 57a2 4a3e b7b5 843e 8b99 a7be 7670 22be
00000360: 2489 9c3d b108 953e 8002 60be 69f3 e4be
00000370: 1e73 a2bc 79d9 4d3e cb60 d3bd ec92 0ebd
00000380: 6504 993d d81b 04bd 5cf8 3c3d c688 493e
00000390: 7fca a43e fd68 043e f193 093e 91fe 833c
000003a0: e340 9c3c 78a6 a0bd db8e a7bd 9d55 bfbd
000003b0: 4897 ffbe 60cf bebe 46a7 a0be f7ea e93c
000003c0: 17cd f93c 23b2 0bbd 9277 0f3d 2d0b cc3d
000003d0: d19d 2a3c 3e41 9b3e 2b05 633e 33ef 90bc
000003e0: c947 91bc eece 2dba 650f be3d cce3 6b3e
000003f0: 12be b93d 4a16 313d 0f33 bc3d 3bec 7a3e

conv1.0.bias f4 [32]
-0.018546736 -0.28216645 -0.009600972 -0.021523297 -0.1906126 -0.24646926 0.1035721 0.055984035
-0.47776812 -0.077494584 0.37951767 0.06664909 -0.004145683 -0.38415933 -0.18075272 -0.060037483
0.034323424 0.052404113 -0.081441976 -0.0042309705 -0.014320024 -0.15314284 -0.009925284 0.007584619
-0.004270648 0.06424098 0.124419466 0.009629739 -0.16993792 -0.046888955 -0.2788986 -0.37980813
00000000: 53ef 97bc 1f78 90be 654d 1dbc a051 b0bc
00000010: f32f 43be 7062 7cbe 9c1d d43d 844f 653d
00000020: 069e f4be 7bb5 9ebd 2450 c23e 517f 883d
00000030: 82d8 87bb 88b0 c4be 3e17 39be dde9 75bd
00000040: b896 0c3d b2a5 563d 0dcb a6bd f4a3 8abb
00000050: 899e 6abc 7ad1 1cbe a99d 22bc 6588 f83b
00000060: cbf0 8bbb c690 833d a2cf fe3d 0ec6 1d3c
00000070: 3504 2ebe a20e 40bd cccb 8ebe 3676 c2be

conv2.0.weight f4 [64, 32, 5, 5]
-0.25084198 0.2758981 -0.40632474 0.3722134 -0.36194858 0.019820716 -0.19475542 0.325402
0.34880415 0.062442116 -0.5045654 -0.1945418 0.14641964 0.22410214 0.017149486 0.13466613
0.19417161 -0.14644377 0.37882277 -0.26234207 -0.29929358 0.102658965 -0.0046177367 0.30855632
0.042046 0.24687709 -0.038873903 -0.14058311 -0.23719513 -0.42909342 0.27259508 0.11770227
-0.042741798 -0.2281952 -0.36981544 -0.04290519 0.0775401 0.013192933 -0.11785548 -0.31012428
0.30530527 0.14644289 0.14262149 0.22932193 0.09659021 -0.07698444 -0.060949855 -0.016117647
0.2975408 -0.17208643 0.02382442 0.059548248 -0.19375272 -0.06591827 0.12050569 -0.15125622
0.23715582 -0.092431135 0.21543032 0.06974842 -0.009218672 0.01353185 -0.12901121 0.09891551
-0.42711198 -0.017649319 0.17731866 0.024494251 0.63077825 -0.30665234 0.06245945 0.459722
0.09119667 0.09187772 -0.5100214 -0.059613675 -0.5087276 -0.115198046 -0.32024786 0.053582426
-0.016565535 0.26130968 0.21410638 0.06005312 0.50510037 -0.48094094 0.36824834 0.10056074
-0.06729231 0.4690097 0.054499816 -0.12661533 -0.09226398 -0.07935225 0.10028634 0.05071201
0.10918704 -0.099910185 0.41790518 0.26866707 -0.16214812 -0.21188799 -0.035962675 -0.20177257
0.26951033 -0.0058423723 -0.09788993 -0.25068706 -0.019927848 0.08055925 -0.06878449 0.15619071
-0.11808457 0.1869327 -0.23403747 0.12059162 0.42487407 -0.22403502 0.15546285 -0.27910507
0.45370397 -0.09489024 0.056870837 -0.43520606 -0.5010875 0.23415145 0.2027557 -0.29597586
0.15459141 -0.07610489 0.37717637 0.15030177 -0.10078839 0.07302173 0.22823387 0.13709584
0.28418294 -0.1609961 0.081690155 -0.15524864 0.30007285 -0.05105811 -0.22544111 0.26001212
-0.30179515 0.07671356 0.09254824 -0.12102609 0.41740063 -0.09389457 -0.22411284 -0.20356196
-0.15030083 0.2333648 0.08323086 0.2353733 -0.24323739 0.0016484429 0.0584971 0.12421324
-0.3124251 -0.04060658 0.16569357 0.18914439 0.08293541 -0.12423535 0.15862975 0.44378912
-0.3691897 0.11623518 -0.042033244 0.18493626 0.14901683 -0.1490553 0.15017045 -0.3847666
-0.09813215 -0.4875152 -0.19071814 -0.6108552 0.05040816 -0.30717656 -0.29244098 -0.19164713
-0.21691607 0.12555644 0.5621269 -0.37752706 -0.17811987 -0.4901978 0.069080904 -0.5748185
-0.3735368 -0.15545309 -0.5445406 0.110672 -0.3674171 -0.39321238 0.0886257 -0.19364789
-0.2583294 -0.18775941 -0.21737891 0.14473258 0.005521624 -0.11724954 -0.17433204 0.17232506
0.03944909 -0.07679954 -0.30877087 0.3778625 0.35017267 -0.48264232 0.20169778 -0.10867989
0.76312447 0.07520549 -0.45912877 -0.13584998 0.04161005 0.52561283 -0.29083407 0.2997724
0.13955721 0.15110105 0.010345949 -0.17092197 -0.19573389 -0.028132772 -0.8101286 -0.6667294
-0.66125274 -0.23399985 -0.0006148587 -0.16715376 -0.20755261 -0.31078622 -0.56236 0.07890928
0.14839539 0.13552053 -0.1494639 0.4079522 0.08775246 -0.17222711 0.05070497 -0.3136331
-0.07617713 -0.035784736 -0.29086694 -0.10282738 0.26277214 -0.03194755 -0.234015 -0.19904903
00000000: 5c6e 80be 8442 8d3e cc09 d0be c192 be3e
00000010: 5351 b9be 0e5f a23c f76d 47be 179b a63e
00000020: 7596 b23e 4ec3 7f3d 332b 01bf f735 47be
00000030: 08ef 153e 087b 653e 147d 8c3c ebe5 093e
00000040: ecd4 463e 5bf5 15be 0ff5 c13e b351 86be
00000050: 023d 99be dd3e d23d 6250 97bb 18fb 9d3e
00000060: 6d38 2c3d 59cd 7c3e 3e3a 1fbd 05f5 0fbe
00000070: 48e3 72be 22b2 dbbe 9591 8b3e e30d f13d
00000080: 0612 2fbd 01ac 69be 7358 bdbe 5abd 2fbd
00000090: 58cd 9e3d 2c27 583c 375e f1bd 9cc8 9ebe
000000a0: f950 9c3e 20f5 153e 5e0b 123e 5ed3 6a3e
000000b0: 17d1 c53d 05aa 9dbd 8ea6 79bd 2809 84bc
000000c0: 4557 983e 6d37 30be 6e2b c33c dde8 733d
000000d0: 1d67 46be 2800 87bd b0cb f63d e9e2 1abe
000000e0: fad8 723e 894c bdbd c499 5c3e 42d8 8e3d
000000f0: ea09 17bc b1b4 5d3c 841b 04be 3794 ca3d
00000100: 6cae dabe 4e95 90bc 0693 353e 2ba8 c83c
00000110: af7a 213f 8901 9dbe 7bd5 7f3d af60 eb3e
00000120: 52c5 ba3d 632a bc3d c390 02bf 782d 74bd
00000130: f93b 02bf f4ec ebbd 87f7 a3be 3f79 5b3d
00000140: 72b4 87bc 62ca 853e b43e 5b3e 43fa 753d
00000150: 424e 013f e43d f6be 0c8b bc3e caf2 cd3d
00000160: 8dd0 89bd 0a22 f03e 333b 5f3d 73a7 01be
00000170: e6f4 bcbd 6f83 a2bd ed62 cd3d 66b7 4f3d
00000180: 749d df3d b69d ccbd abf7 d53e bb8e 893e
00000190: 280a 26be 2af9 58be 994d 13bd 789d 4ebe
000001a0: 42fd 893e 5f71 bfbb 847a c8bd 0e5a 80be
000001b0: ba3f a3bc 40fc a43d e2de 8cbd 75f0 1f3e
000001c0: 53d6 f1bd 496b 3f3e 85a7 6fbe bdf8 f63d
000001d0: 1889 d93e 7069 65be a731 1f3e dce6 8ebe
000001e0: e34b e83e d055 c2bd 65f1 683d 54d3 debe
000001f0: 4547 00bf 66c5 6f3e 319f 4f3e 268a 97be
00000200: 364d 1e3e e1dc 9bbd 431d c13e b5e8 193e
00000210: 256a cebd 6b8c 953d 24b6 693e da62 0c3e
00000220: 6d80 913e 29dc 24be 2b4d a73d 80f9 1ebe
00000230: 26a3 993e 4f22 51bd 09da 66be 4f20 853e
00000240: e584 9abe 001c 9d3d ef89 bd3d 87dc f7bd
00000250: 89b5 d53e cc4b c0bd d67d 65be 8c72 50be
00000260: 76e8 19be 2ff7 6e3e f174 aa3d b305 713e
00000270: 3913 79be 9110 d83a a89a 6f3d 8363 fe3d
00000280: 2ff6 9fbe 1653 26bd 93ab 293e 11af 413e
00000290: 0ada a93d 1a6f febd d66f 223e 5438 e33e
000002a0: 6f06 bdbe b60c ee3d 0d2b 2cbd ee5f 3d3e
000002b0: de97 183e f4a1 18be 48c6 193e 2100 c5be
000002c0: 82f9 c8bd 989b f9be 9e4b 43be 0261 1cbf
000002d0: c978 4e3d 3f46 9dbe d3ba 95be 253f 44be
000002e0: 3f1f 5ebe de91 003e 8ce7 0f3f 3a4b c1be
000002f0: 0e65 36be 35fb fabe 4a7a 8d3d 4e27 13bf
00000300: 3740 bfbe 182f 1fbe 0367 0bbf 00a8 e23d
00000310: 181e bcbe 2253 c9be 6481 b53d a24b 46be
00000320: c043 84be 0144 40be 9498 5ebe c734 143e
00000330: bdee b43b 8720 f0bd 1984 32be fb75 303e
00000340: 5e95 213d 1449 9dbd 3717 9ebe 3277 c13e
00000350: d549 b33e e51c f7be dd89 4e3e 9093 debd
00000360: 205c 433f 5605 9a3d ed12 ebbe 421c 0bbe
00000370: 4d6f 2a3d 908e 063f 34e8 94be c57b 993e
00000380: 16e8 0e3e 3cba 1a3e 0e82 293c 2b06 2fbe
00000390: 776e 48be b376 e6bc 9764 4fbf c7ae 2abf
000003a0: dc47 29bf a89d 6fbe 782e 21ba 5b2a 2bbe
000003b0: ac88 54be 5f1f 9fbe d3f6 0fbf 309b a13d
000003c0: f6f4 173e e5c5 0a3e 110d 19be 1cdf d03e
000003d0: 90b7 b33d 4e5c 30be 04b0 4f3d 8594 a0be
000003e0: c102 9cbd 0493 12bd 83ec 94be 2997 d2bd
000003f0: 128a 863e 6fdb 02bd a1a1 6fbe 82d3 4bbe

conv2.0.bias f4 [64]
-0.35406917 0.064719886 -0.2189524 -0.5123825 -0.47175232 -0.31068254 -0.0064952383 -0.12864661
-0.2688145 -0.18407777 0.1655713 -0.08400322 -0.18184687 -0.03011557 -0.03469854 -0.04390518
-0.06700677 -0.03490177 0.011746386 -0.6499132 -0.41966078 -0.029707966 -0.22821474 -0.14315343
-0.24905014 -0.658137 -0.070332594 -0.4137771 0.09029213 0.16995625 0.095813766 -0.09183675
-0.6074258 0.13305804 -0.34201896 -0.43220475 -0.2882384 -0.62248206 -0.37518638 -0.313962
0.229569 -0.34659928 0.023426948 -0.17529786 -0.24961394 -0.80734086 -0.23589806 -0.12488177
0.06805011 -0.5849357 -0.17048337 -0.1323196 -0.34606197 -0.33622622 -0.4401369 -0.30448684
-0.091515765 0.0053431215 -0.07923334 0.067423284 -0.55902594 -0.5187873 -0.07107138 -0.34895417
00000000: 8e48 b5be dc8b 843d 0f35 60be 802b 03bf
00000010: 8589 f1be c811 9fbe 02d6 d4bb f0bb 03be
00000020: 0ea2 89be e27e 3cbe 868b 293e e109 acbd
00000030: 1136 3abe eeb4 f6bc 0e20 0ebd ebd5 33bd
00000040: d83a 89bd 29f5 0ebd ea73 403c b660 26bf
00000050: c7dd d6be 1f5e f3bc 20b1 69be d096 12be
00000060: 0007 7fbe ab7b 28bf 890a 90bd 98da d3be
00000070: 15eb b83d 0309 2e3e 023a c43d e814 bcbd
00000080: 4280 1bbf 5e40 083e 1c1d afbe f149 ddbe
00000090: fc93 93be fc5a 1fbf 6e18 c0be a1bf a0be
000000a0: 2314 6b3e 7675 b1be dfe9 bf3c 4881 33be
000000b0: cc9a 7fbe e4ad 4ebf 438f 71be 03c2 ffbd
000000c0: db5d 8b3d 59be 15bf 3193 2ebe ca7e 07be
000000d0: 092f b1be d825 acbe a059 e1be b3e5 9bbe
000000e0: 9e6c bbbd 5a15 af3b 1745 a2bd 3815 8a3d
000000f0: 531c 0fbf 3fcf 04bf df8d 91bd 1faa b2be

conv3.0.weight f4 [64, 64, 5, 5]
-0.11629653 0.1405392 0.11727555 0.5623349 0.40710396 0.0034346052 -0.25954378 -0.07981654
0.48620847 0.13066137 0.20311344 -0.31658813 0.18241906 0.34311274 0.6673129 0.07327881
0.092417434 -0.5540881 -0.043756362 0.06383923 -0.004511456 0.13253148 0.24080347 -0.12162337
-0.25655967 0.042701747 0.024030019 0.14408952 0.08895625 0.3522644 -0.19897056 0.09732299
0.014780725 -0.0843205 0.26881716 -0.1449131 0.11786537 0.13963933 -0.30737615 0.19996047
-0.20442994 0.169317 0.027822778 -0.20494245 -0.10807963 -0.45811918 -0.02224571 -0.090135194
0.026237404 0.41136795 0.35259044 -0.18732221 0.036755573 0.27524745 0.018118724 0.08408667
-0.046993546 0.57749397 0.33385766 0.29120135 0.12009388 0.091287054 0.3111771 0.23014836
0.30656752 -0.11892438 -0.053658675 -0.03514257 0.64452076 -0.029480841 -0.180699 -0.20795073
-0.020923775 0.39974245 -0.068732515 0.6269469 0.14051414 -0.58114845 -0.25385705 -0.4488679
-0.08628963 -0.25246477 0.12405082 0.12509373 0.28942117 0.020866668 0.2346435 0.20505704
0.4439865 0.11939886 -0.12773432 0.048582185 0.21310198 -0.0036795065 -0.18612213 -0.32735658
0.008148377 0.2113961 0.061277226 -0.046836156 -0.020062985 -0.20576741 0.53464353 0.10365816
-0.011225569 -0.455064 0.25519836 0.07024846 0.4672099 0.3605491 -0.34551075 0.40464756
-0.045935083 -0.305274 -0.12986821 0.05658655 0.07605211 0.20833272 0.06933489 0.22927342
0.0686298 0.21037364 0.28350255 0.11529113 -0.25423226 0.18307588 0.53006893 -0.22641404
0.09385691 -0.21417983 -0.18313652 0.18807483 -0.487122 0.24185589 -0.37386295 -0.044083487
-0.025384782 0.0885725 0.45536292 0.023339836 0.008356322 0.095011435 -0.33175802 0.38475522
0.35708353 -0.02823506 0.073643945 -0.051082056 -0.16640006 -0.019957451 -0.64725226 0.5440227
0.026281178 -0.022981131 -0.5034453 -0.046048645 -0.18741779 0.0016450629 -0.4505841 -0.124736845
0.56514317 0.31867862 0.043346003 0.13224155 0.09938293 -0.06483356 -0.49765792 -0.049473364
0.27480996 0.268744 -0.01426624 -0.22476439 0.08555628 0.4861494 0.21763214 -0.06601561
0.00090915035 0.19550355 0.23399997 0.026901685 0.16556844 -0.5322361 -0.15974817 0.3168947
0.29147312 -0.70066893 0.01598335 -0.34179464 -0.22621784 -0.3740703 -0.1076026 0.23145075
0.21582334 -0.539749 0.34951624 0.314836 0.12130515 -0.28205383 0.18506323 -0.19859698
-0.099092625 -0.017626202 -0.14663106 0.05494069 -0.28825894 -0.15711258 -0.33008522 -0.4531096
-0.33458927 -0.36570418 0.04729891 0.116100855 -0.06351836 0.30877423 0.22089337 0.33212736
0.15298963 -0.4175553 0.38425183 0.6537108 -0.27118176 -0.080557704 0.050717633 0.008492481
0.6170453 -0.39303443 -0.45690674 0.039914574 0.25576562 -0.03012385 -0.45612562 0.092628404
-0.01813475 0.13685726 0.34472013 -0.04597285 -0.27416283 0.2017368 -0.00274159 -0.083588295
-0.014239687 0.14845946 0.2002789 0.2929996 0.37460005 -0.12650275 -0.013232147 -0.27320948
-0.036138296 0.1752834 0.28422415 0.28432062 0.110626414 0.43412063 0.16127716 0.2247353
00000000: e02c eebd 82e9 0f3e 2a2e f03d 2ef5 0f3f
00000010: ee6f d03e 1d17 613b ece2 84be db76 a3bd
00000020: 51f0 f83e 18cc 053e f8fc 4f3e d717 a2be
00000030: 10cc 3a3e 79ac af3e 05d5 2a3f 3313 963d
00000040: 5a45 bd3d b8d8 0dbf df39 33bd 24be 823d
00000050: d6d4 93bb 55b6 073e 2f95 763e ac15 f9bd
00000060: ca5b 83be 07e8 2e3d 9ada c43c 348c 133e
00000070: b22e b63d 005c b43e f0be 4bbe 4751 c73d
00000080: db2a 723c 3ab0 acbd 67a2 893e 1a64 14be
00000090: 6663 f13d 9dfd 0e3e 6860 9dbe 70c2 4c3e
000000a0: 1556 51be 7061 2d3e 98ec e33c 6fdc 51be
000000b0: da58 ddbd 998e eabe a33c b6bc cd98 b8bd
000000c0: d3ef d63c d29e d23e bc86 b43e 65d1 3fbe
000000d0: 038d 163d 3ced 8c3e b86d 943c a235 ac3d
000000e0: 4e7c 40bd a5d6 133f 64ef aa3e 5818 953e
000000f0: c8f3 f53d b5f4 ba3d 9b52 9f3e 03ac 6b3e
00000100: 6bf6 9c3e a08e f3bd 33c9 5bbd a8f1 0fbd
00000110: 50ff 243f ce81 f1bc 2909 39be 09f1 54be
00000120: 5668 abbc 0bab cc3e a2c3 8cbd 987f 203f
00000130: f0e2 0f3e 25c6 14bf 8df9 81be 03d2 e5be
00000140: 9eb8 b0bd 1043 81be 5b0e fe3d 9218 003e
00000150: 032f 943e 93f0 aa3c 6346 703e 79fa 513e
00000160: 3352 e33e 6487 f43d c9cc 02be 1dfe 463d
00000170: 6837 5a3e e023 71bb cd96 3ebe 489b a7be
00000180: c580 053c 3878 583e d4fd 7a3d 45d7 3fbd
00000190: 215b a4bc b1b4 52be 66de 083f bb4a d43d
000001a0: 73eb 37bc 26fe e8be 5ca9 823e 6dde 8f3d
000001b0: 2336 ef3e e499 b83e c9e6 b0be f72d cf3e
000001c0: 6d26 3cbd e04c 9cbe 2cfc 04be 4cc7 673d
000001d0: 35c1 9b3d 2c55 553e 73ff 8d3d a7c6 6a3e
000001e0: c88d 8c3d 306c 573e 3f27 913e c21d ec3d
000001f0: bb2a 82be 3e78 3b3e 99b2 073f 15d9 67be
00000200: 0d38 c03d f551 5bbe 2488 3bbe b096 403e
00000210: 0e68 f9be 12a9 773e f76a bfbe e390 34bd
00000220: bff3 cfbc 8065 b53d 5425 e93e 2f33 bf3c
00000230: f4e8 083c 5b95 c23d 30dc a9be a3fe c43e
00000240: a7d3 b63e 364d e7bc a3d2 963d 6b3b 51bd
00000250: c764 2abe cf7d a3bc 53b2 25bf 1245 0b3f
00000260: a04b d73c ed42 bcbc cbe1 00bf 819d 3cbd
00000270: 73ea 3fbe 279f d73a f6b2 e6be 0876 ffbd
00000280: 39ad 103f d829 a33e 948b 313d 546a 073e
00000290: 4789 cb3d 75c7 84bd 05cd febe 95a4 4abd
000002a0: e4b3 8c3e d098 893e f3bc 69bc a328 66be
000002b0: 2238 af3d 93e8 f83e f6da 5e3e 3133 87bd
000002c0: 0c54 6e3a 1532 483e b09d 6f3e ec60 dc3c
000002d0: c68a 293e a040 08bf 0695 23be 0640 a23e
000002e0: f73b 953e 0a5f 33bf 84ef 823c b5ff aebe
000002f0: a6a5 67be 2486 bfbe c05e dcbd 6d01 6d3e
00000300: cb00 5d3e fe2c 0abf cbf3 b23e 2f32 a13e
00000310: d66e f83d 5c69 90be 3781 3d3e 025d 4bbe
00000320: 13f1 cabd d364 90bc 7426 16be 7d09 613d
00000330: ad96 93be 1fe2 20be ee00 a9be fbfd e7be
00000340: 494f abbe 943d bbbe 80bc 413d 49c6 ed3d
00000350: ea15 82bd a817 9e3e df31 623e 990c aa3e
00000360: 50a9 1c3e cfc9 d5be a8bc c43e 9759 273f
00000370: 56d8 8abe 70fb a4bd 4bbd 4f3d 0c24 0b3c
00000380: aef6 1d3f cf3b c9be aeef e9be 777d 233d
00000390: b6f3 823e 4bc6 f6bc 4c89 e9be f6b3 bd3d
000003a0: 548f 94bc 4f24 0c3e 287f b03e 074e 3cbd
000003b0: 125f 8cbe 1794 4e3e 3fac 33bb 5730 abbd
000003c0: 934d 69bc c205 183e e915 4d3e 0b04 963e
000003d0: 94cb bf3e f089 01be a6cb 58bc 1de2 8bbe
000003e0: c005 14bd 7e7d 333e d485 913e 7992 913e
000003f0: 1a90 e23d 0f45 de3e d725 253e 0321 663e

conv3.0.bias f4 [64]
-0.34644827 0.008109509 -0.019940397 -0.47204953 -0.31276807 -0.49276623 -0.13947602 -0.43829426
-0.345605 -0.6139744 -0.1428959 -0.5636121 0.041268744 -0.42155555 -0.3666396 -0.04913262
-0.23838289 -0.22668742 -0.12524305 0.09467662 -0.07212511 -0.044060882 -0.50018305 -0.21119368
-0.262634 -0.102100156 -0.2848452 -0.119051166 -0.45575398 -0.33413655 -0.42606702 -0.09413437
-0.45939094 -0.21278706 -0.76743937 0.08670741 -0.15543152 -0.4242628 -0.33283734 -0.08707745
-0.0748232 -0.41651222 -0.4098291 -0.75720286 0.038736388 -0.68686765 -0.19379374 -0.28008336
-0.45734376 -0.19510104 -0.29450616 -0.57430416 -0.15251613 -0.26558974 -0.050766587 0.090327114
-0.28679004 -0.14963253 0.09633601 -0.15049303 0.048535798 -0.23083587 -0.08490094 0.22267981
00000000: ab61 b1be bfdd 043c 0b5a a3bc 7ab0 f1be
00000010: 2323 a0be db4b fcbe cdd2 0ebe 1b68 e0be
00000020: 23f3 b0be 6d2d 1dbf 4e53 12be e248 10bf
00000030: 6a09 293d 21d6 d7be 30b8 bbbe 493f 49bd
00000040: a51a 74be bf20 68be b73f 00be d1e5 c13d
00000050: 54b6 93bd 2f79 34bd ff0b 00bf 2843 58be
00000060: f777 86be e319 d1bd 3bd7 91be 19d1 f3bd
00000070: 9658 e9be f213 abbe 7525 dabe 85c9 c0bd
00000080: 4a35 ebbe dae4 59be e876 44bf a893 b13d
00000090: 7129 1fbe f938 d9be a869 aabe a955 b2bd
000000a0: e83c 99bd 1741 d5be 1fd5 d1be 0cd8 41bf
000000b0: 0caa 1e3d 8fd6 2fbf de71 46be 1667 8fbe
000000c0: f628 eabe 91c8 47be 83c9 96be 9905 13bf
000000d0: 302d 1cbe 61fb 87be a0f0 4fbd 6cfd b83d
000000e0: 25d6 92be 4539 19be d04b c53d d81a 1abe
000000f0: 79cd 463d 3d60 6cbe 8be0 adbd 2d06 643e

conv4.0.weight f4 [64, 64, 3, 3]
-0.04469944 0.15357997 -0.48762462 -0.04967738 -0.008488685 0.042771503 0.079951026 -0.2556396
0.49937224 0.26064968 -0.1557423 0.29948214 -0.29048523 0.17865296 -0.28548273 0.14690097
0.13281886 -0.12552594 0.111773476 -0.13626206 -0.09522785 -0.10968081 -0.17655516 0.15573461
-0.07963691 0.008078218 -0.038155805 0.04198013 -0.014808785 0.040591914 -0.17884725 -0.07358815
-0.34238234 0.017441968 0.022258254 -0.078373246 -0.23481874 0.06782836 0.7270188 -0.124653764
-0.28048128 0.035247058 0.27829272 -0.23462065 -0.23475158 -0.10822607 -0.12631308 0.044189446
-0.24242188 -0.2739164 0.029290387 0.043093465 0.18460694 -0.188549 0.5608322 -0.04019235
0.39066777 -0.10932102 -0.32738262 -0.015638532 0.2463381 -0.11714513 0.023120755 0.17569095
-0.006916837 -0.065024845 -0.058281656 0.24269898 -0.3261144 -0.3676864 0.2915813 0.19266804
-0.03675574 0.06590598 0.2303848 -0.27800545 -0.15366384 -0.09524962 0.039062593 0.0026260267
0.38572916 -0.100182004 0.06806552 -0.087529995 0.08736595 -0.1484695 -0.017787272 0.003589776
-0.067426085 0.22904298 -0.025874054 0.10413496 -0.31152666 0.19615127 0.38455707 -0.12269845
-0.03465586 0.062325288 -0.10259063 0.3823684 -0.24489343 -0.26253673 -0.044203557 0.04357455
-0.01663659 -0.38197514 -0.06468667 -0.09531236 0.011494329 -0.20287816 0.31019506 0.32567996
-0.18272625 -0.3172177 -0.0711732 -0.153324 0.19808516 -0.3593649 -0.07969278 0.19031784
0.34333956 -0.06317456 -0.22758715 -0.17550334 0.20900744 0.18584184 0.35620525 -0.01829553
-0.072646365 -0.27219716 0.20001313 0.31269482 0.41473413 -0.19139247 0.081227824 0.10141196
0.32798052 0.30156747 -0.010700909 -0.33026624 -0.15514383 -0.14777888 -0.04206879 0.12758584
0.23643003 0.15072517 -0.21290891 -0.05367833 0.06426191 0.21093269 -0.28848594 -0.032703556
0.1778183 0.037214287 0.1949702 0.2303995 0.03940676 0.015380513 -0.4683016 -0.014034724
0.13446777 0.002719971 0.25226754 -0.05789429 0.3403369 -0.16103415 0.31154865 -0.07345088
0.13152108 -0.5589913 0.2574835 -0.41479397 0.2517787 0.19246843 -0.25962344 -0.25806957
0.32577792 0.024671685 -0.25236824 -0.25368002 0.37284097 0.25585565 -0.025081616 -0.123588555
-0.26948225 0.052184813 0.036062345 0.010843953 -0.009328794 0.30063915 -0.11614256 -0.22940858
0.06398288 -0.16334878 -0.05514434 0.17348523 0.026329122 -0.52019775 0.3355646 -0.112110294
0.14601363 -0.05120293 0.27946123 -0.0014769542 -0.013932989 0.044255584 -0.006080936 0.08146317
-0.007832524 -0.24882397 0.36661282 0.13906607 -0.08588192 -0.07237367 0.3113645 -0.16431251
0.110019535 -0.005696376 0.013461849 0.37498698 -0.15529308 0.28403243 -0.10258677 -0.0038116418
0.022710985 -0.35285655 -0.5518278 0.10190959 -0.09146337 -0.07890064 -0.24116763 -0.05846862
-0.558832 -0.16524433 -0.2931941 -0.066895545 -0.13725486 0.019188616 -0.33613783 0.33976355
0.124611765 -0.064988256 -0.25519502 -0.28497317 -0.28690088 -0.46089202 -0.031959627 -0.31557545
0.42762476 -0.12439772 0.007644907 -0.117212385 0.0016923664 0.30459115 -0.02802979 -0.002177921
00000000: c316 37bd 1144 1d3e efa9 f9be 827a 4bbd
00000010: 2014 0bbc 2c31 2f3d 5dbd a33d 32e3 82be
00000020: b8ad ff3e e073 853e e97a 1fbe b955 993e
00000030: 7bba 94be cdf0 363e cb2a 92be 356d 163e
00000040: ab01 083e df89 00be 7ee9 e43d 4888 0bbe
00000050: d206 c3bd 55a0 e0bd e0ca 34be e578 1f3e
00000060: ad18 a3bd 815a 043c 4349 1cbd 5bf3 2b3d
00000070: 8ca0 72bc b543 263d bc23 37be 62b5 96bd
00000080: bd4c afbe 75e2 8e3c f156 b63c 2782 a0bd
00000090: 5374 70be 98e9 8a3d e71d 3a3f 794a ffbd
000000a0: 3e9b 8fbe 385f 103d 627c 8e3e 6540 70be
000000b0: b862 70be a1a5 ddbd 3758 01be feff 343d
000000c0: 713d 78be c53e 8cbe 65f2 ef3c c682 303d
000000d0: 9a09 3d3e fd12 41be b392 0f3f bca0 24bd
000000e0: 9b05 c83e b3e3 dfbd b29e a7be 611c 80bc
000000f0: 0e40 7c3e c9e9 efbd bd67 bd3c 54e8 333e
00000100: a2a6 e2bb bf2b 85bd bfb8 6ebd 1586 783e
00000110: 77f8 a6be 6441 bcbe 254a 953e c54a 453e
00000120: 308d 16bd b7f9 863d fee9 6b3e bb56 8ebe
00000130: 0e5a 1dbe 3c12 c3bd 1900 203d 6b19 2c3b
00000140: 4b7e c53e 392c cdbd ef65 8b3d ed42 b3bd
00000150: ebec b23d 6308 18be 9db6 91bc 7342 6b3b
00000160: b016 8abd 3e8a 6a3e d3f5 d3bc b644 d53d
00000170: 6c80 9fbe e1db 483e aae4 c43e 5349 fbbd
00000180: 4ef3 0dbd cd48 7f3d 091b d2bd cac5 c33e
00000190: 58c5 7abe 376b 86be ca0e 35bd 3a7b 323d
000001a0: 7549 88bc 3f92 c3be 727a 84bd 2033 c3bd
000001b0: b652 3c3c 4bbf 4fbe e3d1 9e3e 86bf a63e
000001c0: 971c 3bbe 5c6a a2be 41c3 91bd f700 1dbe
000001d0: d6d6 4a3e adfe b7be f835 a3bd aee2 423e
000001e0: 34ca af3e aa61 81bd 9b0c 69be 26b7 33be
000001f0: 0c06 563e 534d 3e3e 8960 b63e 82e0 95bc
00000200: 9ec7 94bd 6d5d 8bbe 3ed0 4c3e 8919 a03e
00000210: 0858 d43e 63fc 43be c65a a63d 13b1 cf3d
00000220: 10ed a73e 0d67 9a3e de52 2fbc a818 a9be
00000230: 06de 1ebe 5953 17be 5350 2cbd dda5 023e
00000240: b71a 723e b357 1a3e cb04 5abe cfdd 5bbd
00000250: c09b 833d bdfe 573e 6eb4 93be 2af4 05bd
00000260: 0016 363e 026e 183d 45a6 473e d9ed 6b3e
00000270: fc68 213d 8cfe 7b3c 3ac5 efbe e6f1 65bc
00000280: ebb1 093e 8a41 323b 3629 813e 9022 6dbd
00000290: a340 ae3e 23e6 24be 4e83 9f3e 6a6d 96bd
000002a0: 76ad 063e 0e1a 0fbf e1d4 833e e05f d4be
000002b0: 23e9 803e 7216 453e 5ded 84be b221 84be
000002c0: 5dcc a63e 461c ca3c 6936 81be 59e2 81be
000002d0: 03e5 be3e 83ff 823e f677 cdbc ff1b fdbd
000002e0: 94f9 89be bebf 553d 1cb6 133d d6aa 313c
000002f0: ccd7 18bc 60ed 993e 27dc edbd 15ea 6abe
00000300: 7509 833d e744 27be 08df 61bd 1da6 313e
00000310: 2cb0 d73c ae2b 05bf 20cf ab3e 159a e5bd
00000320: 9984 153e 2aba 51bd 8b15 8f3e 5c96 c1ba
00000330: 3147 64bc 5845 353d 9742 c7bb 2ad6 a63d
00000340: fd53 00bc b6cb 7ebe adb4 bb3e 5667 0e3e
00000350: dce2 afbd a638 94bd 2b6b 9f3e 8a41 28be
00000360: ec51 e13d aaa8 babb 168f 5c3c 4bfe bf3e
00000370: 2605 1fbe b36c 913e 0319 d2bd bdcc 79bb
00000380: 630c ba3c 9da9 b4be 9644 0dbf fab5 d03d
00000390: 2651 bbbd a996 a1bd a6f4 76be cb7c 6fbd
000003a0: 9d0f 0fbf cf35 29be 891d 96be 8800 89bd
000003b0: 8a8c 0cbe 7231 9d3c 421a acbe 7df5 ad3e
000003c0: 7434 ff3d 9018 85bd eca8 82be 01e8 91be
000003d0: ace4 92be 0afa ebbe 19e8 02bd 1b93 a1be
000003e0: a2f1 da3e 3bc4 febd 2182 fa3b 0c0d f0bd
000003f0: 65d2 dd3a 5ff3 9b3e bb9e e5bc 73bb 0ebb

conv4.0.bias f4 [64]
0.0036460056 0.0060712583 0.008086375 0.0067334063 -0.0030243313 0.00144026 0.002899399 -0.0049013314
0.0022950938 -0.0024250753 -0.00087395206 0.00533727 0.007759235 -0.0023855756 -0.0017083045 -4.7823305e-05
0.007673642 0.0004051566 -0.0016879021 0.0041218423 0.007749534 0.0053300667 0.0044339835 0.004061422
0.0012829165 0.0096590305 -0.0031570243 -0.004316557 -0.004827526 0.0049152845 0.0036334305 0.003225417
-0.0028086747 -0.00087809225 0.0049370034 0.00095372373 -0.0019816365 0.0064875847 -0.0035101925 0.0037609425
0.010117633 0.006570852 0.005076018 0.0037204896 0.0031145883 0.0035695801 0.001649447 -0.0032618744
0.0020961678 0.010666954 0.00012110434 0.003686113 0.0010085079 0.004599999 -0.0034339244 0.0053667086
0.0035728756 0.010319686 0.002564708 -0.0016976628 0.004544832 0.012669839 0.002303628 0.0053447844
00000000: d3f1 6e3b 68f1 c63b b77c 043c e8a3 dc3b
00000010: dc33 46bb 1bc7 bc3a d803 3e3b 599b a0bb
00000020: 4969 163b 03ee 1ebb ee19 65ba 44e4 ae3b
00000030: 2e41 fe3b 5157 1cbb 30e9 dfba e295 48b8
00000040: 2d73 fb3b 336b d439 993c ddba 8510 873b
00000050: ceef fd3b d7a7 ae3b f34a 913b ad15 853b
00000060: 8927 a83a e940 1e3c 14e6 4ebb e871 8dbb
00000070: 3930 9ebb 6510 a13b d91e 6e3b 8561 533b
00000080: be11 38bb c62f 66ba 96c6 a13b 5103 7a3a
00000090: 58de 01bb ce95 d43b 420b 66bb 257a 763b
000000a0: 6ec4 253c 4d50 d73b ba54 a63b 75d3 733b
000000b0: 1f1e 4c3b 9eef 693b 4232 d83a 2cc5 55bb
000000c0: dc5f 093b 73c4 2e3c 66f9 fd38 b792 713b
000000d0: e92f 843a 97bb 963b b10b 61bb 37db af3b
000000e0: e826 6a3b e613 293c a914 283b 1c84 deba
000000f0: d0ec 943b 2895 4f3c 77f8 163b 4d23 af3b

conv4.1.weight f4 [64]
0.99202317 1.1665728 1.0052619 1.4536711 0.70381117 1.0899329 1.1128191 0.933089
1.408149 0.94645447 1.504872 0.92812186 1.0498087 0.9037721 1.3777993 1.1503649
0.92359674 1.05908 0.48644626 0.7425799 1.0208739 1.7151041 1.2476637 1.2268721
1.044733 0.9027645 0.9517991 1.1483374 0.77091074 1.3851458 0.60962075 0.8053736
0.82037956 1.0411696 1.2926173 0.8754577 0.9074366 1.2851765 0.77123934 1.0756516
0.9387562 0.9760877 0.7041943 0.9169051 1.232143 0.8967441 1.0633421 0.91492325
0.9066697 0.95550793 0.89098066 1.3050144 0.93967617 0.69136286 0.91840804 1.3847018
1.0326247 0.8943033 1.1097482 0.85855997 1.2000915 1.1376127 1.1955061 1.1759233
00000000: 3bf5 7d3f 4252 953f 6cac 803f e511 ba3f
00000010: f82c 343f ec82 8b3f db70 8e3f ecde 6e3f
00000020: 3a3e b43f d74a 723f a59f c03f 6599 6d3f
00000030: 2260 863f 9c5d 673f ba5b b03f 283f 933f
00000040: d670 6c3f ef8f 873f 7c0f f93e b719 3e3f
00000050: ffab 823f 8888 db3f 72b3 9f3f 250a 9d3f
00000060: d0b9 853f 931b 673f 1ba9 733f b8fc 923f
00000070: 685a 453f 754c b13f 1b10 1c3f f72c 4e3f
00000080: 6504 523f 0c45 853f 7c74 a53f ff1d 603f
00000090: c44d 683f aa80 a43f f16f 453f f4ae 893f
000000a0: 5452 703f e2e0 793f 1446 343f 4bba 6a3f
000000b0: ddb6 9d3f 0591 653f 981b 883f 6938 6a3f
000000c0: 811b 683f 2b9c 743f 4f17 643f b60a a73f
000000d0: 9e8e 703f 28fd 303f ca1c 6b3f e93d b13f
000000e0: 0c2d 843f 10f1 643f 3b0c 8e3f 96ca 5b3f
000000f0: 999c 993f 4b9d 913f 5806 993f a884 963f

conv4.1.bias f4 [64]
-0.58162826 -0.55269575 -0.3621112 -0.50336784 -0.07418341 -0.5692943 -0.46402875 -0.5114532
-0.19544338 -0.3322613 0.026875647 -0.38953337 -0.4951293 -0.269416 -0.23633838 -0.18266118
-0.687533 -0.1893311 -0.18483302 -0.3784862 -0.6599652 -0.070763364 -0.16482155 -0.3392605
-0.23977503 -0.3057796 -0.33448687 -0.2357883 -0.25696725 -0.18278973 -0.18891855 -0.39447066
-0.4183209 -0.30609283 -0.2909691 -0.35110283 -0.29880783 -0.5819855 -0.23064503 -0.5298362
-0.13803247 -0.44560823 -0.124562934 -0.5032063 -0.27776876 -0.3334457 -0.51994413 -0.5216142
-0.53349584 -0.4182874 -0.31699184 -0.23798765 -0.3453783 -0.38506764 -0.80123574 -0.42396292
-0.27563497 -0.61119705 -0.44823015 -0.34023693 -0.31060693 -0.3931142 -0.3522313 -0.3385378
00000000: 97e5 14bf 787d 0dbf a466 b9be b7dc 00bf
00000010: 79ed 97bd 45bd 11bf 2d95 edbe 99ee 02bf
00000020: 4f22 48be 271e aabe 512a dc3c eb70 c7be
00000030: 9681 fdbe e5f0 89be b002 72be 880b 3bbe
00000040: 2a02 30bf 03e0 41be de44 3dbe f1c8 c1be
00000050: 7bf3 28bf 62ec 90bd fbc6 28be 8db3 adbe
00000060: 9687 75be 258f 9cbe dd41 abbe 7d72 71be
00000070: 3691 83be 3b2d 3bbe dd73 41be 0ff8 c9be
00000080: 282e d6be 33b8 9cbe e7f9 94be c0c3 b3be
00000090: 57fd 98be 00fd 14bf 362e 6cbe 58a3 07bf
000000a0: 6258 0dbe c326 e4be da1a ffbd 21d2 00bf
000000b0: b537 8ebe 65b9 aabe 0f1b 05bf 8288 05bf
000000c0: 2f93 08bf c429 d6be c14c a2be 09b3 73be
000000d0: 6dd5 b0be 9627 c5be c91d 4dbf ab11 d9be
000000e0: 0720 8dbe 6977 1cbf 6c7e e5be 8933 aebe
000000f0: df07 9fbe 4446 c9be a957 b4be d454 adbe

conv4.1.running_mean f4 [64]
-47.922646 -41.11556 14.430299 39.386257 46.94697 -14.688379 -3.897256 -29.73866
40.26167 -2.4356737 95.246315 -0.18384032 -16.465376 -8.166584 30.771763 38.140625
-76.91153 42.646435 33.886196 -19.844807 -51.441605 75.71988 34.600353 -3.5704932
13.370853 4.4183536 12.633249 21.886652 -26.22383 55.14329 16.621859 27.417103
-28.764366 3.5694447 52.185165 -12.919586 27.306566 -18.27624 1.7738669 -9.938267
44.43261 15.722682 59.332577 -39.216667 72.48162 -9.563142 -30.037657 -8.241911
-25.850248 4.7478075 29.787148 50.820896 29.598438 -47.016277 -92.51105 -7.7278357
38.99406 -83.57756 1.0847266 19.89151 43.833183 15.50855 -4.0431547 8.869858
00000000: cab0 3fc2 5576 24c2 81e2 6641 878b 1d42
00000010: b3c9 3b42 9a03 6bc1 a46c 79c0 c7e8 edc1
00000020: f30b 2142 14e2 1bc0 1d7e be42 a340 3cbe
00000030: 17b9 83c1 54aa 02c1 922c f641 0090 1842
00000040: b4d2 99c2 f395 2a42 778b 0742 2ac2 9ec1
00000050: 34c4 4dc2 9470 9742 c366 0a42 f682 64c0
00000060: 04ef 5541 2763 8d40 ca21 4a41 dd17 af41
00000070: 67ca d1c1 bb92 5c42 91f9 8441 3a56 db41
00000080: 6c1d e6c1 c871 6440 9cbd 5042 a0b6 4ec1
00000090: d973 da41 bd35 92c1 120e e33f 2403 1fc1
000000a0: feba 3142 1b90 7b41 8f54 6d42 dedd 1cc2
000000b0: 97f6 9042 a102 19c1 1f4d f0c1 dede 03c1
000000c0: 4fcd cec1 0aee 9740 144c ee41 9948 4b42
000000d0: 9ac9 ec41 ab10 3cc2 a805 b9c2 6e4a f7c0
000000e0: ebf9 1b42 b627 a7c2 52d8 8a3f d021 9f41
000000f0: 2e55 2f42 0523 7841 8661 81c0 f0ea 0d41

conv4.1.running_var f4 [64]
10401.947 11557.247 11284.545 18579.713 13180.416 10915.095 17391.535 13322.614
12145.954 11609.383 15495.004 11434.516 10892.432 10744.338 10629.342 11560.519
13531.315 16063.539 23874.133 16326.222 9122.096 14833.597 12244.636 12684.247
9177.3 11720.984 10319.22 10568.006 17517.922 11179.124 10021.667 29264.559
16520.291 12899.692 12962.9 13752.885 13285.381 8180.65 15469.153 11728.562
15200.549 16580.783 15374.118 11660.334 12429.48 11153.291 13095.453 10448.411
11475.657 13647.321 11460.895 11025.803 13431.372 13273.686 10543.15 9106.566
13880.197 14175.014 12220.863 14260.811 11176.002 12245.385 10395.998 13520.166
00000000: ca87 2246 fd94 3446 2e52 3046 6d27 9146
00000010: aaf1 4d46 618c 2a46 12df 8746 752a 5046
00000020: d1c7 3d46 8865 3546 041c 7246 10aa 3246
00000030: ba31 2a46 5ae1 2746 5e15 2646 13a2 3446
00000040: 436d 5346 28fe 7a46 4484 ba46 e318 7f46
00000050: 6288 0e46 63c6 6746 8b52 3f46 fd30 4646
00000060: 3365 0f46 f023 3746 e13c 2146 0620 2546
00000070: d8db 8846 7fac 2e46 ab96 1c46 1ea1 e446
00000080: 9510 8146 c58e 4946 9a8b 4a46 8ae3 5646
00000090: 8695 4f46 33a5 ff45 9db4 7146 3f42 3746
000000a0: 3282 6d46 9189 8146 7938 7046 5631 3646
000000b0: ec35 4246 2a45 2e46 d09d 4c46 a541 2346
000000c0: a14e 3346 493d 5546 9413 3346 3647 2c46
000000d0: 7ddd 5146 be66 4f46 9abc 2446 444a 0e46
000000e0: cae0 5846 0e7c 5d46 74f3 3e46 3ed3 5e46
000000f0: 02a0 2e46 8a55 3f46 fe6f 2246 aa40 5346

fc1.weight f4 [20, 1024]
0.5003551 -0.52485067 0.081710815 0.665728 0.7218364 -0.1841242 0.3987225 1.0323453
-0.0031123494 0.24531175 0.6741599 0.38046062 0.41277882 0.10797328 0.792319 -0.1329663
0.80233854 -0.06962096 0.25415432 -0.07637073 -0.098029524 0.55403197 0.35869542 0.013015476
0.24736688 0.7001048 0.43737036 0.25988784 0.5524265 0.09338846 0.35420477 0.30513963
0.19422366 0.03835622 0.28191206 0.12476179 -0.16749536 0.1300245 0.21043994 0.30615443
-0.120405436 -0.49101403 0.023201702 0.1813265 -0.087464675 0.0076487716 -0.03553731 0.46093857
-0.025267228 -0.27782977 -0.10754632 0.09235171 -0.39783585 0.20758355 0.4463068 0.47442734
-0.16594602 0.5212215 0.7850675 -0.17083894 -0.3372379 0.037111066 -0.33072472 -0.16167293
-0.0781147 0.5445882 0.053297676 0.40220165 -0.29236943 -0.038128927 -0.23626262 -0.34483606
-0.32307413 0.22629762 -0.020973377 -0.08242456 0.36656567 0.036124915 0.1445611 -0.50087553
0.04573431 0.37561643 -0.30978474 0.12319897 -0.12862638 0.10676214 -0.15464303 0.23030439
0.09514274 0.15480576 0.5969319 0.3084778 0.20993969 0.6881105 0.35406214 -0.06954558
0.37464988 -0.14590892 0.598386 -0.37169152 0.284267 0.43715003 0.24141547 0.21127768
-0.09917231 0.48074162 0.03550654 0.5883736 -0.09721416 0.39580697 0.082004435 0.18432333
0.48572445 0.41822192 0.36131662 -0.12688312 -0.28417438 0.15796974 0.26103085 -0.12817174
0.5774478 1.2606179 0.2690482 0.6904671 0.31555426 -0.28447792 -0.27165818 0.6727457
0.38926458 0.34750974 -0.24807484 0.098206624 0.5056875 0.23782356 -0.27619046 0.025306921
-0.33992317 -0.030899508 0.008145687 -1.0400183 -0.6385646 -0.19700097 -0.04802988 0.36031586
0.9380866 -0.2990711 -0.20225209 -0.31196162 -0.07350643 0.12325414 0.21178468 0.59460396
-0.3083622 -0.61222 1.0647389 0.7210021 0.1261387 0.790723 0.53165936 0.36181545
0.25454953 -0.1883308 -0.22952738 0.31895736 -0.26030898 0.011365171 0.016005717 -0.19817984
0.30891588 0.012710148 0.20111534 0.3847584 0.6000524 -0.439955 0.039551813 0.099904835
0.096839614 -0.17619005 -0.18884058 -0.21257624 -0.034711283 0.058805954 0.52630126 -0.30059516
0.851078 0.20133875 0.2791214 0.19362408 -0.44204682 -0.37321132 0.19263743 0.2362158
0.46097732 0.0055347444 0.32558358 -0.013441628 0.19913788 0.34482718 0.46164858 -0.20384067
0.80908406 0.5370778 -0.13020176 0.8932129 0.6297308 -0.16344789 -0.055380594 -0.22743809
0.19821946 0.39845642 0.35439876 0.06050526 0.22851153 0.41870788 0.12824295 -0.6034428
-0.48335156 0.13831142 0.10796691 0.0458522 -0.023002231 0.47503847 0.2464236 0.15303925
0.0774477 -0.030839661 -0.2749189 -0.000752315 0.44424903 -0.017282715 0.40383062 0.20495749
-0.2837642 -0.05525521 0.18562616 0.041578736 0.34068716 -0.11157614 -0.18330713 -0.08863517
-0.19436051 -0.06876768 -0.39325735 -0.32396758 0.5186763 -0.18602942 0.11182724 -0.3756292
-0.13299914 -0.379812 0.09810556 0.07964087 -0.5363146 0.09770098 0.042281594 0.12168274
00000000: 4617 003f 9d5c 06bf 0058 a73d 266d 2a3f
00000010: 45ca 383f 0e8b 3cbe 5b25 cc3e e423 843f
00000020: 8ff8 4bbb 0133 7b3e be95 2c3f bccb c23e
00000030: bf57 d33e 1821 dd3d 6bd5 4a3f 5128 08be
00000040: 0f66 4d3f 6f95 8ebd 8420 823e 4268 9cbd
00000050: b4c3 c8bd 0ad5 0d3f eda6 b73e dd3e 553c
00000060: be4d 7d3e 113a 333f 02ef df3e 0510 853e
00000070: d36b 0d3f 7342 bf3d 545a b53e 433b 9c3e
00000080: 91e2 463e 691b 1d3d c756 903e 1c83 ff3d
00000090: e783 2bbe 2425 053e 917d 573e 46c0 9c3e
000000a0: 2097 f6bd 3166 fbbe 7f11 be3c a7ad 393e
000000b0: ae20 b3bd 8ca2 fa3b 928f 11bd 2400 ec3e
000000c0: 38fd cebc b43f 8ebe 3f41 dcbd e522 bd3d
000000d0: 24b1 cbbe c890 543e 5382 e43e 24e8 f23e
000000e0: c1ed 29be c66e 053f 2ffa 483f 67f0 2ebe
000000f0: 72aa acbe c601 183d c054 a9be 978d 25be
00000100: 9afa 9fbd 226a 0b3f aa4e 5a3d 60ed cd3e
00000110: 72b1 95be 142d 1cbd d4ee 71be 5a8e b0be
00000120: f969 a5be 90ba 673e 5cd0 abbc 35ce a8bd
00000130: 7fae bb3e b8f7 133d d307 143e 6139 00bf
00000140: e653 3b3d cc50 c03e 1b9c 9ebe be4f fc3d
00000150: a2b6 03be 1ca6 da3d be5a 1ebe ead4 6b3e
00000160: 32da c23d 6785 1e3e 87d0 183f cdf0 9d3e
00000170: 6efa 563e 0228 303f a247 b53e ea6d 8ebd
00000180: 1cd2 bf3e 2669 15be d32f 193f 5a4e bebe
00000190: 728b 913e 21d2 df3e 9e35 773e 2d59 583e
000001a0: da1a cbbd c423 f63e 4e6f 113d a79f 163f
000001b0: 3818 c7bd 36a7 ca3e f1f1 a73d 41bf 3c3e
000001c0: e0b0 f83e 2f21 d63e 7efe b83e a6ed 01be
000001d0: 4e7f 91be d2c2 213e d6a5 853e 743f 03be
000001e0: 9ed3 133f ed5b a13f b0c0 893e 74c2 303f
000001f0: 5490 a13e 17a7 91be c816 8bbe 1039 2c3f
00000200: b04d c73e ccec b13e 5507 7ebe 8e20 c93d
00000210: bc74 013f 0588 733e d668 8dbe 7650 cf3c
00000220: 690a aebe f720 fdbc 7d75 053c 521f 85bf
00000230: f878 23bf 9fba 49be fbba 44bd 527b b83e
00000240: 7226 703f d91f 99be 2c1b 4fbe 6fb9 9fbe
00000250: 8a8a 96bd ab6c fc3d 15de 583e f737 183f
00000260: a6e1 9dbe 73ba 1cbf 5d49 883f 9893 383f
00000270: 812a 013e d36c 4a3f d41a 083f e03f b93e
00000280: 5154 823e cad9 40be 3a09 6bbe 614e a33e
00000290: 3847 85be fb34 3a3c 6c1e 833c a8ef 4abe
000002a0: 392a 9e3e 393e 503c 2ef1 4d3e 0eff c43e
000002b0: 099d 193f c841 e1be 1501 223d e89a cc3d
000002c0: d953 c63d 2a6b 34be 6d5f 41be 96ad 59be
000002d0: 6b2d 0ebd 83de 703d aebb 063f 9ce7 99be
000002e0: 3fe0 593f bf2b 4e3e 00e9 8e3e 6445 463e
000002f0: f653 e2be 8e15 bfbe bf42 453e 8ee2 713e
00000300: 3805 ec3e cd5c b53b e4b2 a63e 463a 5cbc
00000310: cdea 4b3e 308d b03e 345d ec3e 9cbb 50be
00000320: 2220 4f3f ee7d 093f 9c53 05be 9aa9 643f
00000330: 0a36 213f e25e 27be c3d6 62bd 88e5 68be
00000340: 0bfa 4a3e 7b02 cc3e c173 b53e 5dd4 773d
00000350: edfe 693e e160 d63e 1f52 033e 3a7b 1abf
00000360: db79 f7be 82a1 0d3e c11d dd3d 84cf 3b3d
00000370: 2d6f bcbc 3e38 f33e 7856 7c3e 52b6 1c3e
00000380: e69c 9e3d 75a3 fcbc 2cc2 8cbe 0137 45ba
00000390: 9c74 e33e 7b94 8dbc e3c2 ce3e 60e0 513e
000003a0: 8b49 91be 4953 62bd c914 3e3e 774e 2a3d
000003b0: 8c6e ae3e 0882 e4bd ddb4 3bbe 5b86 b5bd
000003c0: 7106 47be 12d6 8cbd 0759 c9be 14df a5be
000003d0: f8c7 043f 7f7e 3ebe ae05 e53d 7852 c0be
000003e0: ed30 08be b876 c2be 91eb c83d c11a a33d
000003f0: ea4b 09bf 7417 c83d 772f 2d3d cd34 f93d

fc1.bias f4 [20]
-1.8295834 -1.5962403 -1.4535923 -1.916344 -1.7705992 -1.7317207 -1.8689606 -1.4069676
-1.4422343 -1.4461628 -0.15966818 -1.7811977 -0.045122784 -0.16308583 -0.24735196 -1.3291
0.09881659 -0.2779549 -1.239524 -0.8306032
00000000: ca2f eabf 9a51 ccbf 500f babf c34a f5bf
00000010: ffa2 e2bf 06a9 ddbf 1a3a efbf 8417 b4bf
00000020: 229b b8bf dd1b b9bf 0e80 23be 49fe e3bf
00000030: abd2 38bd f9ff 26be d549 7dbe f31f aabf
00000040: 5a60 ca3d 1b50 8ebe b9a8 9ebf 69a2 54bf
