src/mnist_clf.pt (torch_old, 88534 bytes, 8 tensors)

conv1.weight f4 [10, 1, 5, 5]
00000000: bf9c 913e a827 aa3e ede8 e73e f823 993e
00000010: e78f e23e e831 0a3e c44d 873e 5a24 843e
00000020: ed3d be3e 0ff4 833d c52a 62bd ee6b 30be
00000030: 0a1a 4ebe c350 c6bd efc0 c53d 4aeb 02be
00000040: 75a5 bcbe ee43 82bc d95f d7be 77c7 d1bc
00000050: f887 a9be c3a5 c2be 4bf4 cfbe 2eb2 10be
00000060: 465e e4bd cf5d 9d3e 5fc5 11be d520 16be
00000070: 9b61 d83d 3619 273e 2489 983e b2b4 cbbd
00000080: e521 88be 48c0 48be 5d7a 063e 6de1 c93e
00000090: 4a3f 2cbd 2e2d 5abe 7a3a f5bc d468 2dbe
000000a0: 129b d03e 3044 1cbe 4d9a 6bbe 52a7 1dbe
000000b0: c2e1 aabc a760 bc3e ad5f 8d3e af0a 7abe
000000c0: 6768 24ba c4a6 4cbe eb19 0c3e 849b c63e
000000d0: ab3b cb3d 27e6 8cbe 637f debe 04e2 853e
000000e0: 4625 e63e e3c9 80be a3e7 73be b9a4 f3be
000000f0: a89c a23e 9edc 123f a637 c33d ca8b e9be
00000100: 5629 dfbe 51a2 f23e cfde 063f f6b6 d73e
00000110: 235a 343d 3d65 273e 99f3 723e 5f03 e13e
00000120: 4ed9 013f 8110 d53e b919 f23e 4a63 c1bd
00000130: adfe 67be ebae 86bc cf08 083d d423 cc3d
00000140: eba2 56be 103b 1cbd c798 8ebe e16c aebd
00000150: ca54 43bd 7234 babe c905 33be 5377 253e
00000160: 982d ad3e 2caf 3f3e d12a d6bd 8924 efbc
00000170: bd06 8d3e 7704 383e 27f3 02be ceea a83b
00000180: 2456 ca3e 113e aa3e 1143 183e f752 8bbd
00000190: 46be e63d 3830 533e 4f01 ff3d 6ae0 a43e
000001a0: 2e10 673e 05e4 4cbe d5a6 82be 5999 28be
000001b0: 1bc7 993e 5ee0 ce3e 07d1 19bf 42e8 b8be
000001c0: 11b4 d63b 9334 cf3e 1948 e33e 47a9 91be
000001d0: 1194 64be d902 ad3e 205c 113f 9d74 983d
000001e0: 1d23 24bd 87fd 983e 9fe6 4e3e c789 a03d
000001f0: 03f1 7f3e e156 483d d2e5 8abe 1ddb ecbe
00000200: edd9 f1be ac1f c4be f121 98be 88c2 f2be
00000210: bb72 87be 71ea 59be 8c16 cdbc b40f 303d
00000220: 76ba 613b 170f b93e d04d a03e f85b 623e
00000230: ebdd de3e f46c 123f 5475 a03e 54a4 0a3f
00000240: 0adb e93e 0067 da3e 65e3 a83e 9301 f93d
00000250: cd36 c5bd e1f5 793d 7147 1a3e c97b 00be
00000260: 980c 313d 8165 ecbd 450d 65bd 039a 8ebd
00000270: 1b37 17be 1fd8 8bbe ab91 3cbe a5fc e8bd
00000280: cc83 8f3d 79a6 a13d be36 203e 2a33 ec3c
00000290: dcbb 8cbe 3df5 99bd 48fd d9bc 7ea3 91bd
000002a0: cca0 0e3e 65cc 83bc 395f a03e 5555 1a3e
000002b0: b0b1 8b3e 69b0 713c e378 883e 9909 11bd
000002c0: f176 933e 965b 783d 2fba 0cbe d5b7 c4bd
000002d0: 1c54 fbbd d9c6 8d3e 9cd3 fa3d 3437 0f3d
000002e0: c4d9 1abd b604 90bd c468 863e 0e1c f23e
000002f0: 489d c33e 3c86 7b3e 5b45 a5be ede2 e0bc
00000300: 495b 95bc 6098 88bc 01b0 9c3e a85d f6be
00000310: 56d0 b7be ad94 a7be 7330 e1bd c18f 6cbe
00000320: 83b4 90be 0652 aabe 1245 6fbe e8b5 89be
00000330: 8a12 643d 1440 37bd e09d e2bd ce3f cebd
00000340: b1af 87be e669 0ebe 69ef 46bd b60d 4ebe
00000350: fb20 01be f539 ddbd 3f64 94be 02ae ee3d
00000360: 7529 383c 89b4 c6bb d2b7 b93c 8654 05bd
00000370: 4d5b 273e 9b37 743e bab1 8b3e 026b dabc
00000380: 967a 4b3e f034 a53e cfee 113f 0efe ea3e
00000390: f42c 583e 712c a63d bbb3 053f 829f 953e
000003a0: cac4 0dbe 652f b0be cc20 4cbe 7101 0b3f
000003b0: 7df7 9cbd 4a45 b0be 4e7e 0fbe 1d5f 8cbd
000003c0: 06c0 893e 7a89 80be c7db 4ebe c2c7 97be
000003d0: d8d7 93be f7c4 673d c532 58be 992f 89be
000003e0: 97da e9bd e1f3 a7bd
0.284399 0.3323338 0.45294896 0.29910254 0.44250414 0.134956 0.26426518 0.25808984
0.3715662 0.06443035 -0.05521657 -0.17228672 -0.2012712 -0.09683373 0.0965594 -0.12785068
-0.36844984 -0.015901532 -0.42065313 -0.025607808 -0.33111548 -0.3801709 -0.40616068 -0.1413047
-0.11150794 0.30735633 -0.14235447 -0.14660962 0.10565492 0.16318211 0.2979213 -0.09946574
-0.2658836 -0.196046 0.13132615 0.394298 -0.042052545 -0.21306297 -0.02993511 -0.1693452
0.4074331 -0.15260386 -0.2300808 -0.15395859 -0.020859603 0.3679249 0.27612057 -0.24418138
-0.00062716607 -0.19985491 0.13681762 0.38790524 0.0992349 -0.27519342 -0.43456563 0.26149
0.44950312 -0.25154027 -0.23818831 -0.4758661 0.31760144 0.57367885 0.095320985 -0.45614463
-0.43586224 0.47389463 0.5268373 0.42131776 0.044031274 0.16347213 0.23725738 0.43947884
0.50722206 0.41614154 0.4728525 -0.09442766 -0.22655745 -0.01644083 0.033211526 0.09967771
-0.20960586 -0.038142264 -0.27850935 -0.08516861 -0.047688283 -0.36368138 -0.17482676 0.161588
0.33823848 0.18719167 -0.10457385 -0.029192226 0.27544203 0.17970453 -0.12788068 0.005154944
0.39518845 0.33250478 0.14869334 -0.06802934 0.112667605 0.20623863 0.124514215 0.32202464
0.22564766 -0.20008858 -0.25517908 -0.16464747 0.30034718 0.40405554 -0.60084575 -0.361147
0.0065522273 0.40469798 0.44390944 -0.2844946 -0.22322108 0.33791235 0.56781197 0.07444117
-0.04007255 0.29880926 0.20205162 0.07838779 0.24994282 0.04891098 -0.27128464 -0.4626092
-0.47236577 -0.38305414 -0.29713395 -0.4741404 -0.2645472 -0.21280839 -0.025035165 0.042983726
0.0034443415 0.36144325 0.31309366 0.22105396 0.43528685 0.571975 0.31339514 0.54156995
0.45674926 0.42656708 0.32985988 0.121585034 -0.09629593 0.061025504 0.15066315 -0.1254722
0.0432249 -0.11542798 -0.055920858 -0.06962969 -0.14767115 -0.27313325 -0.18414943 -0.11376313
0.0700756 0.0789308 0.15645882 0.02883299 -0.27487075 -0.075174786 -0.026610032 -0.07111262
0.13928527 -0.016088674 0.3132265 0.15071614 0.27284002 0.014751532 0.2665473 -0.035409544
0.28801683 0.06063422 -0.13742898 -0.09605376 -0.12271902 0.2769077 0.122473925 0.034964755
-0.037805334 -0.070321485 0.26251805 0.4728703 0.38205934 0.24562925 -0.32279477 -0.027451957
-0.018232005 -0.01667422 0.3060303 -0.4811833 -0.35901135 -0.32730618 -0.10995569 -0.23101713
-0.2826272 -0.33265704 -0.23366192 -0.26896596 0.055681743 -0.044738844 -0.110652685 -0.100707635
-0.2650123 -0.13907585 -0.048568163 -0.20122418 -0.12610237 -0.1080207 -0.28982732 0.11654283
0.011240353 -0.006064002 0.02267066 -0.03255131 0.16343422 0.23849337 0.27284032 -0.026662353
0.19870982 0.3226695 0.5700502 0.45896953 0.21110898 0.08113945 0.5222737 0.29223257
-0.138446 -0.3441116 -0.19934386 0.54299074 -0.07664392 -0.34427863 -0.14013025 -0.06854079
0.26904315 -0.25104886 -0.20201026 -0.2964459 -0.28875613 0.056584325 -0.21113117 -0.26794127
-0.11418646 -0.08200813

conv1.bias f4 [10]
00000000: 2e6a 1b3e d9c1 4e3e 6881 e33e 8ef5 9abb
00000010: 5f70 d03e 7381 863d a3ee debc 2e8a 2c3c
00000020: 5881 683e d426 803e
0.15177223 0.20191135 0.44434667 -0.0047289794 0.40710732 0.06567659 -0.0272134 0.0105309915
0.2270559 0.25029624

conv2.weight f4 [20, 10, 5, 5]
00000000: 6fcf 92bd 84b7 473b ac4d 953c 768f 983d
00000010: 9dc6 4e3d 511f 4fbd 2f11 1bbe 54fd 31bd
00000020: e478 9abb bcf8 df3c 0690 96bd f1f3 06be
00000030: fc90 a3bd 9d59 333d 1f99 4dbd e71c 19bd
00000040: f762 2dbd 4e42 96ba 0514 30bd f2ae 1cbc
00000050: ecd4 e7bd d077 80bb e44f 96b9 52cb 883c
00000060: f14f 61bd cdc4 403d dbdb b4bc b9c9 22bc
00000070: 16b9 183c 7ae6 02bd 56a7 82bd 95b0 e5bc
00000080: c7fd 29bd f065 d63b 6774 a2bc fccc 673b
00000090: 8049 e1bc f8a2 353d a6a4 113d ae5d 47bd
000000a0: 902c 9abd 20df 8d3d f457 163d e1fd b73d
000000b0: 70f9 c1bc 4c75 89ba 5a52 963c 3365 7b3b
000000c0: 4e2a d2bc a0c9 41bd 273d 1abe ec58 97be
000000d0: 7f0f 52be 4fcb 2bbd dec0 6f3d 5430 44be
000000e0: 3c68 fcbd 5f6e 423d effc 323d 2019 323d
000000f0: d32f 93be 6250 b2bd 4e78 303e 577e 313c
00000100: 40c6 f4bd 51b2 2fbe 5c12 a23d 7067 7a3e
00000110: a246 b83d e678 23be 886a 85bc 74e3 7e3d
00000120: 97a8 353e 2bd9 7b3d fb30 3cbd 8adc b7bc
00000130: bd46 2d3d b747 a3bb 8ee5 733d 0871 893d
00000140: 8908 0b3c cd1a 243e e69b b03d aa77 823d
00000150: ee9f 203d 10ce ee3c 52f9 ad3d a2e3 443d
00000160: b770 35bd 710e 053d 7878 af3b a77f ba3d
00000170: f57d 8f3d dd46 c03c cb34 543d 8327 3a3d
00000180: 9d0e 753d 7f8d 933c 577a 46bc 2aff 31bd
00000190: a40a 44be adfd 123b 1188 003e 8fac 8a3d
000001a0: 70e6 063e 5209 07be 0a34 a63d f18e 7f3d
000001b0: 836e 50bd 8fa2 92bc c46b ab3b 757a cb3d
000001c0: 9778 3dbc 8892 873b 68c0 82bb ab54 063d
000001d0: 4635 ee3d 25ce 34bd 1c48 0dbd 724e 78bc
000001e0: d042 803d d5d2 4f3d 4fa0 6bbb f697 d2bc
000001f0: 1924 f8bd ffc3 efbd 2555 05be 069e 06be
00000200: 6bba 713a 5f97 7cbc 59b4 47be 2f2a a4bd
00000210: f5c9 f4bc 96c7 c23c d268 e3bd 1231 27be
00000220: 026d 04be dc39 c0bc f1f8 26bc 0b6c 87bd
00000230: 54d2 75bd 1714 e4bd 5136 06be 37d3 263d
00000240: 896e f93b 0a85 c0bc ba2b c6bd abf7 e8bd
00000250: 1d68 ab3c 283f 3e3d f981 93bd c32d 13bd
00000260: a4be 0ebc b7d2 99bd 0431 953b 28db db3c
00000270: 9e14 1b3d 6939 d7bc 7327 9abd 8ddc cbbc
00000280: 736f 2cbd 902b 01bd 71b2 c23c fc57 07bc
00000290: 1779 343d 58ce 313d 93a5 abbd 7f1f 6cbd
000002a0: 740b c3bc ba82 89bd 556c 1fbd 4dcc 82bd
000002b0: 916c 76bc 35f8 07bd 97ce 3a3d 00cb 92bd
000002c0: 8077 cdbc 29d0 96bc 6189 723d 1182 273d
000002d0: b05f 56bd 5868 76bd 2754 87bd 821d 04bd
000002e0: 6b19 4e3d 6aa8 8abc 257d 9fbd bdd9 cabc
000002f0: 227d 363c 5173 1abc 0bee 6ebb 07e2 fb3c
00000300: 53f7 c83b d001 a1bd 2985 023d 7203 7a3b
00000310: 8f9f be3d 737a 0d3e 1238 b93c 9e79 353d
00000320: 5d32 2c3c 1e2d e73c 6754 0e3a f0b3 9abd
00000330: 5e07 5bbd 1c3d b6bc 6408 9d3d 4bd7 1e3d
00000340: 7f6b d0bb ac0f d23b 3975 a5bc 5aaf 93bd
00000350: c68b 98bc 8226 043d a29c 97bc ad8b de3c
00000360: 59b9 963c 8b49 e8bc 02ae f1bc 7386 983a
00000370: 155b 573c 7611 e9bc 8cb6 1d3d e3fa d83c
00000380: 82fd 2f3d e737 b53c 0464 ddbd 0fa3 6ebd
00000390: ec05 3d3d 1061 073e 2aa5 4e3c 1013 fabd
000003a0: 7790 84bd d83d ba3d 4ce5 763d 982e a6bd
000003b0: fc87 e639 62b4 043e 9dbf cd3d 3166 72bc
000003c0: b001 c5bd e00b bcbc 9317 033d acdf 093d
000003d0: d946 6b3c 8ccb 1a3c 859b 203d f0bd 113d
000003e0: 26f2 57bd c39b 663d 6a15 853c d0f2 28bd
000003f0: cc65 adbd c40d 873d a7d5 493d 742e 9ebc
-0.07168471 0.0030474374 0.018225513 0.07449238 0.05048238 -0.050566975 -0.15143274 -0.043454483
-0.0047141183 0.027340285 -0.07351689 -0.13178994 -0.07986638 0.043786634 -0.050194856 -0.03738108
-0.04233071 -0.0011463852 -0.042987842 -0.009563195 -0.113199085 -0.0039205328 -0.00028669753 0.016698513
-0.05500788 0.047062684 -0.022077492 -0.00993579 0.009321472 -0.03195808 -0.06379573 -0.028038302
-0.041501787 0.0065429136 -0.019830896 0.0035369983 -0.027500868 0.044344872 0.03555741 -0.048673324
-0.07528031 0.06927323 0.036704972 0.089839704 -0.023678511 -0.0010487228 0.018349815 0.003835988
-0.025654938 -0.047311425 -0.1506239 -0.2956003 -0.20513724 -0.041941937 0.05853354 -0.1915906
-0.12324569 0.04746854 0.043698248 0.043480992 -0.28747424 -0.08706738 0.17233393 0.010833344
-0.11951876 -0.17157866 0.07913658 0.24453521 0.08997847 -0.15964088 -0.01628615 0.062228635
0.17740093 0.061486404 -0.04594515 -0.022444028 0.04230379 -0.0049829143 0.059545092 0.06711012
0.008485922 0.16025849 0.08623485 0.0637048 0.03921502 0.029150993 0.0849482 0.04806865
-0.044296946 0.032484476 0.005354937 0.09106379 0.07006446 0.02347129 0.05180816 0.045447838
0.05982839 0.018011807 -0.012114129 -0.043456234 -0.19144684 0.0022429035 0.12551905 0.06771194
0.13173842 -0.13187149 0.081153944 0.06239218 -0.050886642 -0.01789978 0.0052313525 0.09935466
-0.011564395 0.004137341 -0.003990222 0.03279559 0.11631255 -0.044141907 -0.034492597 -0.015155422
0.062627435 0.050738174 -0.0035953706 -0.025707226 -0.1211626 -0.11707305 -0.13020761 -0.13146219
0.0009221199 -0.015416949 -0.19502391 -0.080158584 -0.029881457 0.02377681 -0.11103977 -0.16327313
-0.12932208 -0.02346509 -0.010191188 -0.066124044 -0.060015038 -0.11136644 -0.13106658 0.040728774
0.007612054 -0.023500938 -0.09676309 -0.11375364 0.020923669 0.04644695 -0.07202525 -0.035932314
-0.008712444 -0.07510894 0.0045529623 0.0268379 0.03786146 -0.026272492 -0.075270556 -0.02488544
-0.042098474 -0.031535685 0.023766728 -0.008260723 0.044060793 0.043409675 -0.0838119 -0.057647225
-0.023809172 -0.06714387 -0.038921673 -0.063866235 -0.015040533 -0.033195693 0.045607176 -0.071676254
-0.025081396 -0.018409805 0.059213046 0.040895525 -0.05233735 -0.060158104 -0.06607848 -0.032254703
0.05031721 -0.01692601 -0.07787541 -0.024762029 0.011138232 -0.009426908 -0.0036457803 0.030747427
0.006132999 -0.07861674 0.031865273 0.0038149026 0.09307777 0.13816242 0.022609744 0.044305436
0.010510054 0.028219756 0.0005429447 -0.075538516 -0.053473823 -0.022245936 0.07667616 0.038779538
-0.006360471 0.0064105596 -0.020197498 -0.0721118 -0.018621337 0.032263286 -0.018507306 0.027166212
0.018398928 -0.02835538 -0.029501919 0.0011636749 0.013144274 -0.028450709 0.03850417 0.02648682
0.042966373 0.022121383 -0.10810092 -0.058260974 0.046148226 0.1322062 0.01261262 -0.12210667
-0.06472867 0.09093827 0.06027727 -0.08114356 0.00043970335 0.12959436 0.10046313 -0.014794872
-0.096194625 -0.022954881 0.032004904 0.033660576 0.014360153 0.009447943 0.039210815 0.03558153
-0.052721165 0.05630089 0.016245563 -0.04124719 -0.08466682 0.065944225 0.04927602 -0.01930926

conv2.bias f4 [20]
00000000: 4109 913b 6cbf 263d fe9d 383b a5b6 65bd
00000010: 7b23 ef3c 27e3 b73b 6092 693d cbca 213d
00000020: 1cfb 31bb 8ec3 0b3d 73b8 863d fcc7 ed39
00000030: a74b dfba 63c7 6d3d 33f1 79bd daab 65bd
00000040: e28f 043d 6389 20bd 3b5c 2d3c 5353 413d
0.004426152 0.040709898 0.0028170343 -0.056082387 0.029191723 0.0056117955 0.05702436 0.03950004
-0.002715773 0.034122042 0.0657815 0.00045353163 -0.0017036096 0.058051478 -0.06102104 -0.056072094
0.03236378 -0.039193522 0.0105810715 0.047198605

fc1.weight f4 [50, 320]
00000000: 518f d03c bafc 95bc ab1e e23d 6588 9e3d
00000010: 12b5 2c3b 9712 e63c 9dbf 013d 4637 37bc
00000020: f5d7 85bd 3fac 10bc 8e6e 893d e226 b8bb
00000030: aa66 bebc 9bd4 ccbd b5af cc3c dd17 70bd
00000040: 3ba8 be3b 0f75 4ebd 1329 363d 617a 3b3d
00000050: d47a 58bd c4a3 27bc 669a 573c e98c cd3c
00000060: 4a26 a3b9 c3b9 abbd 3f6f fcbc e829 bfbb
00000070: 9e79 5cbc fb71 1c3c b73c 0ebd d017 a13d
00000080: e585 1abd 707d cebd 71da 61bd eb45 013d
00000090: d7b8 dfbc 97e6 44bc 9e80 203d f40e 9f3d
000000a0: 95f3 0bbd d7d8 3c3d 692c 363d 02da d7bc
000000b0: fb39 92bc 2b9b 66bd 348a 383d dccb 81bd
000000c0: 396d 603d 75f0 b0bc 2119 5ebd 0f97 073d
000000d0: 4aa9 753d c289 793c 3655 cdbc 191c 473b
000000e0: ce58 563d d894 9bbc 642b 43bc bb9f 32bc
000000f0: c8fe 313d cc4a 8cbc 211a 053d 0ff5 e33c
00000100: 5628 dbba 89ca 653d 9379 9bbd 9f67 e4bc
00000110: 0644 8bbc 8eaa 033e ad6f f9bb dc9b 8b3d
00000120: 44ac c9bd c511 fb3b 3631 7f3b 6b9e 9fbc
00000130: 58d0 d9bd fbe3 71bc 6aca e0bc 3725 6a3c
00000140: ca14 54bd bda8 533d 5983 a23d 7024 cd3d
00000150: 6069 e0bb 90f9 503c 3361 0e3d da97 76bc
00000160: 2b04 843b efdc 373d 9b35 ebbc c5ec 1bbb
00000170: c197 1c3d 3875 4a3d 1b80 5f3d b07c 4f3c
00000180: 05b1 173d 0432 53bc 94d5 8e3d 93d3 983c
00000190: 17ba 9a3c 1832 c93a 68d7 283d 26bb acbd
000001a0: f338 adbc 68dd 8abc 13a2 633d 42f0 07bd
000001b0: cbde 33bd 4337 38bd fa61 b73b 04c3 103d
000001c0: 302f b2bd 0eb3 693c 073e 84bc b301 bfbd
000001d0: 485b 28bc 9c97 b83c b04e b33b 107f 3d3d
000001e0: a528 1b3d be70 a03c 9e2a 0b3d 6ea4 823b
000001f0: 9ce3 60bd c81a 563c f997 dd3a c0b9 903c
00000200: a2c5 9ebc 9869 6b3d 185e 9b3c e33d 353b
00000210: a270 0dbd 7931 fa3c 2634 cabb b7db 95bc
00000220: c993 dabc 5a3e 833c c4c0 393d e206 28bd
00000230: 5ede 543c 47fb 16bb 5f10 5cbc 2bfb fc3c
00000240: 6b14 f0bc 4b4f ee3c 8448 fe3c 7f6b e23b
00000250: 96f4 ec3c 3719 133c b083 75ba f17a 463d
00000260: d6c7 3abd a5c0 833d b237 9dbc eb5b 363d
00000270: fb9e 94bd 6480 883b 2bf1 31bd 3cc6 b03b
00000280: 6cca 65bd ac5e bf3c 847f cebd 51bb ba3b
00000290: a912 24bd 63c2 adbd 3769 f2bd 0486 093d
000002a0: c5a4 2cbd f859 59bc 2768 e53c 399a 79bc
000002b0: eb10 703d f103 033e dbdc 9fbc 357c b63b
000002c0: b307 e0bd 9eff 33bd 49a1 88bd 9283 a53c
000002d0: afcc c5bd d91d 4bbd c84a acbb aa33 dabc
000002e0: 78a0 c13b 5201 1aba b382 413b 56e8 cc3c
000002f0: 2382 f9bc 0fd8 623d ba77 d53d 2232 7fbd
00000300: e7ca 23bd 3c67 b5bc 545c 0d3d ea1a 133d
00000310: d874 a63d cdfe 713d f664 1d3d 2465 28bd
00000320: 36b7 c73c 3ad8 4dbb 606e 083d e00c 54bd
00000330: 83fa aebd d7d8 8ebb 4920 2abc 1ae0 b2bd
00000340: 1134 bd3c 4fdd 523d ae40 b53d 2970 06bd
00000350: 4f11 1abd 7081 033d 7c20 4e3d 14a0 643b
00000360: cb03 303d 5aeb b0bc 5a6d 76bb a53a 22bd
00000370: ceab 013d cdd5 af3c 6ea0 e83b dc27 b2bb
00000380: 31b9 a83c 4a34 79bd 1af5 a1bc 9cfd f0bc
00000390: e500 e33c f77b 38bd 8503 363c f09d 763d
000003a0: e7af 75bd ce5e b73b 42dc a73c b6ee 9dbc
000003b0: 4dcf 30bd ebdf d2bc 1c65 c33c b1a3 43bc
000003c0: 06d9 04bd d41a 66bd e0df 88bd 5c9e 2e3d
000003d0: 2ca5 acbd 3d3a 91bd f9cf 3bbd 4bba a53d
000003e0: 1dda 89bd 0fa6 b43c 4ed1 323d 04de 8b3b
000003f0: e411 a4bd e42e a83b 3c17 7e3d 8911 173d
0.025458964 -0.018308986 0.11041006 0.07740859 0.0026353044 0.028085036 0.031676877 -0.011182612
-0.06535331 -0.008830129 0.0671054 -0.0056198696 -0.023242313 -0.10001489 0.024986127 -0.058616508
0.0058183945 -0.050404605 0.044472765 0.045771006 -0.052851513 -0.010231916 0.01315937 0.025091605
-0.0003111831 -0.083850406 -0.030814765 -0.005833853 -0.01345673 0.009548659 -0.03472587 0.0786587
-0.037725348 -0.10082519 -0.055139963 0.03156082 -0.027309818 -0.0120178675 0.03918516 0.07766524
-0.034167845 0.046105232 0.044475947 -0.026349071 -0.017849913 -0.056300323 0.045053676 -0.06337711
0.054791663 -0.021599034 -0.054223184 0.033103045 0.0599759 0.015230598 -0.025065046 0.0030381738
0.052330784 -0.018991873 -0.011912201 -0.0109023405 0.04345587 -0.01712551 0.03249562 0.027826814
-0.0016720395 0.056101356 -0.07591548 -0.027881442 -0.01700021 0.1285803 -0.0076121897 0.06816837
-0.0984731 0.0076620304 0.0038939244 -0.01948472 -0.106354415 -0.014763827 -0.027440269 0.014291099
-0.05177764 0.051674593 0.07935209 0.100167155 -0.006848499 0.012754813 0.034760665 -0.015050853
0.004028817 0.044888433 -0.028712085 -0.0023792249 0.03823066 0.049428195 0.05456553 0.012664005
0.037034053 -0.012890343 0.069743305 0.018655574 0.018887563 0.0015350012 0.041221052 -0.08434133
-0.02114532 -0.016951278 0.055574488 -0.033188112 -0.043913644 -0.044974577 0.0055963965 0.03534223
-0.087004066 0.014263881 -0.016142858 -0.09326496 -0.010275669 0.02253323 0.0054720268 0.046263754
0.03788056 0.01958501 0.03397619 0.0039868867 -0.054904565 0.013067909 0.0016906253 0.017666698
-0.019381348 0.05747375 0.018965766 0.0027655296 -0.034531243 0.030541169 -0.0061707674 -0.018293245
-0.026681798 0.016020942 0.04534985 -0.04102219 0.01299247 -0.0023037957 -0.013431638 0.030881485
-0.029306611 0.029090544 0.031040438 0.006909787 0.028925221 0.00897818 -0.0009365631 0.04845709
-0.045600735 0.064332284 -0.019191597 0.044521254 -0.072568856 0.004165696 -0.043442886 0.005394725
-0.056101248 0.023360573 -0.100829154 0.0056985994 -0.04005686 -0.08484342 -0.118364744 0.033575073
-0.042149324 -0.013266079 0.028003765 -0.015234523 0.058609884 0.12794472 -0.019514492 0.005569006
-0.109389685 -0.043944947 -0.06671388 0.02020434 -0.09658181 -0.04958901 -0.005257938 -0.026635963
0.005909022 -0.00058748305 0.0029527366 0.02501313 -0.030457562 0.05538183 0.10423227 -0.06230367
-0.039988425 -0.022143953 0.03451188 0.03591434 0.08127755 0.059080888 0.038426362 -0.04111208
0.024379354 -0.0031409399 0.033308387 -0.05177009 -0.08543875 -0.0043593454 -0.010383674 -0.0873415
0.023096116 0.051480588 0.08850227 -0.032821808 -0.037614163 0.032105863 0.05032395 0.0034885453
0.042972367 -0.0215966 -0.00376018 -0.03960671 0.031657986 0.021464253 0.007099203 -0.0054368805
0.020596119 -0.060840882 -0.019770194 -0.029417805 0.027710387 -0.045040097 0.011109238 0.060209215
-0.059982207 0.0055960184 0.02049077 -0.019278865 -0.043166447 -0.025741538 0.023851924 -0.011940883
-0.032433532 -0.05617793 -0.06683326 0.042631492 -0.084299415 -0.07091186 -0.045852635 0.08092173
-0.06731055 0.02205184 0.04365664 0.0042684097 -0.08011225 0.005132543 0.062033877 0.036881957

fc1.bias f4 [50]
00000000: 9319 bd3b 0b89 f7bc ee76 54bd 2937 2b3c
00000010: 4739 5e3d bdbd e23b 1d02 d73c c918 d03c
00000020: 5831 833d 30f8 713d fa37 683d bdd6 d83c
00000030: e47e 1f3d e2a4 01ba 64b3 c2bc bc14 a6bc
00000040: 3d5b 12bc cc97 6b3d e174 623c 301e e13c
00000050: a4a3 063d 8a1b 713d ddef 443c ae1b 713d
00000060: 2777 eebc 3c10 a6bb 9829 de3c b5f3 97bc
00000070: 8d67 20bd e3cf 0ebd e048 5ebc cd0f cdbc
00000080: 572d 053d 0d2f f83c 5f48 7a3c 6da0 863a
00000090: 4cf2 893d 6677 953d 4644 d43c 5337 e13c
000000a0: 78ac ecba 5d3e 9a3c d678 50bc 6908 283c
000000b0: be01 a83d 6541 3e3c a271 cc3c c00d e93c
000000c0: 7c2b fc3c dcf8 313d
0.005770871 -0.030216714 -0.051871233 0.010450163 0.054253843 0.006919591 0.026246125 0.025402443
0.06405896 0.05907458 0.05669401 0.026469583 0.03893937 -0.0004945529 -0.02376718 -0.020273559
-0.008932886 0.05751781 0.013821811 0.027480215 0.032870904 0.058864154 0.0120200785 0.058864288
-0.02910955 -0.0050678533 0.027119443 -0.018548826 -0.039161254 -0.034866225 -0.013567179 -0.025031948
0.032513943 0.030295873 0.015276044 0.0010271199 0.067356676 0.07298164 0.025911462 0.027492201
-0.0018056771 0.018828565 -0.012724122 0.010255911 0.08203457 0.011612271 0.024956528 0.02844894
0.030782454 0.04345022

fc2.weight f4 [10, 50]
00000000: 139b 80bd 900b 523e e7dc 3c3e f0c2 263e
00000010: cdfe b33e 04de 2bbe 007a 3dbe bfca 93bd
00000020: d3ea afbe 8360 7f3e ff5e 47be d25a 39be
00000030: f4da 28be 9568 97be 1feb 80be a9d0 6f3e
00000040: a4f5 5dbe 6dcf 803e ba8d 40bd 348a 4a3e
00000050: 778f 9e3d 76bf 61be 6b69 79be 6610 b03c
00000060: 758f 7a3e 258b 1e3c 28a7 893b 3b54 27be
00000070: cf37 583e 5158 863e fd95 f5bd cc40 42be
00000080: e7e7 153e 9870 d6bc 42eb 603e 1630 4bbe
00000090: 1f5e b8bd 997e 82bd 3b91 6fbe b226 0c3d
000000a0: bf30 80bc 05ff 31be 8d1d a33e f61c 2fbe
000000b0: 7399 5abe 6937 903e ee4d a1bd c7f9 59be
000000c0: 409e 863e 9551 3e3e 9620 8e3e 461c 8bbe
000000d0: 7f2e 24bd bfef d9bd c01a 23be f338 34be
000000e0: e9e5 44be 28d8 7c3e 341c 83bd c566 5dbe
000000f0: 6679 953e 4c09 863e 7404 953e 6206 543e
00000100: 529d 4ebe c16f 8bbd 973b 3a3e 04d0 35be
00000110: 865c 94bc 96c2 0fbe 9e15 64bc 2097 243e
00000120: 6cdd 103e 7736 d23e 5508 01be 32c5 4b3e
00000130: a685 13be c98f 793e 23ad 3dbe ae50 4bbe
00000140: ff9a 613e fea3 9fbd 9c5e b4bd 613c babd
00000150: 4972 acbd 3ee8 3fbe 0601 903e bd39 f13e
00000160: 09f2 913e da68 d6bc d0e6 42be 0c57 3a3e
00000170: 97a1 11be 5e74 6e3c e4ba 893e 114e 0ebe
00000180: b180 0dbe cfb4 2dbe e2a5 fcbd 3e36 d7bd
00000190: a15a 903d 9338 06be e685 0f3d 98b4 b93d
000001a0: 2010 35be 28e1 473e f936 213d f5d3 843e
000001b0: 930f acbe 6ce4 adbd d0f0 8fbd 42ba 20be
000001c0: 83da 8a3e 4dea 86be b419 e8bd 5967 5a3e
000001d0: d30a 613e e61d 813e fbde 45be fed7 e33d
000001e0: 4857 8c3d 1fc8 8cbe b164 adbe 89a4 23be
000001f0: 5f47 433e 8412 633e b7a2 6a3e 1c42 843e
00000200: 1f73 783e 0c3e 7c3e c80f 27be 37fa 0ebe
00000210: 4567 40be c64f 433d 43f1 8e3c 58b1 24be
00000220: f7f8 313e 717e b33d 40fb 32be 7e96 21be
00000230: de37 3dbe 10cf 453e a05a 9a3e 3740 3c3e
00000240: b235 863e 2866 35be ff0d 603e c608 06be
00000250: df45 33be d872 423e 44a9 90bd dfa9 febd
00000260: 36a7 333e c2b1 423e cb56 13be b4ef 543e
00000270: 0dea 48bd af7c 8b3e 500e 2d3e 330e 3cbe
00000280: a62b 4cbe 7f2b 7cbe c040 4dbe 2d79 883e
00000290: c4c2 863e 80db 73be 7094 543e 7346 92bd
000002a0: a62e 33be 76d2 423e c624 c73c e116 cbbd
000002b0: 1b10 64be 883f 73be 377b 5bbe 6b34 663e
000002c0: 35d6 7cbe 7ffd e5bd 93c4 5c3e 7543 3dbe
000002d0: 6f86 d1bd 4538 893e d730 27be 8a69 fbbd
000002e0: f30c 71be 8994 10be 687f 8f3e f726 a7bd
000002f0: a1a9 963e c4f4 07be 26ef 17be e673 743d
00000300: 88aa 17be dccc 823e 4d15 0bbe 5c6b 04be
00000310: 4671 453e 9af3 84bd db20 7cbe 0d72 453e
00000320: 1356 ed3d 6f8a b0be 5209 8d3d c005 92be
00000330: b0c8 f1bd 68c8 703e 72e4 b03e 23ed a8bd
00000340: 03d9 423e 30b0 52be 0b64 993e 1520 353d
00000350: 32ee 983c 4377 113e 9e2d 8a3e ede4 a7bd
00000360: bcd2 92be f859 863e 7a24 a93e ae80 63be
00000370: 5ce8 683c 2b26 1a3e 07e9 333e 826c 0cbe
00000380: e7c4 87bd b88b b7be e654 36be 2721 863e
00000390: 87c4 00be f2cc 793e 877b 813e 1d08 3bbe
000003a0: ded2 373e 68e1 c23e c367 7fbe fa69 2a3e
000003b0: 107e 1abe 725b 29bd 766a 363d 4896 53be
000003c0: fb31 e6bd 8141 5e3d 9067 13be d2f2 4dbd
000003d0: 7fc6 cbbd cdb8 d3bd 97cc 25be 703e 8c3e
000003e0: c87e 5fbd d314 8ebe 47a0 ccbd c725 4e3e
000003f0: a912 be3b 97f6 2f3e aa78 0fbe d66f 5fbe
-0.06279578 0.20512223 0.18443643 0.162853 0.35155335 -0.16783911 -0.1850357 -0.07216405
-0.34358844 0.2493916 -0.19469832 -0.18101051 -0.16489774 -0.29571977 -0.25179383 0.23419441
-0.21675736 0.25158253 -0.04701016 0.19779283 0.077422075 -0.22045693 -0.2435662 0.021492194
0.24468787 0.009676729 0.004200835 -0.16340725 0.2111504 0.26239255 -0.119914986 -0.1897003
0.14639245 -0.026176736 0.21964744 -0.19842562 -0.09002327 -0.06371803 -0.23395245 0.03421659
-0.015648244 -0.17382438 0.31858483 -0.17100891 -0.21347599 0.28167275 -0.07876192 -0.21286689
0.2629261 0.18585809 0.27759236 -0.27170008 -0.040083405 -0.10641431 -0.15928173 -0.1759985
-0.19228329 0.24691832 -0.06401864 -0.21621235 0.29194182 0.26178968 0.2910496 0.2070556
-0.201772 -0.06808425 0.18186794 -0.17755133 -0.018110525 -0.14039072 -0.01392117 0.16073275
0.14146966 0.41057178 -0.12600835 0.19899443 -0.14406452 0.24371256 -0.18523078 -0.19854996
0.22031783 -0.07794951 -0.08807108 -0.090935476 -0.08420236 -0.18740937 0.2812578 0.47114363
0.2850497 -0.026173044 -0.1903336 0.18197268 -0.14221798 0.014554111 0.269004 -0.13896967
-0.13818623 -0.16963504 -0.12336327 -0.10508393 0.07048536 -0.13107519 0.035039805 0.09067649
-0.17681932 0.19519484 0.039359067 0.2594296 -0.33605632 -0.08490834 -0.07028353 -0.15696052
0.27119836 -0.26350632 -0.113330275 0.21328487 0.21976785 0.25218123 -0.19323342 0.111251816
0.06852585 -0.2749643 -0.33865884 -0.15980734 0.19070195 0.22175032 0.22913633 0.25831687
0.24262665 0.24633044 -0.16314614 -0.13962637 -0.18789394 0.0476835 0.017449027 -0.16083276
0.17380129 0.08764351 -0.17478657 -0.15780064 -0.18478343 0.1931727 0.30147266 0.18383871
0.2621284 -0.17714751 0.21880339 -0.13089284 -0.17507122 0.18989122 -0.07063535 -0.12434744
0.17544255 0.19013122 -0.14388578 0.20794564 -0.049051333 0.27243564 0.16899991 -0.18364792
-0.19938526 -0.24625967 -0.20044231 0.2665495 0.2632047 -0.23814201 0.2075975 -0.07142343
-0.17498264 0.19025597 0.024309527 -0.09916473 -0.22271769 -0.23754704 -0.21433721 0.22480933
-0.24691088 -0.11229991 0.21559362 -0.18482764 -0.10230719 0.26800743 -0.16327225 -0.12275989
-0.23540096 -0.14119162 0.2802689 -0.08161729 0.29426292 -0.13276964 -0.14837322 0.059680842
-0.14811146 0.2554692 -0.13582344 -0.1293158 0.19281492 -0.06491776 -0.24621908 0.19281788
0.11588683 -0.34480616 0.06886543 -0.28520012 -0.11805856 0.23513949 0.3454929 -0.08248355
0.19028096 -0.20575023 0.2995914 0.04422005 0.018668268 0.14205651 0.26987928 -0.08197961
-0.28676403 0.26240516 0.33035642 -0.22217056 0.014215555 0.15053622 0.17569362 -0.13713267
-0.06629353 -0.35848784 -0.17805824 0.26197168 -0.12574969 0.24394587 0.25289556 -0.18264814
0.17951533 0.38062596 -0.24941926 0.1664199 -0.15087152 -0.041346975 0.044535123 -0.20662796
-0.11240002 0.05426169 -0.14394975 -0.0502804 -0.099499695 -0.10337982 -0.16191326 0.27391386
-0.054564267 -0.27750263 -0.09991508 0.20131598 0.0058005643 0.1718391 -0.14010873 -0.21820006

fc2.bias f4 [10]
00000000: f322 943d 7348 cc3d d910 3abe 6b6c 0e3e
00000010: ae6f 823d e26f 433d 6a3c 03be 869e 053e
00000020: 94d7 3c3d 94bf 8c3c
0.072332285 0.09974756 -0.1817049 0.13908546 0.063689575 0.04771412 -0.12816015 0.13048753
0.04610403 0.017181195
