src/model.pth (torch_old, 88644 bytes, 8 tensors)

conv1.weight f4 [10, 1, 5, 5]
00000000: 13c6 5b3e 05f3 6b3e b9eb 9c3e 9e16 033e
00000010: 9fce ba3e f29b a63d 1778 1b3e f698 f73d
00000020: 22ac 703e 9ad3 7dba 68f7 c63d 4c2e ebbd
00000030: 8ab6 4abe 2467 a4bd bc28 e83d d68e 4f3d
00000040: d58b 7cbe 7dc4 e83d 875f 8ebe da5d 9a3d
00000050: 43d7 1ebe 122a 67be 0fe2 78be 0486 e3bc
00000060: 3097 0bbd 2280 543e 487a 0ebe 8eae b4bd
00000070: 7ea8 ed3d 754e 033e 65ce 283e 536f e3bd
00000080: 0c9b 54be 8daa 1bbe 4c29 c33d d3b1 913e
00000090: 2890 a4bc be4f f4bd 748d fa3c 96ea 26be
000000a0: dcb1 883e d3d4 36be 9e33 42be b01d e0bd
000000b0: 5800 5e3b 5b6d 703e 6431 5f3e 3236 74be
000000c0: 3c83 a83c ce15 2cbe 12f5 063e 213b 8b3e
000000d0: fae2 153e 6b8a 29be b2e8 6dbe 395c 5c3e
000000e0: 5f34 983e a08e 03be af4f ffbc 2fc5 a1be
000000f0: d90c 463e bd45 c83e 5dcc 343e 1f74 9abe
00000100: f9e4 98be 93d9 8f3e a26b 943e 4606 a43e
00000110: 81c6 783d e7ba 0c3e d929 4f3e 9713 9c3e
00000120: c976 a13e 9f52 803e 52c8 a63e 6781 74bd
00000130: 5843 5dbe 0e06 483c 0019 2b3d 12b0 9c3d
00000140: 3029 0bbe c07b 073c 2de9 6abe 2d51 c6bd
00000150: a2a6 76bd 8504 8bbe 01a4 cebd 9117 0c3e
00000160: 7906 873e 72b8 1f3e 8f03 06bd e862 09bd
00000170: 09d3 3d3e 50a7 b33d 7196 07be 08da 4cbc
00000180: 6b86 933e 1dd5 733e 6750 f73d 88aa 71bd
00000190: 4e7c 463e 6c3a 6a3e 719d dc3d 77d9 893e
000001a0: 9164 173e e293 433d 5806 a6bd 3e92 b6bd
000001b0: 9cea 713e d40b 8c3e a6fd 8fbe 3f30 f2bd
000001c0: dfec b33d c61d 713e 4042 bd3e 5fc7 a8bd
000001d0: 8315 f4bd 99ab 843e 4c47 c73e 92dd ab3d
000001e0: 9ca0 933d ce24 923e 3f2b b43d 499a 523d
000001f0: 2e59 6c3e 7231 c03d 87d5 1cbe 0808 9dbe
00000200: 6690 a8be 39b1 90be b5b1 7dbe ca11 acbe
00000210: fe5c 39be c070 0fbe 6cd9 f6bc 8df5 3e3d
00000220: 3932 27bb d561 803e 0a7c 413e c466 bf3d
00000230: bbc5 993e 30e2 c73e e56e f93d ca02 d63e
00000240: be02 a93e 6a0f 8f3e 0f47 553e f81f bc3d
00000250: a420 f0bd 6d21 06bc 3ad2 243e ccaf d5bd
00000260: ca31 ae3d 87c2 98bd 9447 cabb 045b 39bd
00000270: be91 d1bd 66c0 4abe 2346 fdbd 2e53 3dbd
00000280: 4bfd fa3c 3018 883d 0a62 1f3e eadd 2b3d
00000290: 3b6d 7ebe 5ded 0ebe ad8c a1bd 158c 09be
000002a0: 3a3a bf3d 04a9 92bc af3a 853e 87c8 b53d
000002b0: 758c 4b3e e147 dbbc 50b8 893e 2c8a bfbd
000002c0: 3fca 403e a5ee dbbb ba05 0bbe cd60 0ebd
000002d0: 5922 20be 45ae 3d3e defa c73c 6db6 883c
000002e0: 217c d3bc 7759 7bbd e97a 3d3e bfc8 a73e
000002f0: 9847 723e b93b f13d 22f6 5abe 4beb 4c3d
00000300: d6f9 2cbd dfd3 a5bd 9f78 6b3e d410 9ebe
00000310: 9a3e 3ebe 64c0 31be 8967 81ba 5012 1fbe
00000320: 9a94 77be 96d7 98be e4a6 15be 4c4f 71be
00000330: b043 913d 1ec6 983c 10bd ffbb da5f 913c
00000340: 2820 57be ab87 a3bd 769e f6bc 1ba1 25be
00000350: 1eba c0bd 4711 b2bd ccfa 80be f7b7 ad3d
00000360: 3897 20bd 2ec8 86bc c592 533c 936f fcbc
00000370: 445a fa3d 4512 423e 0a45 873e a06e a4bd
00000380: 9ed7 2b3e f647 8d3e 529b cd3e 46f8 ab3e
00000390: 7297 593e 316c 153e b8aa a73e c794 083e
000003a0: 7777 afbd d7ba 50be 00cc debd 184b c53e
000003b0: 02de 35bd 2191 70be e6c8 e4bc b605 263c
000003c0: f9ae 6a3e 93e6 0fbe 1904 6cbd f47e 1dbe
000003d0: ba25 44be 7eb0 023e 7d44 ccbd 9cda 2ebe
000003e0: 2820 e6bc 9ee6 a1bd
0.21462278 0.23041923 0.30648592 0.12801597 0.36485764 0.08135213 0.1518253 0.12089722
0.23503163 -0.0009682715 0.09715158 -0.1148344 -0.19796196 -0.08027485 0.113358945 0.05067333
-0.24662717 0.11365602 -0.27807257 0.07537432 -0.15511803 -0.22574642 -0.24304985 -0.027773865
-0.03407973 0.20752004 -0.13913834 -0.08822356 0.11604403 0.12822898 0.16484983 -0.11105218
-0.2076227 -0.15201779 0.09529361 0.28455982 -0.02008827 -0.11929272 0.030585028 -0.16300425
0.26698196 -0.17854623 -0.18965003 -0.109431624 0.0033874717 0.23479216 0.21796185 -0.23848799
0.02057039 -0.16805193 0.13179424 0.2719355 0.14637366 -0.16556709 -0.23233297 0.21519555
0.29727456 -0.12847376 -0.031165926 -0.31595752 0.19340838 0.39115706 0.17656083 -0.30166718
-0.29862192 0.28095683 0.28988367 0.32036036 0.060736183 0.13743173 0.20230807 0.30483696
0.31535938 0.25063035 0.32574707 -0.05969372 -0.21607721 0.012208475 0.04177189 0.0765077
-0.1358993 0.00826925 -0.22940512 -0.09683452 -0.060217507 -0.27151886 -0.10089875 0.13680865
0.26372126 0.15597704 -0.032718237 -0.03354159 0.18537535 0.08772147 -0.13240983 -0.012503155
0.2881349 0.23811765 0.120758824 -0.059000522 0.19383356 0.22873849 0.10772217 0.26923725
0.14784457 0.047748454 -0.08106679 -0.08914612 0.23624653 0.27352774 -0.28123206 -0.118256085
0.08785414 0.23546514 0.36964607 -0.08241152 -0.119181655 0.2591217 0.38921583 0.083918706
0.07208368 0.28543705 0.08797311 0.05141667 0.23080894 0.09384431 -0.15315829 -0.3067019
-0.32922667 -0.2826021 -0.24774821 -0.33607322 -0.1810188 -0.14007854 -0.030132972 0.046620894
-0.0025512113 0.2507464 0.18894973 0.09345773 0.3003367 0.39039755 0.121793546 0.41799003
0.33009905 0.27941447 0.20827888 0.09185785 -0.11724976 -0.00818668 0.1609582 -0.10433921
0.0850559 -0.07458978 -0.0061730836 -0.045252815 -0.10232876 -0.19799957 -0.12366893 -0.046221904
0.030638358 0.066452384 0.15564743 0.04195968 -0.24846356 -0.13957734 -0.0788816 -0.13432343
0.09337278 -0.017902859 0.26021335 0.08876138 0.19877799 -0.026767673 0.26898432 -0.09352526
0.18827151 -0.0067117983 -0.13576403 -0.034760285 -0.15638103 0.1852351 0.024411615 0.01668855
-0.025816025 -0.061364617 0.18503918 0.32770345 0.23660123 0.11778969 -0.21382955 0.05002908
-0.04223045 -0.08097052 0.22995232 -0.30872214 -0.18578568 -0.17358547 -0.0009872775 -0.1553433
-0.24177781 -0.2985198 -0.14614445 -0.23565406 0.070929885 0.018649157 -0.0078045204 0.0177459
-0.2100836 -0.07984861 -0.030104857 -0.16174738 -0.09410499 -0.08694702 -0.25191343 0.08482354
-0.039206713 -0.016452875 0.012913411 -0.030814921 0.12224248 0.18952282 0.2641986 -0.080289125
0.1678147 0.27593964 0.40157562 0.33587855 0.21249178 0.14592053 0.32747436 0.13338004
-0.08567708 -0.20383774 -0.10878754 0.38533854 -0.044401176 -0.23492862 -0.027927827 0.0101331975
0.2291831 -0.14052801 -0.057621095 -0.1538046 -0.19155017 0.12762639 -0.099740006 -0.1707558
-0.028091505 -0.07905315

conv1.bias f4 [10]
00000000: b4ca 753d c855 133e a411 113e fdd9 30bc
00000010: 52c3 443e acea 99bd 55b2 83bd 5915 20bd
00000020: 2298 763e 11d6 f03d
0.060007766 0.14388192 0.14166886 -0.01079416 0.19215134 -0.07515463 -0.064304985 -0.03908286
0.24081472 0.1175958

conv2.weight f4 [20, 10, 5, 5]
00000000: 5a6f 57bd f6a8 abbb fe48 afbc c00f 2f3c
00000010: 8a6c 063b e700 4a3c a02c d9bd 50e4 b4bc
00000020: 1f1c 82bc dc6a 2b3b 4b9c d4bc 3fc9 b8bd
00000030: f096 68bd c9b9 273d 6d94 9abd 5885 22bc
00000040: 2484 0abd bf6e 193d c0b9 f1bc e015 53bd
00000050: 2187 b7bd 12bd eabc bf16 fabb 11ee ee3c
00000060: 268b 8cbd 8a48 2e3d 327b 33bc b36d 833c
00000070: d9e8 2a3b 98e4 36bd 445b 54bd 551a a3bc
00000080: 5a95 a0bc 1ce1 1e3c 13a9 d0bc 3bde be3c
00000090: d1ba 0abd 27c2 2f3d 103e 923c 2628 22bd
000000a0: a2b4 7fbd 77df 233d 8442 473d 5ac6 263d
000000b0: b99c 62bd 12ca bcbc ee7d 8fbc 4c72 c53c
000000c0: 0e40 6dbd e515 9bbd e98c f2bd c1a7 61be
000000d0: 4ad5 2cbe 16ef 97bd 08c1 2f3d c867 14be
000000e0: 503e cdbd 4dd2 fb3c dc00 c93c 4ca4 16bc
000000f0: baf3 72be c50a 70bd c083 193e 15af c73b
00000100: 324f bdbd fffd d0bd 6dff b03d bc06 293e
00000110: cd5f 2d3d af6e 96bd c139 e73c 3b0e 243d
00000120: ae11 ba3d c9df a4b9 33e2 4abd e5aa f038
00000130: 1ab7 fe3c 736a d23a 93d2 bb3d f152 4b3d
00000140: 1af4 b23c 9000 dd3d 9268 8e3d 6407 8e3d
00000150: ab56 8a3c 8d5e 6b3c a3c7 423d 1ed9 083d
00000160: 9b22 e6bc c590 f73c 51c4 b9bc 9e5c 5a3d
00000170: 23c0 463d 17df 0d3d 39b9 543d f361 ab3c
00000180: bf67 2a3d 40e5 513c f55b 7cbb 6cce 31bd
00000190: e0d8 49be 43e7 4cbd 672b c13d 4ac6 893d
000001a0: 41f9 b73d 82a0 00be 83f8 3f3d cbb8 3e3d
000001b0: cd88 a5bd 82dd a8bc bdda bdbc 408a 913d
000001c0: 5f14 9abc f50a d2bc 44df c9bc ee26 17bc
000001d0: 4517 7d3d 75c3 8abd cf69 6fbc f6e6 0cbc
000001e0: 313d 6b3d 14d5 0cbc efd8 28bb 5e3c 323c
000001f0: 229b 99bd 5559 4cbd 2465 bdbd ac92 a0bd
00000200: c093 fb3c e869 11bb 4bd4 f1bd abe5 25bd
00000210: bd10 b8bb c575 24bc cef3 02be b28f cdbd
00000220: 6c96 dabd 61f1 d7bc 51d5 c4bc 991c 93bd
00000230: 2a11 283b 4507 8ebd da3c f6bd 52ae 253d
00000240: c5d0 f63c abc5 3ebb 6c2a a5bd 3754 cabd
00000250: 8bf4 1f3c 3ac4 213d 2d08 60bd 6a57 69bc
00000260: 6e17 083c 4bfe 8bbd 586a 213c 7ac5 2c3d
00000270: 8b85 403d 32fb 8cbc 56d9 97bd 6ef9 efbc
00000280: a8f7 a1bc c421 aabc c868 0e3d 2bdf 07bb
00000290: b7c2 6e3d b375 5c3d ff86 97bd 83c5 88bd
000002a0: f803 c2bc 0797 5fbd f606 debc e00e 69bd
000002b0: ef65 92bc 50e3 29bd b16f 1f3d c44a 26bd
000002c0: 7b43 18bc a60e 72bc 420a 343d 03cb 983c
000002d0: 10e2 e9bc ac15 22bd db57 36bd d200 c9bc
000002e0: 0568 193d af3f 9c3b 0779 8fbd 30c1 abbc
000002f0: 0130 3e3c 1ebf 3ebd 75e9 533c 1ff4 3f3c
00000300: efc3 b1bb f1c4 42bd ff80 a33c 2186 633c
00000310: 3290 1c3d fee1 a63d 1d90 383c ff8e 5f3d
00000320: 142a b7bc 2e88 193c 3994 663c 9b17 48bd
00000330: 7833 45bd a744 75bd f8e4 483d 72b9 ba3c
00000340: 30ca 73bc 6fa9 17bc 732f 49bd 0b09 b1bd
00000350: 6031 4bbd 22ee c53c 46dc 81bb 90ce 22bb
00000360: 2c49 3f3c ca7e 14bd a1eb 1cbd 50f6 1e3c
00000370: bf1c 28bc 7838 9cbc fd59 a23c 2d4a 8d3b
00000380: 77e8 e93b 3d33 003d 381a 7abd 3942 f9bc
00000390: 0e7e 4ebc 2c5c 823d d980 8b3d 271a a5bd
000003a0: 086b 38bd 8c95 b03d 78ca 383d b7d0 3bbd
000003b0: 79cc a63c 1ade f33d 1f66 d23d 2eee 8fbc
000003c0: 341f 8cbd aa75 88bd 2c21 4a3d 8a48 633c
000003d0: 01b6 53bc 446e 603c cbd2 dc3c a672 793d
000003e0: 52fb 8fbd f661 4b3c 938b a1bb 7cb2 23bd
000003f0: ee6f a8bd bc1b 6a3d 5694 be3c 8677 2dbd
-0.052596428 -0.0052386476 -0.02139711 0.010684907 0.0020511472 0.012329317 -0.10604215 -0.022081524
-0.01588255 0.0026156222 -0.025953433 -0.0902276 -0.05678457 0.040948663 -0.07547841 -0.009919487
-0.033817425 0.03745913 -0.029507518 -0.051534534 -0.08961321 -0.028654609 -0.007632106 0.029166253
-0.06862478 0.042549647 -0.010954665 0.01604352 0.002607873 -0.044651598 -0.05184485 -0.019910017
-0.019602466 0.009697225 -0.025471246 0.023299327 -0.03386957 0.042909767 0.01785186 -0.03958907
-0.062428124 0.040008035 0.04864742 0.040716507 -0.055325244 -0.023045573 -0.017516103 0.024102353
-0.057922415 -0.075725354 -0.11843283 -0.2203665 -0.16878238 -0.07418649 0.0429087 -0.14492714
-0.10021651 0.030739928 0.024536543 -0.009194445 -0.23725787 -0.05860402 0.14991665 0.0060938695
-0.09243621 -0.10204696 0.086424686 0.16506475 0.04232769 -0.0734533 0.028225781 0.040052634
0.090854034 -0.0003144725 -0.049532127 0.000114759234 0.031093169 0.0016053453 0.09171023 0.049639646
0.021844912 0.10791123 0.06953539 0.069350034 0.01688703 0.014365804 0.04755367 0.033410184
-0.028092673 0.030220399 -0.022676619 0.053310983 0.04852308 0.034636583 0.051934455 0.02092073
0.041602846 0.012811005 -0.003850696 -0.04340975 -0.19711637 -0.050025236 0.094321065 0.06727274
0.08983088 -0.12561229 0.04686786 0.04656295 -0.08082733 -0.020613436 -0.023175592 0.07106447
-0.018808542 -0.02563999 -0.024642594 -0.00922559 0.06178977 -0.06775562 -0.014612629 -0.008599987
0.057431404 -0.008595724 -0.0025764068 0.0108786505 -0.07500292 -0.04988988 -0.09247807 -0.078404754
0.030710101 -0.002218837 -0.1180807 -0.04050223 -0.0056172297 -0.010037844 -0.12788317 -0.10037173
-0.10673222 -0.026360216 -0.024027498 -0.07183189 0.0025644996 -0.0693498 -0.12023325 0.040449448
0.030128846 -0.0029109519 -0.08064732 -0.09879344 0.009762893 0.039493777 -0.054695297 -0.014242033
0.008306367 -0.06835612 0.0098520145 0.042180516 0.047002356 -0.017209623 -0.074145004 -0.029293742
-0.019771412 -0.020768054 0.034767896 -0.0020732384 0.058291163 0.053823184 -0.07398795 -0.06678297
-0.023683533 -0.05458739 -0.027102929 -0.05689895 -0.017870871 -0.041476548 0.038924877 -0.040598646
-0.009293432 -0.014774 0.043955095 0.018651491 -0.028550178 -0.03957145 -0.04451738 -0.024536524
0.037452716 0.004768334 -0.07005506 -0.020966142 0.011608125 -0.046568982 0.012934078 0.011715918
-0.0054249684 -0.0475511 0.019958971 0.013886959 0.038223453 0.08148573 0.011264828 0.05457973
-0.022358932 0.009370847 0.014073425 -0.048850637 -0.048144788 -0.059879925 0.049046487 0.022793505
-0.014879748 -0.009256705 -0.049117517 -0.08644303 -0.049607635 0.024161402 -0.003963026 -0.002484236
0.01167516 -0.036253728 -0.03831065 0.00970228 -0.01026076 -0.019069895 0.0198183 0.004311821
0.0071383077 0.031298865 -0.06106016 -0.030427085 -0.012603296 0.06365237 0.06811685 -0.08061629
-0.045023948 0.08622274 0.045114964 -0.045853343 0.020361172 0.11907597 0.10273384 -0.017569628
-0.06841889 -0.06663068 0.04934804 0.013872275 -0.012921811 0.013698164 0.026955983 0.060900353
-0.070303574 0.012413492 -0.0049299686 -0.039965138 -0.08224474 0.057155356 0.023264091 -0.042350315

conv2.bias f4 [20]
00000000: b844 69bc 9cda 263d 6d92 32bc a05b 96bd
00000010: 4de4 eb3c eb2d 50bc 42f6 0e3d 5737 063d
00000020: 423f bfbc e0c1 853c aa05 853d 44fc f83b
00000030: 702d f4bc 75c3 333d 7d08 6cbd 3066 66bd
00000040: d85a d53c ccc6 11bd 6565 993c 376e e43c
-0.014237575 0.040735826 -0.010899168 -0.07341695 0.028795386 -0.01270626 0.03490282 0.03276762
-0.023345593 0.016327798 0.06495221 0.007598432 -0.029806823 0.043887574 -0.057625283 -0.056249797
0.026044294 -0.035589978 0.018725106 0.027884586

fc1.weight f4 [50, 320]
00000000: 8448 ad3c c97c 1b3a 5033 d53d 3374 7d3d
00000010: 9d46 22bc 2b64 153c b4dc 243c baf7 b9bc
00000020: addc 74bd f1fe 2abc 61f6 883d ecaf 53bc
00000030: ebfd 78bc 1ee3 a7bd aca6 c63c 27fd 67bd
00000040: 2ff3 323c 5a5e 25bd 39c7 6e3d 11dd 9e3c
00000050: 7eaf 39bd 467a eebb 2c10 773b 0d69 9dbc
00000060: 563c 6a3c 19a3 46bd 40f7 19bc 8482 23bc
00000070: 7d8f 32bd bf3c 5d3b b3df 53bd d502 5c3d
00000080: 0e4d 60bc 1649 a7bd 567d 09bd 8723 063d
00000090: d2bd 12bd 38c0 e6bc faff c63c 4e39 b33d
000000a0: 126e 62bc 15b7 4e3d d4c8 483c 87d6 78bc
000000b0: a741 84bc ee8a 73bd a505 9f3c 6cd9 b2bd
000000c0: 8d75 353d c135 b8bc bd18 21bd f5f9 383d
000000d0: 6eaf 4d3d bebf d93c 7696 fb3b cc3c 2c3b
000000e0: 7847 413d 3e20 bfbc f7e2 c2bc 92f3 fbbb
000000f0: cb55 443d 71b5 98bc 0bf9 09bc b177 b0bb
00000100: d281 15bc 4550 3d3c e481 a8bd 8db2 4f3b
00000110: 814b 33bd e330 ed3d aa4e 29bc 3a36 bc3d
00000120: 0e05 8ebd 89dd 8f3c d4bf a13c 0385 59bc
00000130: 6e9e bbbd a2fd d0bc 1697 97bc fecd c23c
00000140: 4866 fdbc 93c6 bd3c 4f14 403d 155c b83d
00000150: 2d37 ffbb 6557 bb3b de94 1a3c 47eb ffbc
00000160: 9b0f 193c 2cd8 3a3d 54b6 6cbd 658c 1abb
00000170: 58fc 0d3d 9a9e 4e3d fc41 423d 3086 b93c
00000180: a9dc 0d3d f6f8 8bbc 75c2 b33d 7b55 6ebc
00000190: 4de3 3f3c 0bd0 77b8 94f3 453c b046 d6bd
000001a0: c8bd ddbc 25c6 29bd c741 553d 119c 8abc
000001b0: 96e4 7ebd e776 61bd 403f edbc 7463 243d
000001c0: 1213 b8bd e140 21bc 9ff1 45bd 0a5c cfbd
000001d0: fa3d cbbc 44f0 76bc a8da 343c 4ac5 833d
000001e0: 2b9a 0a3d 3aa5 bbbc 1a3f ea3c f891 543b
000001f0: 6af0 05bd 5776 4d3d 38e5 143c a09e 43bb
00000200: 6e34 1bbc 653f 5a3d fb5f e63c defb 023d
00000210: 2dc7 21bd 0032 b03c 4002 a2bc 63e6 b03b
00000220: 06ca 6abc dda0 0e3d a65b 2b3d 25b9 0ebd
00000230: 1784 743c 0310 163b cba4 34bd efda 583c
00000240: c686 c0bc c56b 743c 9f15 aa3c c989 973a
00000250: 1bad 753c 67bd d1ba 61ad b4bc 3164 3b3d
00000260: 30fb 47bd dfd3 5d3d a95b 85bb d103 1e3d
00000270: 023f 5ebd 3cf0 723d bbf9 01bd 75b9 833c
00000280: de51 31bd d9a8 b53c f130 c7bd 3040 2abc
00000290: 4101 9cbc 1032 c1bd 6b92 bcbd 4fd2 e33c
000002a0: 0eb9 3cbd cae5 3b3c 2fdb 5e3d 77d6 75bc
000002b0: 34fa 603c 19eb 8f3d 17f6 8dbc 6efd b03b
000002c0: 6dee d1bd e0c2 38bd 5439 9dbd efbd f0bb
000002d0: 0770 d2bd b1c9 a5bb 190a 9b3b 8262 62bd
000002e0: cf77 91bb cb12 1dbd 49e7 19bd 3380 2ebc
000002f0: 1884 80bc a25b 5f3d d886 b23d 3b1c 20bd
00000300: f287 51bd 0f52 4dbc 38ff e13c 3010 9c3c
00000310: 7380 813d ad28 2b3d 7547 613d e4bc 1bbd
00000320: 2707 e03c 7666 aabc d768 3a3d 45a6 cebc
00000330: 20a3 a1bd 4221 19bc 3ce1 97bc c444 81bd
00000340: 722d 2b3c 72b5 8a3c 97d1 ac3d c464 68ba
00000350: 30ab c5bc 288a 0f3c f3a9 593d d29d df3c
00000360: 873a 373d 4f0e 56bd eb0e abbb f172 a9bc
00000370: dc63 023d 8f8c 813c c3b4 abbb cb1d 6bbc
00000380: 3966 ca3c 2a9d 52bd 1d76 cdbb e6d2 16bd
00000390: b81d d53c 90df 10bd af14 aa3b 5608 563d
000003a0: c08c 81bd 4706 a9bc d4fe 6538 6a67 fbbc
000003b0: eced 01bd 96b9 4abc 2193 833b ae45 18bc
000003c0: d64e 9abb c675 febc 244e 4ebd cb69 1d3d
000003d0: 3c53 9fbd 7075 74bd 3dd6 3fbd 7187 8e3d
000003e0: b253 afbd 2492 73bc 97b9 da3c f4e2 5bbc
000003f0: b23a 9dbd 53a5 0a3b a299 6e3d b978 0b3d
0.021152742 0.0005931375 0.10410178 0.061878394 -0.009904531 0.00911812 0.010062385 -0.022701133
-0.059780765 -0.010436759 0.06687618 -0.012920361 -0.0151972575 -0.08197616 0.024249397 -0.05663791
0.010922237 -0.040373184 0.058295462 0.019392522 -0.045333378 -0.0072777597 0.0037698848 -0.019215131
0.014296612 -0.048495386 -0.009397328 -0.009979848 -0.043593872 0.0033758131 -0.051727008 0.05371364
-0.013690246 -0.08168237 -0.033566795 0.032748725 -0.035825558 -0.028167829 0.024291981 0.087511644
-0.013820188 0.05046757 0.012254912 -0.015187866 -0.016144587 -0.059458666 0.019411871 -0.08732876
0.04430156 -0.02248657 -0.039330233 0.045160253 0.05021613 0.026580688 0.0076778485 0.0026281355
0.0471873 -0.023330804 -0.023789866 -0.007688948 0.04793338 -0.018641206 -0.008421193 -0.005385362
-0.00912519 0.011554782 -0.082279 0.0031692118 -0.043773178 0.1158159 -0.010333696 0.091900304
-0.06934558 0.01756169 0.019744791 -0.013276341 -0.091610774 -0.025511567 -0.01850466 0.023779865
-0.03093256 0.023165977 0.046894368 0.09001938 -0.00778856 0.0057172053 0.009434907 -0.031240119
0.0093421 0.045616314 -0.05779107 -0.0023582217 0.034664482 0.050444223 0.04742621 0.022646993
0.034634266 -0.017086487 0.08777324 -0.014546747 0.011711908 -5.9083144e-05 0.012081999 -0.10462701
-0.027068034 -0.04144873 0.052064683 -0.016920121 -0.062229715 -0.055045035 -0.028960824 0.04013391
-0.089880124 -0.0098421285 -0.04832613 -0.10124977 -0.024809826 -0.015071932 0.01103846 0.06434114
0.033838432 -0.022905935 0.028594542 0.0032435637 -0.03269998 0.050161686 0.009087853 -0.0029849187
-0.009472949 0.053283114 0.028121939 0.03197848 -0.03949659 0.021508217 -0.019776464 0.005398558
-0.014330393 0.03482138 0.04183545 -0.034844536 0.014924071 0.0022897727 -0.04410247 0.013235792
-0.023501765 0.014918272 0.020762263 0.0011561449 0.014994885 -0.0016001881 -0.02205533 0.045749847
-0.048823535 0.054157134 -0.0040697646 0.03857786 -0.054259308 0.059311137 -0.031732302 0.016079644
-0.043290965 0.02217524 -0.09726132 -0.01039128 -0.019043567 -0.09433377 -0.092076145 0.027810244
-0.04607492 0.01146836 0.05440825 -0.015004746 0.013731528 0.07027263 -0.017329259 0.005401305
-0.10250554 -0.045107722 -0.0767695 -0.0073468606 -0.10275274 -0.005059444 0.0047314283 -0.055269726
-0.004439331 -0.038348 -0.037574086 -0.010650682 -0.015687987 0.054530747 0.08717126 -0.039089423
-0.05115504 -0.012531771 0.027587518 0.019050688 0.06323328 0.04178684 0.054999787 -0.038021937
0.02734716 -0.02080081 0.04551014 -0.025225768 -0.07892442 -0.009346308 -0.018540017 -0.06311944
0.010447847 0.016932223 0.084384136 -0.0008865113 -0.02412948 0.008760966 0.05314059 0.027296934
0.04473355 -0.05225974 -0.005220284 -0.020684691 0.031833515 0.015814094 -0.0052400543 -0.014350365
0.024706947 -0.051419415 -0.0062701837 -0.036822222 0.026015148 -0.035369456 0.005190454 0.052254044
-0.06325674 -0.020632876 5.483518e-05 -0.03068896 -0.03172104 -0.012373349 0.004015342 -0.009293957
-0.004709105 -0.031062018 -0.05036749 0.03843097 -0.077795476 -0.05968231 -0.046835173 0.06959427
-0.085608855 -0.014866386 0.026699824 -0.013420809 -0.07677211 0.002115567 0.058251984 0.034050677

fc1.bias f4 [50]
00000000: 819b 51bc eb0f 0ebd 0baa 70bd fd89 303c
00000010: 2f98 503d 55a1 6b3b 0711 b53c 10fb e73b
00000020: 27f9 7b3d 6384 593d 550b 1c3d bce2 613c
00000030: 9619 ff3c 268a 70bc 0981 dabc 36c6 b6bc
00000040: 953c a2bc 447d 653d ab2e 223c 5769 023d
00000050: 0b1c 043d bfa4 263d 750d 84ba 51de 253d
00000060: c8e9 ffbc bc1a 75bc 0fa9 1a3d d5a0 01bd
00000070: 09d2 1fbd 141e 0ebd ba0d d0bc 406a e6bc
00000080: 1da7 d43c 80bc fe3c 2503 513c fe2d 7d3b
00000090: 0d30 3f3d cd95 543d b977 75b9 ff7e e23c
000000a0: e1d5 4cba 707c 263c 2c1d 80bc 9265 e43b
000000b0: 0012 8e3d 4b47 923b 931c 063d ee4a cf3c
000000c0: 0b0a 033d 4210 4d3d
-0.012793423 -0.03468315 -0.058755916 0.0107750865 0.050926384 0.0035954316 0.022102846 0.0070794895
0.061516907 0.05310477 0.038096745 0.013786968 0.03114013 -0.014681375 -0.026672857 -0.022311311
-0.019804278 0.056027666 0.009898822 0.03183874 0.032253306 0.040684458 -0.0010074811 0.04049522
-0.031239405 -0.014959987 0.037758883 -0.031647522 -0.039018665 -0.034696653 -0.02539717 -0.028126836
0.025958592 0.031095743 0.012757097 0.003863215 0.046676684 0.051900674 -0.00023409621 0.027648447
-0.0007813853 0.010161504 -0.01563891 0.006970116 0.06937027 0.004464065 0.032742094 0.025304284
0.031992 0.050064333

fc2.weight f4 [10, 50]
00000000: c139 06bc d191 093e 4e9c f03d 6b96 1b3e
00000010: 87c2 783e da55 00be 1721 30be d585 1fbd
00000020: 7ec7 9cbe cacf 2d3e 866c 1abe 34ac 03be
00000030: 185f f6bd 93ec 7dbe 6c2b 55be 7a3c 433e
00000040: 0a1e 35be f4db 403e 023d c6bc 8650 233e
00000050: 6ce4 d03d 45ff 51be 562f 40be 37c3 153d
00000060: 448c 433e dfad 6b3d 2b74 d53b 182c 06be
00000070: 74eb f33d 594a 273e 85ac e3bd 51a3 17be
00000080: e373 d23d 3a9f b3bb 48ad 2b3e 9b58 05be
00000090: b05e 9abc 1198 72bd d28b 5cbe 584e f33c
000000a0: e67f c9ba dae8 02be 342e 643e db07 d4bd
000000b0: dd4f 33be ba2a 733e 01bb cdbc 6860 48be
000000c0: 821a 1d3e 05d5 153e c96b 5d3e 8594 80be
000000d0: 6956 9bbb 8734 97bd 47ee 1ebe 4fb1 ecbd
000000e0: dc9e 2fbe 2a2b 363e 4062 4abd 1dfb 40be
000000f0: 5146 5e3e 90be 343e 8c5e 5b3e e2fb 0f3e
00000100: 07af 19be d35b 8f3b 70e1 0a3e a513 38be
00000110: 98de 22bd 72f6 babd 59f1 3dbc d219 dd3d
00000120: e0d3 8e3d c0c0 9e3e d35d cabd 039f 133e
00000130: e6a7 fbbd bc62 373e cd03 09be 03bc 1cbe
00000140: 78cb 103e 022e 99bd e759 60bd 7c24 82bd
00000150: 4969 abbd 8e7e 10be 8bb1 483e ff27 ba3e
00000160: d2fd 4c3e f403 d2bc 3e8b 3dbe e152 d43d
00000170: a8e9 c0bd 9c6c 323d 818a 523e 53e9 febd
00000180: 0fb3 3abd 9d2e fdbd 0c2a cfbd 7e31 f6bc
00000190: 84a1 d8ba 9468 c7bd d0e8 49bd fcbb adbc
000001a0: 70df 1fbe c5eb 3d3e 9e36 023d cba2 4a3e
000001b0: 30e8 79be 54b2 143c 908f f0bc 0c9f c1bd
000001c0: 4fe6 2f3e 3e2a 57be a255 a0bc 647e b83d
000001d0: 4db0 3e3e 37d6 333e 90b9 1abe d66e a83d
000001e0: ac62 063d 2e8d 38be 3302 72be 82df 05be
000001f0: 3ffc c23c b77a 383e 8cf9 fa3d 3773 303e
00000200: 38df 193e 8228 403e 5fb4 2cbd 1d10 4dbd
00000210: 87bc c8bd 6e73 ae3d 077b b1bc 0bf1 cebd
00000220: 485a 033e 9836 9f3d 7a4f b2bd 2e67 11be
00000230: bd90 36be a7a3 0c3e 070c 6c3e 9147 7c3d
00000240: b6a3 543e a263 0dbe 050a 213e e83e 7ebd
00000250: 975c 77bd 6c8e 1b3e 5b81 9cbc 7628 55bc
00000260: 794b d63d d7ff 343e b49d 00be 9199 8c3d
00000270: 8c18 24bd 0df1 493e b82c ac3d 5606 67bd
00000280: a87a 2bbe 2338 30be 18ae d6bd 6419 593e
00000290: d1fb 3d3e 6ba4 09be ac44 fc3d 1ee6 9bbd
000002a0: d549 fcbd 86b3 da3d abc9 103b 2d21 d6bd
000002b0: a454 1abe 01ff 5abe 9ca1 85bd 7957 2c3e
000002c0: 4ce7 1dbe ada5 c8bd 4d05 0d3e 36bd 09be
000002d0: f720 cabd a9da 503e 75f0 03bd a5f6 10be
000002e0: b29e f7bd 05d5 c0bd 409f 403e aa37 62bd
000002f0: aabf 593e b703 8fbd 6c92 e5bd 2974 c03c
00000300: 7d54 79bd 28b2 513e 71e5 9ebd 34b7 9fbd
00000310: 07fa d53d 4ed1 bdbb 8971 26be f029 093e
00000320: d4e5 123c 25b0 82be c6e7 b73d 4ed3 3fbe
00000330: 66e4 dbbd bc60 333e bc44 803e 5573 63bd
00000340: 486c 033e b5ba ebbd 3dbb 153e b953 f43c
00000350: af8d 963d 344c 093d ae34 6a3e 11a6 9fbc
00000360: e142 27be d491 553e 3617 7d3e 1786 27be
00000370: 96cd cf3c 145d 843d f1c3 0b3e 17b7 05be
00000380: 5868 88bc c5af 85be d0f5 dcbd 1edd 4c3e
00000390: 9092 e8bd 3953 433e 08e4 473e 3923 cbbd
000003a0: ac7c d53d 40ce a13e 0c36 44be 4fd2 f73d
000003b0: 6f26 e8bd 8dde 1abd 3cb1 623b 9437 27be
000003c0: 0ef6 a4bd df9b d93c 32e2 d9bd 46c3 5bbd
000003d0: d412 bdbd 5521 c3bd ae33 ccbd e9f1 653e
000003e0: cfce 9c3b 8712 5dbe abee dabd 9436 fa3d
000003f0: 2f27 f7bc a8e7 1a3e c6ac eabd 4e55 37be
-0.008192481 0.13434531 0.11748563 0.15194099 0.24292956 -0.1253275 -0.17200123 -0.03894599
-0.3062095 0.16973796 -0.15080461 -0.12858659 -0.120298564 -0.24797277 -0.20817345 0.19066039
-0.1768724 0.18833905 -0.024199013 0.15948686 0.10199818 -0.20507534 -0.18768057 0.036563125
0.19096476 0.057538863 0.0065140924 -0.13102758 0.119101435 0.16336955 -0.1111689 -0.14808394
0.1027601 -0.005481628 0.1676532 -0.13022082 -0.018843979 -0.059227053 -0.21537712 0.029700443
-0.00153732 -0.12784138 0.2228325 -0.10353061 -0.17510934 0.23746768 -0.025113584 -0.19568026
0.15342143 0.14632042 0.21623148 -0.2511331 -0.0047405255 -0.07383066 -0.15520583 -0.115572564
-0.17150444 0.17789903 -0.049410105 -0.18845792 0.21706511 0.17650819 0.21422786 0.1406093
-0.15008174 0.00437496 0.1356256 -0.17976244 -0.039763063 -0.09129037 -0.011593186 0.107959405
0.06974006 0.31006432 -0.09881177 0.14416127 -0.122878835 0.17908758 -0.13380356 -0.15306096
0.14140117 -0.074794784 -0.054773238 -0.06354615 -0.08369691 -0.14110777 0.19598977 0.3635864
0.200187 -0.02563665 -0.18510148 0.103673704 -0.094195664 0.04356061 0.20560648 -0.12446847
-0.04558092 -0.123624064 -0.10115442 -0.030052897 -0.0016527628 -0.097367436 -0.049294293 -0.021207802
-0.15612578 0.1854697 0.03179037 0.19788663 -0.24404979 0.00907572 -0.029365331 -0.09454164
0.171777 -0.21012208 -0.019572083 0.09008482 0.18621941 0.17562185 -0.15109849 0.08224265
0.032808945 -0.18022606 -0.23633651 -0.13073543 0.023801921 0.18015562 0.122546285 0.17231451
0.15026557 0.18765453 -0.042164203 -0.050064195 -0.09801584 0.0851811 -0.02166511 -0.10104569
0.12827408 0.07774085 -0.08706565 -0.14199516 -0.17828651 0.13734303 0.23051463 0.06159169
0.20765576 -0.13807538 0.15726478 -0.06207171 -0.060391035 0.15191048 -0.01910465 -0.013010135
0.10463614 0.1767572 -0.12560159 0.06865228 -0.040062472 0.1972086 0.08406967 -0.056402527
-0.16746008 -0.17208914 -0.104824245 0.21201092 0.18553092 -0.13441627 0.123177856 -0.07612251
-0.1231877 0.10678773 0.002209286 -0.104555465 -0.1507135 -0.21386339 -0.06524965 0.16830243
-0.15420264 -0.09797225 0.13771553 -0.13451084 -0.09869569 0.20395912 -0.03221174 -0.14156587
-0.120908156 -0.0941563 0.18810749 -0.055228867 0.2126452 -0.069831304 -0.112095684 0.02349289
-0.06087159 0.20478117 -0.07758606 -0.07798615 0.104480796 -0.0057927733 -0.16254248 0.13394904
0.008965928 -0.25525013 0.08979754 -0.1873295 -0.10736923 0.1751737 0.2505244 -0.05552991
0.12834275 -0.11510221 0.14622207 0.029825078 0.07351243 0.03351994 0.22871658 -0.019488366
-0.16334106 0.2085641 0.24715886 -0.16359745 0.025366586 0.06463066 0.13648964 -0.13058124
-0.016651317 -0.26110664 -0.107890725 0.20006225 -0.113560796 0.19074716 0.19520581 -0.099188276
0.1042417 0.3160267 -0.19161242 0.1210066 -0.113354556 -0.037809897 0.0034590503 -0.16329795
-0.08054744 0.026563583 -0.106388465 -0.053653024 -0.09232107 -0.09527842 -0.099707946 0.22455563
0.0047853957 -0.21589099 -0.106900536 0.12217441 -0.030170051 0.15127432 -0.11458735 -0.17903635

fc2.bias f4 [10]
00000000: 12c4 4b3d 79df 8bbb 0654 b7bd cb9c cd3d
00000010: 6afd af3d 1fb7 a93d f346 9dbd a0cb b23d
00000020: 6c74 293d a833 f13c
0.049747534 -0.0042685834 -0.08951573 0.100396715 0.08593257 0.08286881 -0.07679548 0.08730245
0.041370794 0.029443577
